results/3/Test5/Drive/Drive-100044.onnx (onnx, 108282 bytes, 9 tensors)

discrete_act_size_vector f4 [1, 2]
2.0 3.0
00000000: 0000 0040 0000 4040

network_body._body_endoder.seq_layers.0.weight f4 [128, 70]
-0.08000592 0.09287911 -0.06757811 -0.048132103 0.12964271 0.10959137 -0.021492345 -0.06474696
0.07945129 -0.118469045 0.06566546 -0.14901975 -0.09739388 -0.1639835 -0.028498635 -0.11936573
0.0023369724 0.03672407 -0.15768158 -0.0044654217 -0.023165522 0.0019804128 -0.03519468 0.14221886
-0.15840507 0.085998476 0.11537472 0.024488563 -0.029506296 -0.16131046 0.13001642 0.11397025
0.04180045 0.09753276 0.110114574 -0.11591202 -0.14010063 0.16184846 -0.064150296 0.14884606
-0.039505236 -0.21078901 0.020726135 -0.025597917 0.078089036 0.0040794103 -0.12330727 -0.1556273
-0.133351 0.07285881 -0.15853117 -0.035371676 -0.06863216 0.04667721 -0.06864026 0.04038336
-0.13622008 -0.118125096 -0.0130761955 -0.048248928 -0.11852764 0.14848459 -0.006405244 0.06718845
-0.16139455 -0.14133291 -0.06776347 0.0925046 -0.10214789 0.16552319 0.34239447 -0.022867255
0.1208634 0.16326587 0.16941202 -0.072979614 0.36652064 0.018383065 -0.101897866 -0.05481822
-0.09548783 0.09796284 -0.0510826 0.060222507 0.1585326 -0.05828394 0.21735969 0.224602
0.14976943 -0.019477798 -0.039283857 0.19351748 -0.042838432 -0.0021328966 0.007480683 0.16792923
-0.25186637 0.028884992 -0.110888444 0.016999207 0.1276897 0.13680011 0.019197065 0.242056
0.110278435 0.24144879 0.33390942 0.08587299 -0.05435192 0.043055404 0.055907674 0.039353307
-0.02241517 -0.08026071 0.091365665 -0.039260283 0.15240836 0.22469948 0.17935176 -0.41194084
0.1488021 0.26251814 -0.22486645 0.12222093 -0.0040650084 0.03708227 0.06432202 -0.007409235
0.06928367 0.11629147 0.10467764 -0.11636942 0.0016287133 -0.2631095 0.123777024 -0.14318293
0.0760625 -0.063151516 -0.036223624 -0.0016134123 0.18250574 -0.13635528 0.21349633 0.044904504
-0.03754524 0.10001748 0.13187842 -0.22979142 0.030005498 -0.07334317 0.14867549 0.059434593
0.2707571 -0.032094393 -0.05933735 0.028501658 0.115053415 -0.21195751 0.10644201 -0.051090177
0.029933153 0.046099335 -0.03734697 0.049621772 0.07493212 -0.016641818 0.0071104714 0.114969745
-0.2780845 0.10227189 0.0014937555 0.11660668 0.11967397 0.0654928 0.1577589 -0.11735459
0.29168996 -0.09461488 0.15118065 -0.029154317 0.012499074 -0.10914696 0.16980338 -0.06767327
0.048042048 0.1933269 -0.0017318747 0.063530415 -0.2125613 0.001946575 0.063811235 -0.10145078
-0.14985943 0.02357213 0.15046349 -0.16531965 0.1916068 0.16870466 -0.10091369 0.11619822
0.09085263 0.21014008 -0.09555577 0.22244658 -0.11247266 -0.012156423 0.051451642 0.032328453
-0.07648801 0.09705956 0.065792955 0.0078071156 -0.14501885 0.033315428 -0.11071643 0.07225801
0.17546882 0.13983375 0.0011725163 -0.12403766 0.25072002 0.17523722 0.21888325 -0.15934172
-0.13323057 0.17635904 0.075192265 -0.105813496 0.012577142 -0.1781482 0.0174402 0.21548346
-0.15182388 0.14700635 -0.15901637 -0.08781391 0.096503854 -0.25773922 0.06510661 0.051726025
0.20949085 -0.027217908 0.19915596 0.050455328 -0.11835158 -0.19030978 0.011016006 -0.023040637
-0.079198204 -0.07374607 0.06624315 -0.08258937 0.06695888 -0.034472875 0.28176832 -0.077665135
00000000: 25da a3bd 6737 be3d 6466 8abd 2b26 45bd
00000010: 0fc1 043e 7171 e03d b710 b0bc 0e9a 84bd
00000020: 5cb7 a23d e69f f2bd 9d7b 863d a298 18be
00000030: 7176 c7bd 4aeb 27be f875 e9bc 0576 f4bd
00000040: e427 193b fa6b 163d 4877 21be ac52 92bb
00000050: 9fc5 bdbc d0c9 013b 4c28 10bd d2a1 113e
00000060: f034 22be f81f b03d 9549 ec3d 3d9c c83c
00000070: 30b7 f1bc 922e 25be 0623 053e 3c69 e93d
00000080: f336 2b3d 41bf c73d c083 e13d 4863 edbd
00000090: 8a76 0fbe 9abb 253e 3b61 83bd 1a6b 183e
000000a0: 3ed0 21bd 13d9 57be dbc9 a93c b9b2 d1bc
000000b0: 25ed 9f3d 93ac 853b 8688 fcbd c35c 1fbe
000000c0: 2a8d 08be 0037 953d ff55 22be e4e1 10bd
000000d0: 058f 8cbd 9a30 3f3d 4493 8cbd 0669 253d
000000e0: 477d 0bbe 92eb f1bd 8a3d 56bc aba0 45bd
000000f0: 9fbe f2bd 580c 183e 15e3 d1bb 199a 893d
00000100: 9d44 25be 93b9 10be 93c7 8abd 0d73 bd3d
00000110: ea32 d1bd e97e 293e 544e af3e 1c54 bbbc
00000120: 3b87 f73d 2b2f 273e 587a 2d3e 5676 95bd
00000130: 98a8 bb3e 1598 963c d4af d0bd 1289 60bd
00000140: 208f c3bd bea0 c83d fd3b 51bd e0ab 763d
00000150: 5f56 223e 24bb 6ebd 8a93 5e3e 11fe 653e
00000160: 285d 193e e78f 9fbc 1ce8 20bd 7229 463e
00000170: 5a77 2fbd 11c8 0bbb 8420 f53b a4f5 2b3e
00000180: a1f4 80be 38a0 ec3c 7b19 e3bd ec41 8b3c
00000190: 17c1 023e 5415 0c3e 2a43 9d3c 87dd 773e
000001a0: a9d9 e13d 5a3e 773e 2df6 aa3e 2ede af3d
000001b0: 1ea0 5ebd dd5a 303d 72ff 643d ef30 213d
000001c0: 05a0 b7bc ba5f a4bd ec1d bb3d 64cf 20bd
000001d0: f010 1c3e 9f17 663e fda7 373e e9e9 d2be
000001e0: 945f 183e c768 863e 6443 66be f84e fa3d
000001f0: c333 85bb 94e3 173d 43bb 833d 2bc9 f2bb
00000200: 99e4 8d3d 392a ee3d 3b61 d63d 1753 eebd
00000210: 8d7a d53a 4ab6 86be cf7e fd3d 8c9e 12be
00000220: a8c6 9b3d 9555 81bd 395f 14bd 2279 d3ba
00000230: c9e2 3a3e b8a0 0bbe c89e 5a3e c9ed 373d
00000240: 0ac9 19bd f7d5 cc3d 230b 073e 714e 6bbe
00000250: 17ce f53c f234 96bd 633e 183e b071 733d
00000260: ada0 8a3e 6975 03bd b90b 73bd 4f7c e93c
00000270: 20a1 eb3d 640b 59be 45fe d93d ef43 51bd
00000280: 5f36 f53c a8d2 3c3d 23f9 18bd 3340 4b3d
00000290: 0376 993d 6c54 88bc f5fe e83b 4275 eb3d
000002a0: 1761 8ebe ed73 d13d 1eca c33a 7ccf ee3d
000002b0: a017 f53d 1721 863d 8d8b 213e 9a57 f0bd
000002c0: 6358 953e 72c5 c1bd 1acf 1a3e 09d5 eebc
000002d0: ebc8 4c3c 7188 dfbd f0e0 2d3e 4998 8abd
000002e0: bdc7 443d 7df7 453e 1200 e3ba 3c1c 823d
000002f0: aba9 59be 3824 ff3a 77af 823d 6dc5 cfbd
00000300: c074 19be 571a c13c 1a13 1a3e 8e49 29be
00000310: 9334 443e eac0 2c3e d6ab cebd 55f9 ed3d
00000320: f210 ba3d f62e 573e beb2 c3bd 09c9 633e
00000330: 1158 e6bd bc2b 47bc f5be 523d d76a 043d
00000340: bfa5 9cbd 2ac7 c63d 75be 863d d5d2 ff3b
00000350: d27f 14be c275 083d 4cbf e2bd 02fc 933d
00000360: 19ae 333e 9430 0f3e 1eaf 993a 7507 febd
00000370: 605e 803e 6371 333e ee22 603e 7a2a 23be
00000380: 986d 08be 7797 343e 67fe 993d bfb4 d8bd
00000390: 5b10 4e3c 7b6c 36be c0de 8e3c b2a7 5c3e
000003a0: b877 1bbe d588 163e 30d5 22be c7d7 b3bd
000003b0: d0a3 c53d 65f6 83be 9d56 853d abde 533d
000003c0: c584 563e 17f8 debc 8aef 4b3e 3faa 4e3d
000003d0: 5062 f2bd 91e0 42be 7a7c 343c b8bf bcbc
000003e0: ab32 a2bd 2e08 97bd 7daa 873d 9e24 a9bd
000003f0: bd21 893d 6e33 0dbd f043 903e e60e 9fbd

network_body._body_endoder.seq_layers.0.bias f4 [128]
-0.0047192834 0.04485121 0.01541046 0.016901748 -0.010044192 0.022562532 0.03294408 0.014582328
6.535652e-05 0.01279688 -0.00064369285 0.020747278 -0.015539009 -0.008499454 -0.01768852 0.0020717587
0.046114106 0.0004355747 0.0005507388 0.056427132 0.04369678 -0.030193241 0.007835534 -0.0024897014
0.033961646 0.019510526 0.00095111184 -0.009329019 0.012449961 -0.011685951 0.004331955 0.03993354
0.04545863 -0.006843123 0.03394296 -0.0074623562 0.05472913 0.016295137 0.03687455 -0.014408337
0.026657425 -0.009538886 0.041172877 -0.00023134428 0.002205631 -0.0055992506 0.043839145 0.01361298
-0.003550067 -0.00083787483 0.008687747 -0.017897105 0.002049098 0.0373272 0.005335115 0.005131469
0.008860326 0.028351579 -0.007537645 0.009700914 0.009637328 -0.012231103 -0.009329922 -0.0042152554
0.04016789 0.002612602 -0.010421181 -0.01139109 0.016869163 -0.0057447413 0.011730836 0.0017219464
0.011162724 0.008151428 0.008647971 -0.004681919 0.023515781 0.030983808 -0.004410171 -0.0019966492
0.0011670281 0.013906181 0.03561346 -0.014314874 0.004645342 -0.024876527 0.029241089 -0.0073807845
-0.006276745 -0.017709129 0.0003368499 0.0015645653 -0.01222253 0.042559404 0.0075193252 0.018192135
0.040069867 0.008725335 0.017021358 0.01652673 0.016341915 -0.013961178 0.05719343 -0.0178056
0.0034160074 0.004388994 0.018255033 0.054459073 -0.01165203 -0.028996157 0.02735494 0.05263718
0.017893473 0.015246596 -0.018797286 -0.015306662 -0.0065835137 0.021353444 -0.001956576 -0.0038073778
0.029378518 0.023217397 -0.01563306 -0.0071411617 -0.0067176307 -0.00024292132 0.0127864815 0.022520307
00000000: 38a4 9abb e7b5 373d 277c 7c3c 8975 8a3c
00000010: 6590 24bc 0fd5 b83c 5ff0 063d b7ea 6e3c
00000020: 0410 8938 01aa 513c 7fbd 28ba 32f6 a93c
00000030: 5497 7ebc 4b41 0bbc 84e7 90bc 58c6 073b
00000040: 25e2 3c3d d95d e439 755f 103a 2320 673d
00000050: 65fb 323d d157 f7bc 9d60 003c 422a 23bb
00000060: 5e1b 0b3d 8ad4 9f3c 0954 793a bed8 18bc
00000070: ecfa 4b3c 6e76 3fbc 13f3 8d3b 5a91 233d
00000080: d432 3a3d 473c e0bb c607 0b3d c886 f4bb
00000090: a72b 603d 617d 853c c509 173d f210 6cbc
000000a0: ac60 da3c fd48 1cbc e4a4 283d 0295 72b9
000000b0: 598c 103b eb79 b7bb ad90 333d fa08 5f3c
000000c0: 3ea8 68bb d4a4 5bba 0d57 0e3c f39c 92bc
000000d0: 294a 063b 68e4 183d 30d2 ae3b e225 a83b
000000e0: e72a 113c 9241 e83c 59fe f6bb 95f0 1e3c
000000f0: e2e5 1d3c f764 48bc 87dc 18bc 2020 8abb
00000100: 1687 243d 3038 2b3b 9abd 2abc b2a1 3abc
00000110: 3331 8a3c 623e bcbb b132 403c efb2 e13a
00000120: dce3 363c 918d 053c 38b0 0d3c c86a 99bb
00000130: 2ba4 c03c c1d1 fd3c 3283 90bb 37da 02bb
00000140: f7f6 983a c0d6 633c 6bdf 113d ef88 6abc
00000150: f437 983b dcc9 cbbc 028b ef3c 82da f1bb
00000160: 27ad cdbb bc12 91bc 3a9b b039 1a12 cd3a
00000170: 0241 48bc c552 2e3d ac64 f63b ac07 953c
00000180: 4d20 243d b5f4 0e3c 6070 8b3c 1163 873c
00000190: 7bdf 853c 6dbd 64bc a843 6a3d 0ddd 91bc
000001a0: 18df 5f3b 8dd1 8f3b 948b 953c 7a10 5f3d
000001b0: 28e8 3ebc 5989 edbc 7817 e03c 159a 573d
000001c0: 5595 923c dccc 793c c4fc 99bc cbc8 7abc
000001d0: 84ba d7bb 6bed ae3c e639 00bb 3385 79bb
000001e0: 38ab f03c 6932 be3c e710 80bc 6800 eabb
000001f0: 921f dcbb b2b8 7eb9 647e 513c 827c b83c

network_body._body_endoder.seq_layers.2.weight f4 [128, 128]
0.08985792 -0.028557776 -0.19836412 0.075581394 0.036293387 0.027925478 -0.0018741492 0.053637873
-0.2357049 -0.044604875 -0.029385716 0.064532205 -0.035864737 -0.006692795 0.13849422 -0.023189709
0.05740981 0.028054923 -0.03693869 0.21168076 -0.10879426 0.0014107958 0.15616615 0.044162218
0.014551636 -0.055329237 -0.0071847364 0.12597239 0.028395275 0.106371135 0.10858292 0.090775296
-0.17091678 0.009607849 0.09745154 0.079174794 0.015327732 0.27128538 0.12479726 0.055525824
0.08074354 0.024138307 0.08275883 0.052275162 -0.19706427 0.012108173 0.04434711 0.10778158
-0.037336305 0.09862201 -0.1037039 0.12002421 0.2713392 0.12486051 0.14860591 0.01809436
0.0330568 -0.058258705 0.12163385 -0.10300236 0.034472972 0.012707082 -0.0024459918 0.09308656
0.08532086 0.059100106 -0.018870598 0.05725052 0.115174435 0.04924029 0.105222836 -0.029791856
-0.13413556 0.024940848 0.04303993 -0.03559136 0.2936112 0.11763944 -0.14274469 -0.11222757
0.041864734 -0.13271695 0.003059424 -0.025374021 0.01640451 0.09658785 -0.028567791 -0.081402756
0.11635584 0.08794405 -0.12328463 0.0042341985 0.058966495 -0.05941275 -0.044552337 -0.04202846
0.17477472 -0.048848137 -0.1387183 0.016087953 0.039273363 -0.009356163 -0.18586794 0.07808829
-0.049558036 0.021164304 0.017887171 0.065220065 0.13276802 -0.007720776 0.04322238 0.15814674
-0.08492598 -0.19576403 -0.034197837 0.00939506 -0.081883505 0.08483696 0.086713344 0.0011177736
0.016601445 0.013651683 0.12829487 -0.019456325 0.048785567 0.09797477 -0.0043498217 -0.03930967
0.10291163 -0.033631682 -0.09759071 -0.18701169 -0.0022767468 0.14048958 0.11671167 -0.1631265
-0.046403464 -0.018817855 0.079167075 -0.18588166 -0.15751931 -0.0007284216 0.055956252 -0.11373855
0.041234452 -0.20886685 0.04405681 0.1467072 0.11012408 -0.028022368 -0.16499233 -0.037970763
0.113358825 -0.07471192 -0.06611418 -0.06308984 -0.008948052 -0.027695747 -0.11191289 0.013414651
-0.06556236 -0.06650484 0.10092488 0.1010048 0.12946497 -0.15981653 0.23617569 -0.05332314
-0.055486597 0.021775668 -0.18334912 -0.19532123 0.12951393 0.092837 -0.047992066 -0.03162136
0.10337364 0.024257807 0.118612334 0.12529776 0.05738876 0.20145899 0.058935538 -0.06793638
0.07640435 0.055496663 0.043879613 0.0738624 0.06789767 -0.047383226 0.09410804 0.067070715
0.13121037 0.0296975 -0.019000467 0.07533138 -0.22824319 0.074768744 0.020136585 -0.018839715
-0.0712422 -0.004978829 0.008957287 0.026244977 -0.09804958 0.055122104 0.014353963 -0.18485396
-0.17862116 -0.039253943 0.018513585 -0.029297736 -0.020594107 0.019783203 -0.030871132 -0.11501734
0.07517154 0.07464108 0.050836142 0.015359858 -0.04851087 0.08271989 -0.09655751 -0.03185593
0.0011420747 -0.053172633 0.039767824 -0.100635566 0.025375035 0.020864159 0.014753279 -0.05390453
-0.016727326 0.076697305 -0.05211704 -0.026548745 -0.054260902 -0.053071402 -0.14061522 0.092798166
0.058929592 0.036912553 -0.047185447 0.100929774 0.05436602 0.02281113 -0.09550702 -0.14512914
0.14614248 0.05442679 0.03219284 0.015495987 0.01608336 -0.054097284 0.060494743 -0.030361554
00000000: 6e07 b83d fff1 e9bc f71f 4bbe 6bca 9a3d
00000010: 60a8 143d f9c3 e43c 03a6 f5ba 63b3 5b3d
00000020: a05c 71be 9ab3 36bd 50ba f0bc 7629 843d
00000030: e7e6 12bd 3c4f dbbb 6ed1 0d3e 58f8 bdbc
00000040: 8d26 6b3d 70d3 e53c 064d 17bd d7c2 583e
00000050: 86cf debd 74ea b83a 05ea 1f3e 71e3 343d
00000060: fc69 6e3c e9a0 62bd f06d ebbb e8fe 003e
00000070: 359d e83c 1cd9 d93d b960 de3d 66e8 b93d
00000080: cf04 2fbe 3d6a 1d3c ac94 c73d 6526 a23d
00000090: 2b21 7b3c ebe5 8a3e b595 ff3d 0c6f 633d
000000a0: de5c a53d b3bd c53c 767d a93d 7b1e 563d
000000b0: 37cb 49be 5c61 463c 51a5 353d 97bc dc3d
000000c0: f4ed 18bd 56fa c93d b662 d4bd 41cf f53d
000000d0: f9ec 8a3e deb6 ff3d 262c 183e a03a 943c
000000e0: 9166 073d aea0 6ebd 2b1b f93d e7f2 d2bd
000000f0: 8833 0d3d 5d31 503c ef4c 20bb 2ba4 be3d
00000100: b4bc ae3d f412 723d 8396 9abc 857f 6a3d
00000110: 93e0 eb3d 30b0 493d 127f d73d 0d0e f4bc
00000120: d55a 09be c050 cc3c a34a 303d 3fc8 11bd
00000130: 3554 963e f2ec f03d aa2b 12be 91d7 e5bd
00000140: 5b7a 2b3d f4e6 07be 9e80 483b 2edd cfbc
00000150: c062 863c dacf c53d 0007 eabc 7db6 a6bd
00000160: f84b ee3d 031c b43d a77c fcbd 08bf 8a3b
00000170: da86 713d c95a 73bd 837c 36bd 0926 2cbd
00000180: 25f8 323e fc14 48bd 2c0c 0ebe e2ca 833c
00000190: 1bdd 203d 984a 19bc 2a54 3ebe c1ec 9f3d
000001a0: 5efd 4abd c360 ad3c 1e88 923c 1992 853d
000001b0: 57f4 073e 90fe fcbb f309 313d 38f1 213e
000001c0: aced adbd 5e76 48be 0813 0cbd bded 193c
000001d0: 8ab2 a7bd 00bf ad3d c496 b13d 4282 923a
000001e0: c1ff 873c 4fab 5f3c bb5f 033e df62 9fbc
000001f0: 60d3 473d ffa6 c83d f388 8ebb 2d03 21bd
00000200: 55c3 d23d 60c1 09bd a3dd c7bd fe7f 3fbe
00000210: 7935 15bb 80dc 0f3e 8706 ef3d a20a 27be
00000220: 8f11 3ebd e727 9abc 5922 a23d c357 3ebe
00000230: be4c 21be 8cf3 3eba 6232 653d c2ef e8bd
00000240: 75e5 283d 31e1 55be ea74 343d 6a3a 163e
00000250: bc88 e13d 2a8f e5bc c0f3 28be 3b87 1bbd
00000260: ac28 e83d 9002 99bd df66 87bd 3f35 81bd
00000270: da9a 12bc 31e2 e2bc 9632 e5bd 20c9 5b3c
00000280: 8f45 86bd b133 88bd b4b1 ce3d 9bdb ce3d
00000290: 7792 043e f2a6 23be 0ad8 713e 5d69 5abd
000002a0: ea45 63bd e362 b23c dfbf 3bbe 4a02 48be
000002b0: 4d9f 043e 5321 be3d 5493 44bd 6685 01bd
000002c0: 8fb5 d33d 4fb8 c63c 06eb f23d 0e4e 003e
000002d0: 7a10 6b3d 444b 4e3e 6466 713d 3b22 8bbd
000002e0: e279 9c3d 7850 633d 1cbb 333d 2c45 973d
000002f0: ef0d 8b3d ea14 42bd b7bb c03d 5f5c 893d
00000300: 035c 063e 2c48 f33c dea6 9bbc 5747 9a3d
00000310: 95b8 69be 5b20 993d 7bf5 a43c bf55 9abc
00000320: 6ee7 91bd 7225 a3bb 96c1 123c b5ff d63c
00000330: 38ce c8bd b7c7 613d e22c 6b3c 5b4a 3dbe
00000340: 77e8 36be bec8 20bd cda9 973c ce01 f0bc
00000350: f9b4 a8bc 6210 a23c 75e5 fcbc 368e ebbd
00000360: 89f3 993d 6cdd 983d 8f39 503d eaa7 7b3c
00000370: 56b3 46bd 0c69 a93d f2bf c5bd 5d7b 02bd
00000380: abb1 953a 8ccb 59bd 96e3 223d 051a cebd
00000390: 4edf cf3c 50eb aa3c bdb7 713c ffca 5cbd
000003a0: bf07 89bc 7a13 9d3d ad78 55bd c17c d9bc
000003b0: ae40 5ebd 6661 59bd 70fd 0fbe f70c be3d
000003c0: 2860 713d 9e31 173d 8745 41bd 45b4 ce3d
000003d0: e7ae 5e3d 68de ba3c 2f99 c3bd bc9c 14be
000003e0: 60a6 153e a0ee 5e3d a4dc 033d e1e2 7d3c
000003f0: 40c1 833c 1d95 5dbd 56c9 773d cbb8 f8bc

network_body._body_endoder.seq_layers.2.bias f4 [128]
-0.025640493 0.031046888 0.014801129 0.007610764 0.005265776 0.0048066075 6.132212e-05 0.012035354
-0.011123163 -0.013807274 -0.026540628 0.0009253759 0.0016256771 0.04542046 0.020199306 0.0071386844
0.06815427 0.008731471 -0.0011045287 -0.007689974 -0.011925549 0.008617 -0.007919978 0.014105456
-0.01714353 -0.006401644 0.03745278 -0.0050982595 -0.0051910933 0.005214255 -0.003976541 0.016546087
-0.0019536673 0.003167761 0.011823683 0.01566306 0.004788871 -0.020474311 -0.017152565 0.006474027
0.0034742774 -0.010433269 -0.0027419974 -0.010704075 0.021018991 -0.00089585845 0.0035287717 0.025580931
0.015292139 0.035444167 -0.007888581 0.00826718 -0.0152430935 -0.0154292295 0.007546329 -0.009980183
-0.0030981943 -0.0065263663 -0.011291297 0.014808749 -0.024121657 0.00656582 0.014148053 -0.009068013
0.013418085 -0.022481052 0.014735324 0.03362637 0.028423768 -0.003071786 -0.010210728 -0.003033822
0.0061307093 -0.008160453 -0.007897192 0.021753376 -0.0039956165 -0.0076584583 0.013658022 -0.017713077
0.010802879 0.010356602 0.017196719 0.0072848597 0.0016924257 0.0008278316 -0.015766451 0.007954265
0.0064946376 0.00944362 -0.01890197 -0.018539723 0.013831374 -0.004459481 -0.006038871 0.04303558
-0.008077994 0.0008414056 -0.009001766 -0.0020532433 -0.01782424 -0.021456933 0.010341445 -0.018269321
0.00214757 0.011248476 0.009452541 0.004450133 0.0001991578 -0.013494282 0.0020448703 0.014612353
-0.015999954 0.011639136 0.019921178 -0.010767841 0.014995031 0.010573565 0.019753905 -0.010148018
-0.011825221 -0.010553017 0.009581926 -0.005406427 -0.012257101 -0.003103484 -0.009600376 0.021285515
00000000: 030c d2bc 0b56 fe3c 6f80 723c b763 f93b
00000010: 888c ac3b bf80 9d3b 109a 8038 ef2f 453c
00000020: ed3d 36bc e837 62bc bb6b d9bc ed94 723a
00000030: ac14 d53a ce0a 3a3d 0479 a53c a0eb e93b
00000040: 7794 8b3d 720e 0f3c d5c5 90ba 2dfc fbbb
00000050: 6163 43bc 512e 0d3c ccc2 01bc 921a 673c
00000060: 9770 8cbc e2c4 d1bb 1668 193d 4d0f a7bb
00000070: 0c1a aabb 57dc aa3b a54d 82bb a98b 873c
00000080: 1909 00bb 369a 4f3b 1fb8 413c d14f 803c
00000090: f6eb 9c3b beb9 a7bc 8983 8cbc 1324 d43b
000000a0: b4b0 633b 4df0 2abc 15b3 33bb 2560 2fbc
000000b0: 0530 ac3c 0bd8 6aba f742 673b 1a8f d13c
000000c0: e18b 7a3c e72d 113d 1b3f 01bc 1173 073c
000000d0: 2bbe 79bc e1ca 7cbc 3247 f73b ec83 23bc
000000e0: 130b 4bbb 21db d5bb 22ff 38bc 65a0 723c
000000f0: c89a c5bc 1726 d73b 3ccd 673c 0192 14bc
00000100: 87d7 5b3c 2f2a b8bc 6e6c 713c cebb 093d
00000110: f6d8 e83c 0450 49bb e64a 27bc 16d3 46bb
00000120: 1ee4 c83b 6cb3 05bc 3963 01bc 2334 b23c
00000130: a9ed 82bb cef3 fabb e5c5 5f3c 041b 91bc
00000140: 8ffe 303c bdae 293c 22e0 8c3c d5b5 ee3b
00000150: 62d4 dd3a d702 593a a528 81bc 9b52 023c
00000160: f8d0 d43b 6ab9 1a3c 4ed8 9abc 9ee0 97bc
00000170: fd9c 623c d720 92bb b9e1 c5bb 1446 303d
00000180: 9059 04bc c691 5c3a 257c 13bc b58f 06bb
00000190: 2404 92bc 73c6 afbc 2a6f 293c 8ba9 95bc
000001a0: 3fbe 0c3b 874b 383c d5de 1a3c 6cd2 913b
000001b0: 04d5 5039 1f17 5dbc 3b03 063b a768 6f3c
000001c0: 5612 83bc 13b2 3e3c bd31 a33c 996b 30bc
000001d0: b8ad 753c bf3c 2d3c f1d2 a13c df43 26bc
000001e0: 92be 41bc 90e6 2cbc 83fd 1c3c 6628 b1bb
000001f0: 02d2 48bc d263 4bbb e54a 1dbc f65e ae3c

action_model._discrete_distribution.branches.0.weight f4 [2, 128]
-0.016853448 -0.007833594 0.025910122 0.013785734 -0.042539068 -0.02080402 -0.0379432 0.030927725
0.00031315134 -0.017713089 -0.018409602 -0.004058111 0.020165302 -0.0075695156 0.021692785 -0.031134702
0.06356754 0.022857489 0.01344308 -0.022677895 -0.009592422 0.018823091 -0.021290164 -0.03916318
-0.0035050577 -0.027251434 -0.0057143606 -0.048353136 -0.01797118 0.029003322 0.011637976 -0.05314123
-0.0026737244 -0.03697318 0.005326492 0.008688264 -0.055429354 -0.011528792 -0.02014431 0.007543191
-0.012616671 -0.023269039 -0.013528643 -0.053387515 -0.027344784 0.011537877 -0.004810648 -0.01200864
-0.005250504 0.04876624 -0.0059382655 -0.045583077 0.03262265 -0.018634262 -0.031938184 -0.008163646
0.0014908008 -0.011787399 -0.022748087 -0.013931588 -0.021748386 -0.018323394 0.0027784347 -0.0017358912
0.013599798 -0.01795652 0.026554305 0.005915855 -0.059814576 -0.007194358 -0.029692123 -0.0042733736
-0.00062621105 0.022997584 0.009845209 0.016226245 -0.009149079 -0.008045408 -0.012024917 -0.017027073
-0.030036682 0.020982144 -0.032990724 0.0017326764 -0.026519848 0.003841649 0.0030200623 0.017608857
0.007494404 -0.04427689 -0.017861897 -0.015430553 0.00016451345 0.007967329 -0.025112465 -0.037644755
0.008144198 -0.02704227 0.00081664295 -0.0036033602 -0.02534085 -0.003771882 -0.03469787 -0.050381295
-0.039524734 0.010412466 0.0018767907 -0.010835058 0.009844487 -0.0076345936 -0.03070359 -0.035407335
0.020105626 0.001680811 -0.012459292 -0.023509823 -0.027669784 0.004530312 -0.010273009 0.0076934285
-0.040371362 -0.004580331 0.005111679 -0.01130591 -0.014528246 -0.03187137 -0.0028991867 -0.0021610737
-0.00874215 0.0006418392 -0.007084539 -0.025237726 0.04828287 0.036177576 0.03948161 -0.03307564
-0.014893096 0.018925268 0.04745298 -0.0033064508 -0.001402375 0.0028692228 0.0068434165 0.03605333
-0.065323815 -0.014128389 -0.0024346574 0.015493223 -0.0028931557 -0.023084935 0.016464224 0.059717666
0.007476295 0.026631799 0.035878982 0.05568364 -0.009157914 -0.0263122 -0.0077997767 0.046285946
0.007388321 0.019248191 -0.006907079 0.00023105204 0.05905001 0.027797362 0.011288931 -0.009429293
0.035031304 -0.0014705755 0.025280418 0.033720367 0.038587563 0.0015265777 0.01440554 0.014891876
0.025509661 -0.04548713 0.0093008615 0.04688205 0.0037811091 0.014326642 0.05654438 0.023897331
0.006393494 0.00033610943 0.0044135763 0.0018699535 0.032972336 0.007433249 0.0046267854 0.007247009
-0.031735957 0.021667374 -0.022806 -0.00051796145 0.057757545 -0.0071103116 0.025502682 0.022504233
0.009337166 -0.0010555149 0.028158156 -0.023662288 0.003965924 -0.0054556252 0.010949816 0.00895423
0.013661923 -0.029610159 0.030104764 0.00082526676 0.020392928 0.004660543 -0.0041669738 -0.019547824
-0.0052206516 0.029118393 0.015721872 0.01539299 0.0033857292 -0.011964876 0.015504325 0.029589823
-0.014644416 0.015674803 0.0106835775 0.02067763 0.016018206 0.011644363 0.030588083 0.04038188
0.015832737 -0.0024798114 0.000892452 0.017885482 -0.005621531 0.022647636 0.031684287 0.027226431
0.00015627773 0.003516123 0.011465956 0.030646719 0.03163258 0.006284722 0.0065836804 -0.0051038456
0.055284068 0.0142683 -0.018074678 0.017911436 0.022954278 0.02320425 0.021269316 0.0041215657
00000000: 3e10 8abc 7a58 00bc 7741 d43c 8fdd 613c
00000010: 723d 2ebd 316d aabc 546a 1bbd 245c fd3c
00000020: 762e a439 0a1b 91bc bccf 96bc e7f9 84bb
00000030: b431 a53c b309 f8bb 11b5 b13c 340e ffbc
00000040: b32f 823d a13f bb3c 5d40 5c3c fec6 b9bc
00000050: 8929 1dbc e232 9a3c b668 aebc 9269 20bd
00000060: 1cb5 65bb 663e dfbc 883f bbbb f00d 46bd
00000070: 4c38 93bc 6098 ed3c 36ad 3e3c 9eaa 59bd
00000080: a739 2fbb 3071 17bd da89 ae3b 3859 0e3c
00000090: e409 63bd 42e3 3cbc ae05 a5bc df2c f73b
000000a0: 27b6 4ebc b69e bebc 3ea7 5dbc deac 5abd
000000b0: 2b02 e0bc 5d09 3d3c a4a2 9dbb e3bf 44bc
000000c0: 6b0c acbb 1cbf 473d c895 c2bb 52b5 3abd
000000d0: 549f 053d e1a6 98bc 9dd1 02bd d0c0 05bc
000000e0: f966 c33a ef1f 41bc 325a babc 5141 64bc
000000f0: ac29 b2bc f11a 96bc 6616 363b d886 e3ba
00000100: b0d1 5e3c 8d19 93bc 6a88 d93c cad9 c13b
00000110: 2100 75bd a6be ebbb e53c f3bc a807 8cbb
00000120: 5028 24ba 6e65 bc3c cd4d 213c e7ec 843c
00000130: 05e6 15bc e3d0 03bc 2804 45bc 5c7c 8bbc
00000140: 7d0f f6bc bfe2 ab3c 4821 07bd f91a e33a
00000150: 2740 d9bc 2dc4 7b3b 3dec 453b 7340 903c
00000160: 9e93 f53b af5b 35bd 1d53 92bc 6ed0 7cbc
00000170: 3e81 2c39 6689 023c a8b8 cdbc 6331 1abd
00000180: 3e6f 053c c087 ddbc fb13 563a 5a26 6cbb
00000190: 9d97 cfbc ae31 77bb 5b1f 0ebd 9e5c 4ebd
000001a0: b0e4 21bd 0c99 2a3c a5fe f53a 8785 31bc
000001b0: c54a 213c 9d2b fabb 1886 fbbc 4807 11bd
000001c0: 8eb4 a43c a94e dc3a 0f22 4cbc ac97 c0bc
000001d0: beab e2bc 0373 943b 1f50 28bc 2819 fc3b
000001e0: 715c 25bd 9a16 96bb df7f a73b 6c3c 39bc
000001f0: e107 6ebc 8e8b 02bd 4800 3ebb cda0 0dbb
00000200: 3c3b 0fbc 1941 283a 6c25 e8bb 59bf cebc
00000210: 42c4 453d f02e 143d 78b7 213d 537a 07bd
00000220: 2c02 74bc 2a09 9b3c 0e5e 423d 0ab1 58bb
00000230: e6cf b7ba 9209 3c3b bd3e e03b a8ac 133d
00000240: 7ec8 85bd c27a 67bc c68e 1fbb 4ad7 7d3c
00000250: 199b 3dbb 9e1c bdbc fbdf 863c 839a 743d
00000260: b5fb f43b ee2a da3c d7f5 123d 8714 643d
00000270: 130b 16bc af8c d7bc 4595 ffbb 5596 3d3d
00000280: bb19 f23b 62ae 9d3c c754 e2bb 8f46 7239
00000290: 6cde 713d 4bb7 e33c 35f5 383c 527d 1abc
000002a0: fc7c 0f3d 53c0 c0ba e118 cf3c 5e1e 0a3d
000002b0: fe0d 1e3d 7317 c83a 3705 6c3c 0efd 733c
000002c0: a3f9 d03c b650 3abd a462 183c 6407 403d
000002d0: 7ccc 773b 4bba 6a3c 149b 673d 56c4 c33c
000002e0: 8480 d13b d837 b039 c39f 903b 3a19 f53a
000002f0: 000e 073d 9d92 f33b 4a9c 973b 5178 ed3b
00000300: 90fd 01bd c77f b13c a6d3 babc cec7 07ba
00000310: 2d93 6c3d 9efd e8bb 00eb d03c cc5a b83c
00000320: eafa 183c 3459 8aba efab e63c 6ad7 c1bc
00000330: 95f4 813b 1ac5 b2bb db66 333c c3b4 123c
00000340: 42d6 5f3c 0191 f2bc 449e f63c b756 583a
00000350: 120f a73c 78b7 983b 1c8b 88bb c222 a0bc
00000360: 0012 abbb b289 ee3c 28cb 803c e132 7c3c
00000370: 1ce3 5d3b 5408 44bc da05 7e3c 5b66 f23c
00000380: 22ef 6fbc 7268 803c 2c0a 2f3c 2264 a93c
00000390: 9d38 833c 00c8 3e3c dc93 fa3c 7867 253d
000003a0: a8b3 813c 5584 22bb 71f3 693a 9384 923c
000003b0: d234 b8bb 8987 b93c 62c7 013d f709 df3c
000003c0: 7cde 2339 c16e 663b b5db 3b3c d40e fb3c
000003d0: 2a91 013d 12f0 cd3b eabb d73b 293e a7bb
000003e0: 8c71 623d 96c5 693c 5911 94bc 01bb 923c
000003f0: 9c0a bc3c d716 be3c fd3c ae3c 330e 873b

action_model._discrete_distribution.branches.0.bias f4 [2]
0.010970998 -0.010970995
00000000: b3bf 333c b0bf 33bc

action_model._discrete_distribution.branches.1.weight f4 [3, 128]
0.013426977 0.061667554 -0.00012117363 0.036070295 0.0164375 -0.006639225 -0.042138048 -0.012538428
8.2504346e-05 -0.017077481 -0.025962517 -0.010940778 0.022348754 -0.003719985 -0.0063007735 -0.010138782
0.07967193 0.01057206 -0.011532719 -0.0076676803 -0.0005510124 -0.023065953 -0.01414413 0.01568101
0.008952829 -0.008542455 0.063898 0.009859149 -0.010763079 -0.0023955016 -0.012401279 0.028648764
-0.006760962 -0.010010452 -0.0008222731 0.010476338 0.03597456 0.0020683385 -0.02223261 0.012581637
-0.033246543 0.009542333 0.026379183 0.0035828091 0.017531104 0.01893576 0.0098722065 -0.009695483
0.010090928 0.01949488 -0.0083158715 0.01915491 0.0063812993 -0.00172049 0.00039220092 0.015426205
0.011778263 0.00020860643 0.005779717 0.01638064 0.0011226608 0.022018202 0.029586742 -0.0111638075
-0.0034203874 -0.004362493 0.00019292868 -0.04441551 0.06333674 0.014105291 0.006025603 0.004192723
0.0076868366 -0.029435419 -0.0013792285 -0.00578208 -0.016360708 0.0057486733 -0.035394467 0.011939074
-0.018006975 -0.0042083957 0.011518994 -0.00429834 0.013898527 0.011749686 0.010592044 -0.015604456
-0.015322386 -0.005754343 0.006226112 0.005156883 0.0024970265 -0.007542752 -0.015523009 -0.002463071
-0.02487342 0.008822094 -0.0022835757 -0.0010994745 -0.027407391 0.014953992 -0.0027129326 0.0049587125
0.036715485 0.01767285 0.014805435 0.012761111 -0.011517576 -0.004646473 0.016310008 0.016760776
-6.824507e-05 0.009318428 -0.036350425 0.005877746 -0.0376304 0.023216777 -0.0027404304 -0.010293022
-0.021815365 0.015106404 -0.02348261 0.007893998 0.020600304 0.02050925 0.028755587 0.014206993
0.011810332 -0.028050149 0.0025176222 -0.016458515 0.011706806 0.032781508 0.036101 -0.0021231687
0.006828883 0.007626771 0.02883738 -0.004375152 -0.0019657263 -0.03363793 6.445042e-05 0.03649223
-0.015326558 0.006026666 0.017859297 0.027959825 0.011559937 -0.010951819 0.01990761 -0.0015161668
-0.008488754 0.019023417 -0.035815455 0.06397395 0.0050883694 0.015673839 0.0030153072 0.03564727
0.0048014205 0.028068027 -0.016037438 -0.018760042 0.016022272 0.020472966 0.019685691 -0.012304729
0.01634309 0.006800954 -0.01393818 0.011857657 0.020623943 -0.0053405263 -0.011255904 -0.041363083
0.025171636 -0.049097847 -0.022130435 0.022626212 0.038930885 -0.01049085 0.036576793 -0.005220264
-0.011793588 -0.014782132 0.0032411069 -0.020383148 0.016987378 -0.014753874 -0.021645546 -0.00021154061
0.0014414351 0.011486116 0.0064481786 -0.052316226 -0.0145098 -0.0028590506 -0.0041926308 -0.0043889782
0.038008045 0.0026784383 -0.011239779 0.0002127052 0.027945967 -0.003843336 0.009713805 -0.0018511666
0.023654066 0.015365504 0.06269031 -0.0171992 0.057024926 -0.018668951 0.0053890394 0.0046712463
-0.0060305037 0.047773365 0.021253532 0.0097723985 -0.019074826 -0.008889238 0.019738486 0.033130758
0.018369077 -0.006322859 0.007958441 0.042549897 0.026432946 0.07377715 -0.0027328944 0.056679223
0.056542374 -0.001636188 -0.0036537885 -0.027520316 0.018031448 0.0012795337 0.05900755 0.06034406
0.014148305 -0.030356595 -0.038352728 0.021581316 0.016276447 0.001728285 -0.03143023 0.016581587
0.09117426 -0.003898577 -0.008677373 -0.0141761 0.013698438 0.04188251 -0.0006641099 -0.026341178
00000000: d3fc 5b3c 1e97 7c3d 991e feb8 72be 133d
00000010: f0a7 863c db8d d9bb f298 2cbd fb6d 4dbc
00000020: 2f06 ad38 13e6 8bbc 58af d4bc f340 33bc
00000030: bc14 b73c feca 73bb b876 cebb 221d 26bc
00000040: 092b a33d 6f36 2d3c bbf3 3cbc 2a41 fbbb
00000050: d171 10ba cff4 bcbc c8bc 67bc 7675 803c
00000060: e3ae 123c a7f5 0bbc f4dc 823d 4588 213c
00000070: a057 30bc d9fd 1cbb bc2e 4bbc d0b0 ea3c
00000080: 0f8b ddbb e102 24bc d08d 57ba f2a4 2b3c
00000090: 0f5a 133d f68c 073b 2a21 b6bc 3623 4e3c
000000a0: 872d 08bd 7257 1c3c 2819 d83c 90cd 6a3b
000000b0: 649d 8f3c 2b1f 9b3c 09bf 213c ced9 1ebc
000000c0: 6b54 253c bab3 9f3c 4b3f 08bc c2ea 9c3c
000000d0: 381a d13b 1182 e1ba 51a0 cd39 31be 7c3c
000000e0: 9ef9 403c 5dbd 5a39 c863 bd3b b130 863c
000000f0: 3f26 933a 845f b43c e55f f23c 67e8 36bc
00000100: 9428 60bb 3ef3 8ebb e64c 4a39 0aed 35bd
00000110: b1b6 813d e119 673c 6c72 c53b 1c63 893b
00000120: dce1 fb3b 8c22 f1bc 3bc7 b4ba 9a77 bdbb
00000130: e406 86bc 5e5f bc3b caf9 10bd 1b9c 433c
00000140: 5d83 93bc 95e6 89bb 2aba 3c3c 17d9 8cbb
00000150: a6b6 633c c181 403c 418a 2d3c d5a9 7fbc
00000160: bf0a 7bbc ed8e bcbb 6a04 cc3b 12fb a83b
00000170: 27a5 233b 3129 f7bb 3854 7ebc 796b 21bb
00000180: 58c3 cbbc 8b8a 103c 0ba8 15bb 3e1c 90ba
00000190: 7785 e0bc 9701 753c 75cb 31bb b27c a23b
000001a0: fa62 163d a7c6 903c 7f92 723c fb13 513c
000001b0: 37b4 3cbc 7141 98bb 919c 853c e54d 893c
000001c0: cb1e 8fb8 52ac 183c 2fe4 14bd 1b9a c03b
000001d0: 5622 1abd 1c31 be3c cb98 33bb 10a4 28bc
000001e0: 23b6 b2bc da80 773c 9a5e c0bc d455 013c
000001f0: f8c1 a83c 0403 a83c d690 eb3c 73c4 683c
00000200: 1f80 413c 6dc9 e5bc b1fe 243b 02d4 86bc
00000210: e7cd 3f3c e745 063d a4de 133d dc24 0bbb
00000220: d3c4 df3b fee9 f93b 5f3c ec3c 6f5d 8fbb
00000230: 6ad3 00bb edc7 09bd 8e29 8738 e078 153d
00000240: 3e1c 7bbc 577b c53b a94d 923c 010c e53c
00000250: e465 3d3c 426f 33bc 4915 a33c 1eba c6ba
00000260: 6a14 0bbc ffd6 9b3c 3ab3 12bd c604 833d
00000270: 56bc a63b 6c66 803c 769c 453b df02 123d
00000280: 3c55 9d3b ebee e53c f260 83bc a9ae 99bc
00000290: 2441 833c ecb6 a73c e343 a13c c699 49bc
000002a0: f2e1 853c 8ada de3b f75c 64bc 9e46 423c
000002b0: 8bf3 a83c 95ff aebb af6a 38bc 566c 29bd
000002c0: bf34 ce3c d31a 49bd e34a b5bc 9b5a b93c
000002d0: fe75 1f3d d0e1 2bbc 8cd1 153d c00e abbb
000002e0: e539 41bc c130 72bc c068 543b 8ffa a6bc
000002f0: 1d29 8b3c 3cba 71bc 0052 b1bc 00d1 5db9
00000300: 89ee bc3a 4330 3c3c 3e4b d33b 8a49 56bd
00000310: 83ba 6dbc e95e 3bbb 5662 89bb 6bd1 8fbb
00000320: 53ae 1b3d bd88 2f3b 0d27 38bc 9e09 5f39
00000330: f1ee e43c 7ae0 7bbb a726 1f3c d8a2 f2ba
00000340: 2cc6 c13c 98bf 7b3c c763 803d 56e5 8cbc
00000350: f892 693d a1ef 98bc 8a96 b03b 4111 993b
00000360: 889b c5bb 01ae 433d e31b ae3c 691c 203c
00000370: cf42 9cbc 2ba4 11bc 9bb2 a13c 1eb4 073d
00000380: bf7a 963c fc2f cfbb 1f64 023c cd48 2e3d
00000390: e889 d83c 7918 973d 5c1a 33bb 7928 683d
000003a0: fa98 673d 5c75 d6ba 6674 6fbb 4972 e1bc
000003b0: b0b6 933c 07b6 a73a e7b1 713d 552b 773d
000003c0: 4bce 673c 65ae f8bc c017 1dbd 4dcb b03c
000003d0: 2f56 853c 9f87 e23a fcbc 00bd 1cd6 873c
000003e0: 92b9 ba3d 457f 7fbb 8a2b 0ebc df42 68bc
000003f0: 6a6f 603c ff8c 2b3d a917 2eba 74c9 d7bc

action_model._discrete_distribution.branches.1.bias f4 [3]
0.010855868 -0.01629545 0.012833166
00000000: d0dc 313c 097e 85bc 3342 523c
