results/old/Test00002/Drive.onnx (onnx, 87763 bytes, 9 tensors)

discrete_act_size_vector f4 [1, 2]
00000000: 0000 0040 0000 4040
2.0 3.0

network_body._body_endoder.seq_layers.0.weight f4 [128, 30]
00000000: a0df 60be b048 5ebe 6377 633d 8549 9cbd
00000010: 3a2b 7fbe c8de 893d 57a9 70be 6a39 76be
00000020: df88 a5bd 5d9c e7be f86b d03e e48a a7be
00000030: 2cdc 44be 7219 253d 9a0b 20be 0682 1a3d
00000040: 5c52 8e3e e3b6 89be e40d 4dbd 2a58 39bf
00000050: 9d4b 2dbe 4d61 143e cf2e e3be 9e6f 9f3e
00000060: b0fd 4c3e 8187 c7bd 5271 ed3d f8d9 37bf
00000070: 24db 0cbf 7c2a b43d 2e09 5b3e 1853 06bf
00000080: ff17 dbbe 8958 d9be 83bf 0d3e 8cf2 5e3e
00000090: 9bda 20be ccd5 ee3d 807e 4bbc b7ee 6a3e
000000a0: 4569 8ebe 89f9 5a3e 8a0b 6fbd d6dc cf3d
000000b0: 9368 3d3e 6dc9 eebd 48ea 08be 663a 623e
000000c0: c9d4 1cbe 00f1 173f bb4a af3e 0a52 9a3e
000000d0: 327c c13a 6a5b 64bd 03c7 7abe 2061 24be
000000e0: 0158 dabd 2c57 403f a1b1 e63e 9c34 e23d
000000f0: bdba 2b3e 83ee 463f 1f60 8cbe 52dc 943d
00000100: a871 27bd 82df 673e 08d2 cd3d fcf0 7b3e
00000110: 9f84 77be 3985 9f3d 662f f13d 31da 113e
00000120: f88d cd3e ace4 a5bd 532f 853e 0148 233f
00000130: 2fe5 373e cebc 863e 25bb e1bc d656 b8be
00000140: dadb dc3d eb67 3bbd 215e c93e 8e1a 1d3f
00000150: 829c e9be f0eb 693e d900 1ebb 816b 6fbe
00000160: f753 10be 1b96 173e de47 8b3c 3004 acbe
00000170: 93ea 13be 0d56 52be f21a 343e aa53 a4bf
00000180: ab38 92bd 73ea 233f 179a a13e fcf7 a0bf
00000190: 3eef f7bd 2860 d9be f00a ab3e ff08 b3be
000001a0: 9630 f23e 6e3d 963e ceb8 8d3e b086 6c3f
000001b0: 8e0a 88be b9f7 0cbf 6f1e cd3e dfcb b4bd
000001c0: c5cf a03e 31f8 1c3f ee07 eabc e541 e53e
000001d0: a1c7 6fbe 5760 4dbf b4fc 7abe fa4f 22bc
000001e0: 8616 adbd 2a36 b9be 1122 b4be fcd0 18bf
000001f0: 0cc6 38bd 9d76 0abf e3ee 88be 5e9d e3be
00000200: d519 923d 0798 a0be 95d8 c33c 2937 b83d
00000210: 8779 6b3e 6086 babe ccd6 a03d bc35 f1be
00000220: 1f52 44be 8d4c 013f 8cd5 923d 15df 46bd
00000230: 2b91 35bb abd4 83be 5657 67be 0d7c 08bf
00000240: 2c03 95be eba5 973c c52d c83c 04e8 283f
00000250: 5e3d 063d 45dc 663e 5ec4 9b3e ea57 3e3f
00000260: b358 1dbf 4ba0 a63e 1733 ea3c 2812 f9be
00000270: 2ef0 f9be 5d3d 7d3d 9762 6c3d 7344 45bf
00000280: efa9 3fbe 917f 6b3e 3f64 943e df3d 7abe
00000290: d6e5 15bf 9c63 bcbe abb4 b93d 9da2 843d
000002a0: a600 dcbe 71a8 613d 036d 243f e52f 7ebe
000002b0: 5061 0bbf 4024 aa3d dff9 af3e 146d 92be
000002c0: bd26 dbbd c513 d53e 8fd4 453e 543f c3bd
000002d0: afed 8bbe 1635 903e 4d8f 1dbe c3ef 8a3e
000002e0: a43a 33be 182c 413f e201 eebc 3cb1 023d
000002f0: dd6f 11be c07f f9bd de40 8f3c e153 08bd
00000300: 7cfb d5be fca0 9a3e 23a9 babe 442f b5bd
00000310: 44e8 4bbc abf6 093d 44d6 1b3e c535 b8be
00000320: d80b 4dbe 0947 843e a79f 9cbe 5678 d63d
00000330: 1801 063e 0d30 b73c 7401 8ebe de84 a9be
00000340: f50c 93be 365d 0d3e 2b8c 2cbc b53e 7cbf
00000350: e896 2b3e 3a07 3dbe a0db c9bd b7cb dbbd
00000360: ca45 fc3e 6a2e cdbd 8515 7f3e 15fc 6ebd
00000370: 576c 07be 2cf0 dd3e 7e83 87bd 4bd7 583e
00000380: fa18 68bd 78d3 13bf 92b8 f83d 80b7 00bf
00000390: af0b 2ebd 49bd 0e3f 519a 1fbe 093d 223d
000003a0: 3d42 73be 5046 45bf 5f6b f93b 42a8 11be
000003b0: e204 9d3c d204 0b3f 28c6 db3e 3140 0f3d
000003c0: 4144 c0bd 7857 fbbe 36d7 ef3e 12a3 70be
000003d0: 899c 63be 750c 11be d196 5d3e 0709 8fbc
000003e0: f83d 17be 622a af3e bd1d b73e a672 1dbc
000003f0: 40f4 ebbd 7c1b f83e 3b20 84be c533 0dbf
-0.21960306 -0.21707416 0.055533778 -0.0763121 -0.24918833 0.06731945 -0.23502098 -0.24045339
-0.08082747 -0.45236483 0.40707374 -0.32723153 -0.19224614 0.04030747 -0.15629426 0.037721656
0.2779721 -0.26897344 -0.050062075 -0.7240015 -0.16923375 0.14490242 -0.4437165 0.31139845
0.20018649 -0.09742642 0.1159388 -0.7181697 -0.5502188 0.08797166 0.2139022 -0.5247054
-0.42791745 -0.4245036 0.13842587 0.21772212 -0.15708391 0.11661872 -0.012420297 0.22942625
-0.2781469 0.21384253 -0.058360614 0.10149543 0.18496923 -0.11659513 -0.13370621 0.2209259
-0.15315546 0.5935211 0.34236702 0.30140716 0.0014761745 -0.05575124 -0.2448998 -0.16052675
-0.10661317 0.75133014 0.45057395 0.11045191 0.16770454 0.7770769 -0.27417085 0.07268585
-0.040879875 0.22643855 0.10049826 0.24603647 -0.24171685 0.07789082 0.11776619 0.1424339
0.40147376 -0.08100256 0.26012668 0.63781744 0.1795852 0.26315922 -0.027555058 -0.3600375
0.10784121 -0.0457534 0.39329627 0.61368644 -0.45627218 0.2284391 -0.0024109392 -0.23380853
-0.1409453 0.14803354 0.017002042 -0.33596945 -0.14444952 -0.20540638 0.17588404 -1.2838032
-0.07139715 0.64029616 0.31562874 -1.2575679 -0.12106179 -0.42456174 0.33406782 -0.349678
0.47302693 0.29343742 0.27680057 0.92393017 -0.26570553 -0.55065495 0.4006228 -0.08827948
0.31408516 0.6131621 -0.028568234 0.44776836 -0.23415996 -0.8022513 -0.24510461 -0.009906763
-0.08451562 -0.36174136 -0.3518224 -0.59693885 -0.045110747 -0.5408724 -0.26744756 -0.44456
0.07133833 -0.31365988 0.023906985 0.08994896 0.22995578 -0.36430645 0.07853469 -0.4711131
-0.19171952 0.5050743 0.07169637 -0.04855259 -0.0027704935 -0.2574819 -0.2259191 -0.53314286
-0.29103982 0.018511733 0.024435887 0.6597903 0.032773368 0.22544964 0.30423254 0.74352896
-0.6146347 0.3254417 0.028588815 -0.48646665 -0.48816055 0.0618261 0.05771121 -0.7705757
-0.18717168 0.22997881 0.28982732 -0.24437664 -0.58553827 -0.36794746 0.09067663 0.064763285
-0.42969245 0.05509228 0.6422884 -0.24822958 -0.5444536 0.083076954 0.34370324 -0.28598845
-0.10700748 0.41616645 0.19319366 -0.09533563 -0.27329776 0.281655 -0.15386696 0.2713605
-0.17502838 0.75457907 -0.029053632 0.031907305 -0.14202829 -0.121825695 0.017486986 -0.03328312
-0.4179343 0.30200946 -0.36457166 -0.08846906 -0.012445513 0.033682507 0.15218455 -0.35978523
-0.2002405 0.25835446 -0.30590555 0.10472171 0.13086355 0.02236178 -0.27735484 -0.33109182
-0.28720823 0.13805088 -0.0105314655 -0.98533183 0.16756785 -0.18459788 -0.09856343 -0.10732215
0.49271995 -0.100186184 0.24910553 -0.058345873 -0.13224922 0.433473 -0.06616877 0.21175878
-0.056664445 -0.5774455 0.12144579 -0.5028 -0.04249161 0.55757576 -0.15586211 0.03960899
-0.23755737 -0.77060413 0.0076116766 -0.14224342 0.019167367 0.5430423 0.4292462 0.034973327
-0.093880184 -0.4909017 0.4684388 -0.23499706 -0.22227682 -0.14164908 0.21639563 -0.01746036
-0.14769733 0.34212023 0.35764876 -0.009609854 -0.11521196 0.4845847 -0.2580584 -0.5515712

network_body._body_endoder.seq_layers.0.bias f4 [128]
00000000: e2ba 33bd 653a bdbc 1ce8 753d 812f 8d3e
00000010: c39f c0bd 0af4 e13d f08f 0f3c cb2c c7bd
00000020: 5a39 94bd 74ab acbd f88c b13c 279d a93d
00000030: cfb2 6dbd 223a 4d3d 0a36 0abe 0c6b 1a3e
00000040: 9659 f1bd d81a 973d 7a7d f83d 4b9f 75bc
00000050: f17a 0e3d 3b52 b83c a7a0 db3d 5894 2a3e
00000060: af40 0c3e a860 2c3d db73 983b ebeb 543c
00000070: a1fe 993d 8d36 083e d15c d63c 8575 a8bc
00000080: 655b eb3d 1163 803c 19bd ec3d 13aa af3d
00000090: 136b dbbd b08c c73c 0740 443d 8121 203d
000000a0: f97a 163c 731d 0d3e 5129 523c 63ba b53d
000000b0: 5500 ba3c b68d c6bd 3a9a 813d 2193 883d
000000c0: 324e 0a3e c5a5 57bc 1999 7e3d 0df3 8cbd
000000d0: 6b38 3c3d cf63 e63d 1134 69bb 3f36 cf3d
000000e0: 56e4 af3d a011 fa3d 8df8 17bd 82b6 8d3d
000000f0: 9dac 06bd 7bfc fabc 47c8 7d3d 40a0 d13d
00000100: 62aa 92bd 758a 9abd c5da 1c3d 4ec3 b5bc
00000110: 6786 d93c 43fe 3e3e 8760 0d3e 5a87 893d
00000120: bd79 f23c 8cdc a0bd 8e22 993d ffb9 a43e
00000130: 6f95 a03d 5357 5a3d 3f8d ca3d 075f 8dbc
00000140: 7c70 a1bd 9615 df3d c585 9abd 7345 0b3e
00000150: b395 a43d 0bfe b13d 21a1 df3c e110 dabd
00000160: b426 2c3e ab72 023d 709b e5bc 932d 233e
00000170: 1064 1b3d d2b1 ba3d ab4c 0f3e 0d36 74bd
00000180: 0b65 273e cdf3 b5bd ec06 c93d eb11 893d
00000190: 3db8 f9bd ffbc bdbd ba85 2d3d b645 783c
000001a0: fe7a bb3d 2d1e 163e ff9a a7bd 4965 263c
000001b0: 5cfa f93d 9903 e73d 70d1 a93d 87b2 bf3d
000001c0: 3c67 d33d 6fda e23d 7bf1 343e e3a8 353d
000001d0: b596 063e 556e 00bd f7d5 e63d 92d3 c43b
000001e0: 8d60 dabd 2ef5 92bd f730 1cbd db05 e4bd
000001f0: 0a3d 71bd 1a1f ab3d 06ef a4bd f5ad c63c
-0.043879397 -0.023099134 0.06003581 0.27575305 -0.09405472 0.11032875 0.008762345 -0.097253405
-0.072375014 -0.084311396 0.021673664 0.082819276 -0.058031853 0.050104268 -0.13497177 0.15079898
-0.11784665 0.07378167 0.12133308 -0.014991592 0.034785215 0.022500148 0.107240014 0.16658151
0.1369655 0.042084366 0.004652483 0.0129957 0.0751927 0.1330206 0.026167305 -0.02056385
0.114920415 0.015672239 0.11559505 0.08577361 -0.10713782 0.024359077 0.047912624 0.03909445
0.009184592 0.13780765 0.012827233 0.08873441 0.022705236 -0.09694998 0.063282445 0.066686876
0.13506392 -0.013162081 0.062157724 -0.06882296 0.045952242 0.11249506 -0.0035584013 0.101177685
0.085884735 0.12210393 -0.03710227 0.06919576 -0.03287946 -0.03063797 0.061958577 0.102356434
-0.07161404 -0.0754594 0.038294572 -0.022187855 0.026553346 0.1865168 0.13806354 0.067152694
0.029599065 -0.07854566 0.07477294 0.32173154 0.07841002 0.053305935 0.09890222 -0.017257227
-0.07882783 0.10892789 -0.07545046 0.13600712 0.08036365 0.08691033 0.027298512 -0.10647751
0.16811639 0.031847637 -0.02802822 0.15935354 0.037937224 0.09115948 0.1399409 -0.05962186
0.16347139 -0.08884392 0.09815773 0.06692871 -0.12193344 -0.09264564 0.04236386 0.015153339
0.09154318 0.14659949 -0.0818386 0.010155984 0.122059554 0.11279983 0.082919 0.09360223
0.10322425 0.11076819 0.17670242 0.044350516 0.13143428 -0.03135522 0.11271279 0.0060066665
-0.10662947 -0.071756706 -0.038132634 -0.11133929 -0.058896102 0.083555415 -0.080534026 0.024252871

network_body._body_endoder.seq_layers.2.weight f4 [128, 128]
00000000: 1459 11bc d515 b03d 40a8 dcba a062 9dbe
00000010: f9e7 a93c 20fa 7dbd 8aaa 78bc 1046 573c
00000020: 98fa d93d 311f 4b3e 51ff 3dbd 9351 5fbe
00000030: 0e96 053e 5abf 5cbe ce24 6b3d 77d2 d1be
00000040: fa82 0bbe 3269 55be fdf4 96be 3755 92be
00000050: 696f 2dbd 29ca d6bd f7bc 913c eb24 86be
00000060: 60c6 6e3d 693e 4cbe a6eb 3abd b5c3 79bc
00000070: 7861 a0be 9d11 21be f3a8 52bd ceb8 a63d
00000080: df8a a8bd b605 9cbc 0611 133d e854 55be
00000090: 1071 1fbe 358f 0cbe 5438 a4bd b84b 5bbe
000000a0: 5f8a 29be 1602 32be e5e1 4bbe a9e5 71bd
000000b0: ca0f 89bb d18c bb3d 8a43 8cbd 7ecd 16be
000000c0: 1189 9ebe 1fbb 0abd 1d7c 7abe 69bc 2cbd
000000d0: 807c ca3d 0720 123d 8fab 3ebe 5cd2 89be
000000e0: 1064 14be 81c5 93be 598d eb3c 4e09 24bd
000000f0: 14f8 ea3d 8496 6f3d b0aa 8bbe b768 183e
00000100: 434d 2fbe 9b16 e03c 61fd 07bc 6722 a43c
00000110: bf99 39be 8fa1 523b 12aa 81be f91c 30b9
00000120: 6a48 e8bd 931f 40bd f7ef a1bb 6523 8f3e
00000130: d6b4 a3be a9a0 9a3d 9c37 9bbd 2220 583d
00000140: 3bee fabd 8939 85be 25bc 163d 630a dfbe
00000150: df7f 68be 3ac4 f23c 5fa9 b13d b15c 8ebb
00000160: ac9e 6fbe 4a93 8dbe aec6 e9bd 9c8c 9ebd
00000170: 7176 9a3d b494 86be f6e6 bbbe 510a d8bd
00000180: c75a 8fbe 7d85 15be c91f 463d 2106 8abe
00000190: 4abe 55be f2c3 213c fca1 033d a3d2 5bbe
000001a0: 76fe 82be 3080 67be ff17 af3d 1c58 ad3d
000001b0: 2f65 3ebe b350 103d bd51 b9be 66b6 83be
000001c0: bad1 71be 55e8 c0bd f476 8fbd 468e 43bd
000001d0: 96e6 0d3e aa1f b13a 51c4 4dbd dc8d fbbd
000001e0: 7edd 133e 06b3 103e fa5e 92bd 5a15 c8bd
000001f0: f845 82bd a2b6 34bd 80a8 0fbd 4883 3cbe
00000200: 9a6f 553c 747c 853e 6a6e 863d 1ef2 163d
00000210: e5d4 04bc d7bd ecbe 2cbe 7cbd 170b ecbd
00000220: 2490 97bd c83d 07bd 188c c73d 2fb1 73bd
00000230: 5b60 e5bd 25ff b23c 2490 d7bd 3e4b 10be
00000240: beb8 53be 340f 06bd d33f 65be b919 68bc
00000250: e7df 1b3e 1f1d a23c 4e2f 49be 223d 63be
00000260: cc69 9db8 01fb 37be 9d9b 33be 7a3a 13be
00000270: 1977 65bd 7fe2 f0bd 060b e6bd 8846 6abd
00000280: 1ea7 e7bd e311 cc3d 1efe 023e e205 e4be
00000290: 86d8 3abe 211d 7d3b f54c 213e 9fe8 9abe
000002a0: 3c25 9fbe 3108 28bd 6a71 5ebe 708c e5bc
000002b0: cba8 653e 51a6 a2bd 7d71 9dbe 840e 80bd
000002c0: fdde 74bd d707 66bd c69c d2be 3588 22be
000002d0: af95 02be 4cff 41be 6cbb 5e3e e623 3b3e
000002e0: 261d 88be 5008 d63d 5211 3dbe 4366 933c
000002f0: b790 9cbd d02a 01be e927 0bbe 2f34 c03d
00000300: cb8c debe 0c62 af3c 44a5 d83d 440f 50bd
00000310: 00ac b8bd cc35 523e 9f44 d3bd a319 543c
00000320: 125a 0bbe bfc2 26be cbd6 113e 89f7 5cbe
00000330: eab4 89bd e788 fb3c ed3b 303e b981 933d
00000340: 40d7 4d3d 0e4b 37bd c5bc 98bd 2fd3 cabd
00000350: 148f 0abe 5df2 85bd dd4c d7ba 1d80 dcbd
00000360: 3c12 d5bd 81c3 05be 138d 60be 0450 cb3d
00000370: cd7a a43d 8b60 77be 6a2d 93be 08ff bfbd
00000380: 331e 88be b4b4 9abe 9dc5 143e 820a 74be
00000390: 155f e6bd eedc 5fbe 33c9 11be a0a6 51be
000003a0: d67b a2be d23d a3be e357 8dbc d6f0 c63d
000003b0: 6e80 0fbe 7629 65be e7dc 0cbe b98a 84be
000003c0: b89e 05be 58f5 28be 4bf3 c5be 39bd 8ebc
000003d0: e244 973e 4bd5 32bc bbf6 babe b221 b9bd
000003e0: 7f2b 083e 0630 51be 152b 16bc b8bc a5be
000003f0: cb06 2bbe d6a8 dabc 97bb 17bd 55bb 1bbe
-0.008871336 0.08597914 -0.001683481 -0.30739307 0.020740496 -0.062006116 -0.015177378 0.013139263
0.106435 0.19836117 -0.046386067 -0.21808462 0.13045523 -0.2155737 0.057408147 -0.40980884
-0.13624182 -0.2084091 -0.29483786 -0.2858064 -0.042342577 -0.10487778 0.0177903 -0.2620004
0.058294654 -0.19945683 -0.045634888 -0.015244414 -0.31324363 -0.15729375 -0.051430654 0.081407174
-0.082296126 -0.019045692 0.035904907 -0.2083317 -0.15570474 -0.13726504 -0.08018556 -0.21415603
-0.1655669 -0.17383608 -0.1991039 -0.05905691 -0.0041827904 0.09157718 -0.068488196 -0.14726827
-0.30963948 -0.03386986 -0.24461408 -0.04217187 0.09887028 0.035675075 -0.18620132 -0.26918304
-0.14491296 -0.2886162 0.028753923 -0.040047936 0.114730984 0.058493152 -0.27278662 0.14883696
-0.17119317 0.02735453 -0.008300156 0.020035936 -0.18125056 0.0032139753 -0.25325066 -0.00016795461
-0.11341937 -0.04690511 -0.004941936 0.2795669 -0.31973904 0.07550175 -0.07578966 0.05276502
-0.1225247 -0.26020458 0.036800522 -0.43562612 -0.22705029 0.029634584 0.08674883 -0.004344546
-0.23400372 -0.27651435 -0.11414848 -0.07741663 0.07542122 -0.26285326 -0.36699647 -0.10548843
-0.27998945 -0.14601703 0.048370156 -0.269578 -0.20873371 0.009873377 0.032136902 -0.2146707
-0.25584763 -0.22607493 0.08549499 0.08464071 -0.18593286 0.03523321 -0.36195174 -0.25725096
-0.2361516 -0.09419314 -0.070051104 -0.047743104 0.13857493 0.0013513465 -0.05023605 -0.12282917
0.14439961 0.14130792 -0.071470216 -0.097696975 -0.06361002 -0.044119485 -0.035072803 -0.18409455
0.013027096 0.26071513 0.065640286 0.036851995 -0.008107399 -0.46238586 -0.0617048 -0.11525553
-0.074005395 -0.033017904 0.09743518 -0.059495147 -0.11200019 0.021850178 -0.105255395 -0.14091203
-0.20675942 -0.032729343 -0.22387628 -0.014166289 0.1522213 0.019789277 -0.19646952 -0.22191289
-7.5060496e-05 -0.17966844 -0.1753983 -0.14377776 -0.056021784 -0.11761951 -0.11232571 -0.05719617
-0.11311172 0.09964349 0.1279225 -0.44535738 -0.1824666 0.0038622099 0.15752013 -0.302556
-0.31083095 -0.041023437 -0.21722952 -0.028021067 0.2242767 -0.079418786 -0.30750647 -0.06252769
-0.05978297 -0.05615982 -0.41135234 -0.15872271 -0.12752412 -0.18945044 0.21751183 0.18275413
-0.26584738 0.10450804 -0.18463638 0.017993098 -0.0764479 -0.12613988 -0.13589443 0.09384953
-0.43466792 0.021409057 0.10578397 -0.05079581 -0.090171814 0.20528334 -0.10315823 0.012945565
-0.13608578 -0.16285227 0.14242093 -0.21578802 -0.0672396 0.030704929 0.1721036 0.07202477
0.050254107 -0.044749312 -0.0745788 -0.09903561 -0.13531142 -0.06540368 -0.0016426105 -0.10766623
-0.104038686 -0.1306286 -0.21928816 0.09927371 0.08031235 -0.24157922 -0.28745586 -0.09374815
-0.2658554 -0.3021599 0.14528508 -0.23832133 -0.11248604 -0.21861622 -0.14236908 -0.20473719
-0.31735104 -0.31883103 -0.017253822 0.097139046 -0.14013836 -0.22379097 -0.13756143 -0.25887087
-0.13048828 -0.16499841 -0.3866218 -0.017424213 0.2954474 -0.010915111 -0.36516365 -0.0903963
0.13297842 -0.20428476 -0.009165545 -0.32370543 -0.1670181 -0.026691835 -0.037044134 -0.1520818

network_body._body_endoder.seq_layers.2.bias f4 [128]
00000000: 3388 803d 665d 153e 28e0 a8bd 3ee7 913d
00000010: f2e5 2f3c 5547 143d 7521 a0bc 9402 c43d
00000020: 8bfb fbbb 53fd 853d 8e62 abbd 63dd a53d
00000030: 7184 263d 3d5b 963d 1eae 603d 7411 4dbc
00000040: 07be 0a3e fa96 d53c 7cea 093e d275 9d3c
00000050: 874d aa3d ab81 313d a615 90bc c22a 253d
00000060: c816 463c 1a1e b1bb a4e5 c53d 3b21 5e3d
00000070: d6d8 36bd 32c1 51bd ece2 b8bd 5180 9bbc
00000080: d651 cb3d 70d0 6b3c 9ed3 c23c 8cce dd3d
00000090: 573e 92bc 7f99 6bbd 1b55 473c 5717 1c3d
000000a0: df82 b33d 6007 ce3d bbfb 44bd 2d21 033d
000000b0: 866b 1d3e 1f7c f63c 2f5b 893d 94b6 d43d
000000c0: 9068 a63d f6ec 2b3d 7340 68bc e59e d53d
000000d0: ecbc 62bb 71a8 c73c 5bc0 133d f554 913d
000000e0: a716 963d 45d7 2a3d 10e0 2bbc 383f b03d
000000f0: a761 4d3d fadd a43d a0cb e0bc f69b 1cbd
00000100: 4df8 983d a54e 4fbd b497 d43d 113f 883d
00000110: 7b7a 543e b8c6 673d 8beb 813d 4d03 843d
00000120: ba52 c0bd bc14 c73d 6e2f 49b9 3d31 903d
00000130: 4b5e 7cbd 11e1 e23d c766 a43d 822e c9bc
00000140: 1f67 b03d cc62 66bc 8035 ba3c 4c00 203c
00000150: 960c 413e 69fc 273d b8b7 223d f15d 92bc
00000160: 7dc9 cf3d b984 b93d 574e e8bb afa5 84bb
00000170: f7b4 48bd e034 823d 7058 68bb c4b6 7f3d
00000180: dbbd ce3d 770e 1ebd 2c9c ae3d 3114 143d
00000190: 6b7c 8c3c 07ba c13d 190d fd3d 60d3 0e3e
000001a0: f37c cdbc 46c6 83bd a7fd a53d f21d d93d
000001b0: 5ad0 3e3d 2d85 9a3d 7707 ae3d 1e82 fc3c
000001c0: 59c1 52bd 88fb 933d f530 223d 4440 ea3c
000001d0: 9cdf 45bd d5f2 563d e453 923d 6324 a3bd
000001e0: b454 cf3d bf90 25bc 8383 1f3d 56e6 163e
000001f0: 5ad6 1bb9 3d19 10bc 9e5d ed3d 2289 ea3d
0.06275978 0.1458641 -0.082458794 0.07124184 0.010735976 0.03620084 -0.019547204 0.09570804
-0.0076898984 0.065424584 -0.08368407 0.08098867 0.04065365 0.07341621 0.05485355 -0.012516368
0.13549052 0.026072968 0.13468355 0.01922122 0.083155684 0.04333655 -0.017588448 0.04032398
0.012090392 -0.0054051997 0.09662941 0.05423091 -0.044640385 -0.051209636 -0.09027657 -0.018982084
0.09927718 0.014392957 0.023782548 0.10830411 -0.017851992 -0.057519432 0.012166287 0.038108196
0.08765196 0.100600004 -0.04809163 0.03201406 0.15373048 0.030088482 0.06706845 0.103863865
0.081254125 0.04197403 -0.014175522 0.10430697 -0.003459747 0.024372311 0.036072116 0.070962824
0.07328539 0.041709203 -0.010490432 0.08605808 0.050141957 0.08050151 -0.027440846 -0.038234673
0.074692346 -0.05061211 0.103804976 0.06652654 0.20749848 0.056585997 0.063437544 0.06445942
-0.09390779 0.09720752 -0.00019186523 0.070406415 -0.061613362 0.11078084 0.08027416 -0.02455831
0.08613419 -0.014061641 0.022730589 0.009765696 0.18852457 0.0410122 0.03972599 -0.01786706
0.10145853 0.09058518 -0.007089417 -0.0040480713 -0.049000707 0.06357741 -0.0035453103 0.06243016
0.10094806 -0.038588013 0.08525881 0.03615207 0.01714917 0.0945931 0.12356014 0.1394782
-0.025083994 -0.06434302 0.08105021 0.10601415 0.04658542 0.075449325 0.084975176 0.030823763
-0.051453922 0.0722571 0.03959747 0.028595097 -0.048308954 0.052477676 0.07144907 -0.079659246
0.10123578 -0.010105311 0.03894378 0.14736304 -0.00014861804 -0.00879508 0.11590122 0.11451937

action_model._discrete_distribution.branches.0.weight f4 [2, 128]
00000000: e371 2b3c 8482 edbe f216 29be ff22 533e
00000010: 84be 0b3d 82ff 823e 0884 48bd a039 9e3c
00000020: 7ff2 10be 4a91 a93c 2986 4a3d 65d1 4ebe
00000030: 3758 69be 6250 973e bed6 9a3e eb48 aebc
00000040: e9a0 bd3e 8043 02bd 76da 153c 1b2a cd3d
00000050: fe79 e4bb 5f0c 313c 8ef6 edbd 3f82 98be
00000060: 9931 193c 5c75 b1bc 7534 673b 4796 013e
00000070: f211 08be da28 bdbd 1f9c b8bd 1ff4 6c3c
00000080: ec79 94be a025 a0bd 80ca b5bd f5e1 11bd
00000090: 102a 56be 6a1c 493d ac28 01be 7039 eabc
000000a0: 3917 32ba 9ed8 e3be 6d80 973a ed7a 1b3e
000000b0: 82fa 403e e34e 45bb 6f26 af3c 0aef 853b
000000c0: 5589 13be 70fd e23c 57a9 ccbd 9888 2dbe
000000d0: 3b08 6bbd ba46 393e 5262 453d b4b6 08be
000000e0: 2d95 aebe 4c27 80bc 54bc 333b 0cc2 c3bd
000000f0: d397 c43d 1644 83bb a998 0dbe f0f4 3c3a
00000100: 3379 143e 7122 32bd 0e16 b23e a326 39be
00000110: e618 be3c 613e 05bd a8ba 2e3c be17 80bc
00000120: fd38 0b3c 8f6c 673e 2804 0cbe 26c1 45bc
00000130: 4348 0cbd 86fb 64bc e5dd 85be 6c12 1ebe
00000140: 4c93 2ebb 32f3 3bbc 5a36 333e b79e 57be
00000150: a69e 9f3c 8c66 c23b 5801 85bc d7ff 39bd
00000160: 4b3e 4a3e 1328 24be eeb1 053e f896 233d
00000170: c950 993c ce02 0bbe bc87 743e edc1 903d
00000180: 1af5 8bbe c032 cabc c021 66bd dec9 9ebd
00000190: f859 3ebe 0f77 19be 4eeb 523e d5bd a5be
000001a0: ad48 523d 82ce 53bc 6edb 223d 9845 33be
000001b0: 53bd c13c ef2a 003e 5511 783e 3f6a c9bd
000001c0: 0b3b 57ba bd11 d23d 77e1 233c 7e38 5f3e
000001d0: e993 d2bc 157e 20be 1e66 af3d 1c9c 8d3c
000001e0: 1ebd f5ba a9f5 cf3b 7c5d 36be 57e9 e8be
000001f0: 0139 b8bd 59f5 0dbd 9f93 7ebe 5d68 a8ba
00000200: b852 bfbc 56ad e23e 2490 2f3e bb5c 55be
00000210: a372 a6bc c2d4 83be 2e9d db3c 1860 48bc
00000220: 4e3a 0a3e 5679 b6bc 8be7 4dbd 1a89 4e3e
00000230: 82ee 5c3e 029c 9dbe df72 9dbe b391 b43c
00000240: decd bdbe 69cc e73c 1f13 12bc 82b9 c1bd
00000250: 8fe9 be3c dc00 43bc f399 f73d fcde 903e
00000260: fce4 0a3a 3b51 a63c 8e22 0abc 76fc 09be
00000270: c63c ed3d d4b2 b03d 8bdc b53d ae7f 40bc
00000280: 100e 943e 8fb8 9b3d a728 b63d 50fc 093d
00000290: 3f84 563e 79d1 52bd ae52 ff3d a0b8 833c
000002a0: 2da6 cebb 47b8 dc3e c0dd 153c 763a 1bbe
000002b0: fe48 39be fe7f 31bc 3768 67bb 79c4 34bc
000002c0: 354a 203e 6ff9 22bd 5a7d fa3d e300 483e
000002d0: f340 a33d 6a31 3dbe 6eac 0dbd f310 083e
000002e0: e5a2 b53e b2fa 1d3b afb1 303c a09e ba3d
000002f0: adc7 c1bd 9559 62bc 7b33 123e 723b 973b
00000300: 3249 1abe 4241 383d 7aa8 b2be a8a3 283e
00000310: 91d8 25bc 4c88 223d eed6 55bc 9eb3 603c
00000320: cefb 23bc f4b6 7ebe 343f 183e 6770 d53b
00000330: 2c06 eb3c 9147 95bb fe4e 833e 66c7 373e
00000340: f5e7 dfbc 7638 623c 570c 2dbe c5d3 543e
00000350: a2c6 81bc 7748 d33b e016 2bbc 6c41 603d
00000360: 705e 3fbe 99b6 313e 917d 10be 05ea 34bd
00000370: 8d0a 56ba dbef 163e 09cc 6fbe 30da 75bd
00000380: 53e3 883e 34f2 e73c 75c1 713d 78f6 923d
00000390: d0aa 293e f7e0 2b3e ebd6 50be e6f9 ac3e
000003a0: c696 7bbd fcbd 273c f7ef 5abd 7151 313e
000003b0: 1b60 5cbc a648 21be fc25 76be a5a9 e33d
000003c0: 634a 0bbb fb23 b7bd 1b27 acbc 3e0f 46be
000003d0: d524 8e3c e3d4 2f3e 68b5 e5bd e117 d8bb
000003e0: f07d 2e3b a5d0 babb 6b89 253e 0f96 e03e
000003f0: aec7 dd3d 570a 0c3b c142 683e 7ef2 513b
0.010464164 -0.46388638 -0.16512659 0.20618819 0.034117237 0.25585562 -0.04895404 0.019314587
-0.14155005 0.020699162 0.04944435 -0.20197065 -0.22787558 0.29553515 0.3024196 -0.021275004
0.37036827 -0.031802654 0.009146323 0.100177966 -0.0069725504 0.010806172 -0.11619292 -0.2978687
0.009350204 -0.021662407 0.003527907 0.12654983 -0.13288096 -0.092363074 -0.09014153 0.0144625
-0.2899927 -0.078196764 -0.088765144 -0.03561588 -0.20914483 0.049099363 -0.12613171 -0.028591841
-0.00067936216 -0.44501203 0.001155866 0.15183611 0.18845561 -0.0030106835 0.021380631 0.0040873336
-0.14407857 0.027708739 -0.099932365 -0.16946638 -0.057380896 0.18093386 0.04818947 -0.13350946
-0.34098187 -0.015643738 0.0027425485 -0.09558496 0.09599271 -0.004005919 -0.13827766 0.00072081294
0.14499359 -0.043489877 0.3478245 -0.18081145 0.023205232 -0.032530192 0.0106646195 -0.015636321
0.008497474 0.22600006 -0.1367346 -0.012069976 -0.0342486 -0.0139759835 -0.26145855 -0.15436715
-0.0026638089 -0.0114715565 0.17501202 -0.21056639 0.01948483 0.0059326347 -0.016235992 -0.045410004
0.19750325 -0.16030912 0.13056156 0.039938897 0.01871528 -0.13575289 0.23879904 0.070682384
-0.27335435 -0.024682403 -0.05618453 -0.07753347 -0.18589008 -0.14986823 0.20597574 -0.32371393
0.05133884 -0.012927653 0.039760046 -0.17507017 0.023649847 0.12516378 0.24225362 -0.09834718
-0.0008210397 0.102572896 0.0100024855 0.21798894 -0.025705295 -0.15673096 0.08564399 0.017286353
-0.0018748378 0.0063464236 -0.17809099 -0.45490524 -0.08995248 -0.03465781 -0.24861 -0.0012848485
-0.023354873 0.4427287 0.17144829 -0.20836155 -0.020318335 -0.2574826 0.026808348 -0.012229942
0.13498804 -0.022274654 -0.050269645 0.20169488 0.21575359 -0.30783087 -0.30751702 0.022042131
-0.37071127 0.028295713 -0.008915692 -0.09459211 0.023304729 -0.01190206 0.1208991 0.28295124
0.00052984036 0.020302406 -0.00843109 -0.13475212 0.11583857 0.08627859 0.08879956 -0.011749191
0.2891698 0.07603561 0.088944726 0.03368789 0.20948885 -0.0514693 0.12466942 0.016079247
-0.006306431 0.43109342 0.009147108 -0.1515902 -0.1809425 -0.010833738 -0.003530992 -0.011033171
0.15653308 -0.03978866 0.1223094 0.19531588 0.079713725 -0.18475881 -0.03458827 0.13287716
0.3547584 0.0024105725 0.010784551 0.091122866 -0.09461913 -0.013815303 0.1427745 0.0046152407
-0.15066984 0.04498411 -0.34894162 0.1646868 -0.010122434 0.039680764 -0.0130517315 0.013714699
-0.010008765 -0.24874479 0.1486786 0.0065136435 0.028689466 -0.0045556505 0.25646204 0.17947158
-0.027332285 0.013807407 -0.16899239 0.20783909 -0.015841786 0.0064478475 -0.010442466 0.05474989
-0.18688369 0.17354812 -0.141104 -0.04416849 -0.00081650243 0.14739935 -0.23417677 -0.060022533
0.26735935 0.028313734 0.059022386 0.071759164 0.16569066 0.16785036 -0.20394485 0.33784407
-0.061423086 0.010238167 -0.053451505 0.17316224 -0.013450648 -0.1575037 -0.24037927 0.111163415
-0.0021254055 -0.089424096 -0.02101474 -0.19341752 0.017351547 0.17171054 -0.11216241 -0.0065946435
0.0026625358 -0.005701142 0.16165702 0.43864486 0.108291015 0.0021368468 0.22681715 0.0032035406

action_model._discrete_distribution.branches.0.bias f4 [2]
00000000: 2d3e b33b 263e b3bb
0.0054700584 -0.005470055

action_model._discrete_distribution.branches.1.weight f4 [3, 128]
00000000: b36e b33b 6dc1 513e 9188 ea3c 7f56 c4bd
00000010: c8b9 6f3d 831b 0abe 6a11 8bbc c98e 203c
00000020: 7dd4 a3bd 3a4e 833b 2011 913d 8084 f9bd
00000030: d963 22be bd64 babc 898b 06bd 80d1 45be
00000040: aba6 8e3c 36ac ab3c 8554 893c 9651 b63e
00000050: a5ba c2bd cf65 3dbb ab0c c4bd c12f e7bd
00000060: 6c5c f63a abdb 4ebb 7239 5c3c bf37 06be
00000070: e0f0 ce3b 39c3 31be 376b cf3c 2237 f13b
00000080: f075 fbbd 4525 93bd 02c7 ff3d e9f0 d7bd
00000090: f1fe 21be c571 273d d845 11be 5803 423e
000000a0: 4427 cd3b c6d3 7cbd fc35 44bc 3e79 e1bd
000000b0: e197 8d3d f3c9 003c 6675 4e3c 702e 333c
000000c0: d95e 48be 12f2 ce3d 3046 823d 7527 bc3e
000000d0: a150 a4bc 70af bfbd 0293 863d be6e e8bd
000000e0: f19b 4c3e 282e 09bb 66e4 aa3c 809b 723e
000000f0: 45a4 79bc c9b8 133d 1dfb 05be 5c5b bd3c
00000100: e3db a9bd edd5 66bd 76ef 0e3d ebfc 1dbe
00000110: 4044 703b ea36 4cbc 4c9c 9bbc e735 453c
00000120: b341 bb3a 06a4 b63d f0bc 45be 6c18 d73e
00000130: 347e 38bb 8367 aa3c 5117 613e 266f 35be
00000140: 30a0 0b3c 99e1 a53c f791 a43e b42e 2ebe
00000150: 0847 a8bc 9c09 ba3c cfbd 273c 0699 df3c
00000160: 0278 b33e 79a4 aebd 9a4d 633d 9281 dbbd
00000170: 38a6 533b 1137 013e 2b1e 95bd 1b84 6c3d
00000180: 50f7 94bd dc27 8ebc 0d3a 393e 006c 99bd
00000190: 695d ab3e 2219 703e b1e7 98be 759e 42be
000001a0: 49ab 863d 2e54 88bb a363 45be 7c37 a93e
000001b0: 3b0f 213d c5c3 8cbb 61ab 16be d1a3 ecbd
000001c0: b97a 1f3c eda4 c33d 0ae1 06be 4283 f7bd
000001d0: eb05 e63c 739d 32be f04c f0bd 68c3 853d
000001e0: 4b0a 713e b601 8dbc d712 383f 0ce0 5f3e
000001f0: 7da6 68be fb0b 543b b307 b5bc 3ea9 2d3d
00000200: 5b8f dcbb cd40 873d 3154 7fbd 4597 6c3e
00000210: 98a3 7abc d261 093e 87de 703c 2bd2 6cbd
00000220: ff7d c5ba 44cd b7bb e98f 213e 1eec 873e
00000230: d44e 4c3e 7ded 153e 77a7 e63c 3262 ab3e
00000240: b660 963d cf18 1ebc a1a5 c8bd 1c6b d23e
00000250: 9b9f d53e 41f7 63bc 9e34 973c a46d 823e
00000260: e4ae ddbb 0653 b1bc c4e2 73bd 7a79 e23d
00000270: 6e09 903c 824b 873e 8d01 fa3d 72a5 7b3c
00000280: d45f 783e e80c dd3c 9f92 c73e 1704 1d3c
00000290: 3590 533e 4c14 d83d 1608 ab3e cf40 7cbd
000002a0: cf82 1dbd 64dc 433e 3050 153c 2df6 de3c
000002b0: 678f 06bf 2bd4 fbbc a3fa c7ba 1ae5 60bd
000002c0: 3c3f d73e afc6 753d c468 563c 5ac4 ea3e
000002d0: 9027 843d ab3c 3b3e 362b 723d 4166 803e
000002e0: 1c54 3f3d 1796 29bd 9014 24bc 10ea 963d
000002f0: 282a 00be 075c 17be f3cf 3d3e 30c2 e6bb
00000300: 10a5 a73b c5fb 80bc 7ff3 e93c 2b5f ae3e
00000310: 05ff 0bbe e891 ecbd 7873 81ba 9d32 9cbd
00000320: 1f7a ca3c 6b91 dabc b580 e13e 6b97 543e
00000330: 0729 093d e132 dbbd 0f66 a03b a373 453e
00000340: e04c 49bd e9f7 66bc 7380 583e 679e 773e
00000350: 4efb adbe 55f5 e4bd 021e 48bc 00bf 85bd
00000360: f333 b4bd d913 083e 5568 da3d d6ca 923d
00000370: a37c 3c3b e3ed af3d ae93 f03d 5f89 ca3c
00000380: 0fc1 283e 9a75 663d 8c5e f93d 5705 c13e
00000390: 3421 293e 7fe9 0a3e 212e 173c dec2 893b
000003a0: ba50 093e 0d21 a73c 075f 9b3e 66da 7aba
000003b0: 496c 85bd f83c 04be 07f1 763e 3f01 543c
000003c0: 61d9 eb3c 466f 8bbc db87 9f3e 959d c93d
000003d0: 1d13 093d f29c ac3e 8ab5 453e 0c7e e03d
000003e0: 1287 3ebc fb6c a93b 4f63 553d 4204 6f3c
000003f0: 7228 9d3e d896 b2bb a380 e23e 7442 d1bd
0.005475843 0.20483942 0.028629573 -0.0958681 0.058526784 -0.13487057 -0.016976077 0.009799668
-0.07999513 0.004007128 0.070833445 -0.121834755 -0.15858401 -0.022753114 -0.032847915 -0.19318199
0.017413458 0.02095614 0.016763935 0.3560912 -0.09508256 -0.0028899794 -0.09572729 -0.11288405
0.0018795854 -0.0031564038 0.01344143 -0.13107203 0.0063153356 -0.17359628 0.025319679 0.0073613087
-0.12278354 -0.07184843 0.124891296 -0.10543997 -0.15819909 0.040879983 -0.141868 0.18946588
0.0062607843 -0.0617254 -0.0119757615 -0.11009453 0.06913734 0.007860648 0.012601232 0.0109363645
-0.19567432 0.10104765 0.063610435 0.36748853 -0.020057978 -0.09359634 0.06571008 -0.113492474
0.19981362 -0.0020932052 0.020860862 0.23692131 -0.015236919 0.036064897 -0.13084073 0.023114853
-0.08293893 -0.05635636 0.034896336 -0.15428512 0.0036661774 -0.012464264 -0.018995427 0.012036777
0.0014286548 0.08918004 -0.19310355 0.4201082 -0.0028151395 0.020801311 0.21981551 -0.17718181
0.008522078 0.020249175 0.32142612 -0.17010003 -0.020541683 0.02270966 0.010238125 0.027294647
0.35052496 -0.085274644 0.05549393 -0.10718073 0.003229512 0.12618662 -0.07281145 0.057743173
-0.072737336 -0.01735299 0.18088551 -0.074913025 0.33469704 0.23447087 -0.29864267 -0.19005759
0.06575639 -0.0041604256 -0.1927629 0.33050144 0.039321166 -0.0042957985 -0.14713813 -0.11554683
0.009733849 0.095529415 -0.13171783 -0.12085582 0.028078994 -0.17442875 -0.11733425 0.065314114
0.23539083 -0.01721273 0.7190375 0.21862811 -0.2271976 0.0032355774 -0.022098398 0.04239773
-0.0067309565 0.06604157 -0.06233615 0.2310458 -0.015297793 0.13416222 0.014701492 -0.05781762
-0.0015067457 -0.0056091864 0.15777554 0.2654733 0.19951946 0.14641376 0.028156025 0.33473355
0.07342665 -0.0096494695 -0.09797216 0.41097343 0.41723332 -0.01391393 0.018457707 0.25474274
-0.0067652334 -0.021646034 -0.059542432 0.11058326 0.017582621 0.26424795 0.12207327 0.015359269
0.24255306 0.026983693 0.3897905 0.009583495 0.2066048 0.10550746 0.33404607 -0.061585244
-0.038454827 0.19127041 0.0091133565 0.027216995 -0.52562565 -0.030740818 -0.0015257191 -0.05490599
0.42040431 0.060003933 0.0130865015 0.4585293 0.064528584 0.18284862 0.05912324 0.25078014
0.046711072 -0.041402902 -0.010014668 0.07368863 -0.12516081 -0.147812 0.18536358 -0.007042192
0.0051161125 -0.015745053 0.02855849 0.34056982 -0.13671501 -0.11551267 -0.0009876331 -0.07626841
0.024716435 -0.026680669 0.44043508 0.20760886 0.033486392 -0.10703064 0.004894979 0.19282393
-0.04914558 -0.014097192 0.2114275 0.2418152 -0.33980793 -0.11179606 -0.012214186 -0.06530571
-0.08798971 0.13288821 0.10664431 0.07167594 0.0028760813 0.08590295 0.11746918 0.024723707
0.16479896 0.056264497 0.121762365 0.37699386 0.16516572 0.13565634 0.009227307 0.004204138
0.13409701 0.020401502 0.30345938 -0.0009569287 -0.065147944 -0.12913883 0.24115382 0.01293975
0.028790178 -0.017020833 0.31158337 0.098445095 0.033465493 0.3371349 0.19307533 0.109615415
-0.011628883 0.005170462 0.05209666 0.0145884175 0.3069492 -0.005450111 0.44238767 -0.10217753

action_model._discrete_distribution.branches.1.bias f4 [3]
00000000: b008 78bc 23c3 c3bd 4c84 b83d
-0.01513879 -0.09558704 0.090096086
