results/Test5-2/Drive/Drive-100054.onnx (onnx, 108282 bytes, 9 tensors)

discrete_act_size_vector f4 [1, 2]
2.0 3.0
00000000: 0000 0040 0000 4040

network_body._body_endoder.seq_layers.0.weight f4 [128, 70]
-0.10103895 0.34796083 0.053927824 0.08408426 -0.04019762 -0.22004478 -0.07654486 0.033752475
0.051637657 0.2397964 -0.09787585 -0.081472374 0.3855131 0.11531879 0.183748 0.08446396
0.115104154 0.10428591 0.099113874 -0.13371828 0.17626315 -0.16787334 0.16247742 -0.0064878287
0.2621733 0.17011231 0.16309881 -0.01280032 0.06033916 -0.008749473 -0.07525417 0.062039625
-0.03716438 0.08611093 -0.10067365 -0.053631026 -0.00891074 -0.05497456 0.14485936 -0.0014453258
-0.047312826 0.039272975 -0.09932995 0.13168249 0.16972898 -0.026385877 -0.23766908 -0.097483136
0.13032185 0.0662729 -0.07412931 0.21788383 -0.070162445 0.17016797 0.0037844225 -0.038545784
0.19547787 0.028578859 -0.023622777 -0.071695335 0.118277855 -0.11476328 -0.1797113 0.09965367
0.1806958 -0.0980079 0.1481786 0.07090307 0.09000559 0.042012062 -0.012141123 -0.10494045
-0.00603039 -0.18491782 0.005703206 0.012815426 0.1349602 0.03151658 -0.07760414 0.19659401
0.10817352 0.029349482 0.12010335 0.053901345 0.30796996 -0.0697691 0.009111842 -0.036578756
-0.22751999 0.042363707 0.17709078 0.18314017 -0.15182318 0.1255974 0.2654056 0.085918225
0.25524235 -0.0050409636 -0.055767134 0.12719157 0.060936313 -0.17138119 -0.12124281 -0.07482805
0.017085887 -0.16766328 0.0059801177 0.22262761 -0.26583207 -0.06692572 0.030681359 -0.121008985
0.23230685 -0.20160122 0.13151386 -0.026670886 0.036659583 0.053679094 -0.09242934 0.07558643
-0.098792374 0.10822943 0.11715596 -0.20688617 -0.043951545 0.13107471 -0.053403653 -0.24702545
-0.21659365 0.025603132 0.03125059 0.10612301 -0.27276614 -0.01725397 0.014790039 -0.255996
0.023411797 -0.11868929 0.20800947 -0.106769405 0.021700375 -0.27327496 0.10085632 -0.035317954
-0.13711312 -0.10332078 0.050702322 -0.16929537 -0.07599407 -0.1917994 0.022951694 -0.13548051
0.2620947 -0.1430271 0.121008255 0.18890974 0.078545645 0.03105975 -0.207901 0.01730028
0.12779687 0.022695804 0.019205643 0.015249141 0.10926664 0.14875983 -0.07311111 -0.020585408
0.1063562 0.052786965 -0.05877653 0.023939023 -0.026270451 -0.117080055 0.043499984 -0.00213128
-0.016997399 0.05671096 -0.013207373 0.20152979 -0.12276777 0.01683354 -0.031654183 0.16821462
-0.14420463 0.07530527 0.07219198 0.1484719 0.34724817 -0.008804479 -0.19523373 -0.16388026
0.27587283 -0.39668518 -0.105134726 -0.028965868 -0.028769065 -0.023024948 -0.09520817 0.05039531
-0.059868187 -0.004652307 -0.19294678 0.029813427 0.0057011275 0.08173991 0.21822548 0.22204223
0.16994794 0.10339419 -0.08531806 -0.18296841 0.12551469 0.06345412 -0.015398428 0.067969464
0.04607015 -0.100479424 0.2566068 -0.14947371 -0.04959774 -0.0025098978 -0.04472388 0.039798222
0.11655367 -0.099225074 -0.17995541 0.06494383 0.2553707 -0.16716474 -0.016564334 -0.13681062
-0.15413646 0.10814371 0.24917123 0.09751304 0.12353796 0.06810356 0.019956749 -0.052955527
0.11253688 0.09696989 -0.00023857986 -0.08149618 0.15446973 0.11570397 -0.047523197 0.06269054
0.1701475 0.12348433 0.088836804 -0.017792268 -0.13527809 0.01879443 0.0055631213 0.20865844
00000000: 82ed cebd ec27 b23e 6ce3 5c3d 5e34 ac3d
00000010: 42a6 24bd 6b53 61be 8dc3 9cbd 0940 0a3d
00000020: 0282 533d 308d 753e 2273 c8bd fdda a6bd
00000030: f961 c53e 422c ec3d 7028 3c3e 71fb ac3d
00000040: babb eb3d da93 d53d 37fc ca3d 72ed 08be
00000050: 547e 343e fde6 2bbe 7b60 263e da97 d4bb
00000060: 943b 863e ec31 2e3e 6003 273e 6fb8 51bc
00000070: 3226 773d f359 0fbc dc1e 9abd 431d 7e3d
00000080: ad39 18bd ed5a b03d fd2d cebd 35ac 5bbd
00000090: 5afe 11bc 012d 61bd 0356 143e 1671 bdba
000000a0: 18cb 41bd b3dc 203d 806d cbbd c6d7 063e
000000b0: 6fcd 2d3e 3227 d8bc 865f 73be 3da5 c7bd
000000c0: 1773 053e 16ba 873d 1cd1 97bd f01c 5f3e
000000d0: 54b1 8fbd 8340 2e3e 1304 783b 2fe2 1dbd
000000e0: 5a2b 483e 361e ea3c 8e84 c1bc 01d5 92bd
000000f0: a93b f23d 0309 ebbd 3d06 38be 3917 cc3d
00000100: 5208 393e 5eb8 c8bd 22bc 173e a135 913d
00000110: da54 b83d d714 2c3d 90eb 46bc 05eb d6bd
00000120: 949a c5bb 195b 3dbe f6e1 ba3b cbf7 513c
00000130: 0233 0a3e 8817 013d ebee 9ebd f14f 493e
00000140: 148a dd3d 536e f03c bff8 f53d a8c7 5c3d
00000150: 3dae 9d3e 1ae3 8ebd d649 153c 9bd3 15bd
00000160: 00fb 68be 9185 2d3d 4957 353e 1989 3b3e
00000170: 8977 1bbe 9b9c 003e 3ee3 873e e5f5 af3d
00000180: 20af 823e ab2e a5bb 146c 64bd 823e 023e
00000190: 5b98 793d 8d7e 2fbe 264e f8bd 733f 99bd
000001a0: b4f7 8b3c ecaf 2bbe ddf4 c33b 7ef8 633e
000001b0: 241b 88be 5a10 89bd 7957 fb3c 8fd3 f7bd
000001c0: d9e1 6d3e 8d70 4ebe 92ab 063e e77c dabc
000001d0: 5c28 163d 9cde 5b3d 984b bdbd 0fcd 9a3d
000001e0: a853 cabd 64a7 dd3d 77ef ef3d f8d9 53be
000001f0: 8906 34bd 7338 063e cabd 5abd 3df4 7cbe
00000200: baca 5dbe a9bd d13c 9e00 003d 0557 d93d
00000210: 01a8 8bbe 3358 8dbc eb51 723c e811 83be
00000220: 19ca bf3c 5f13 f3bd 6f00 553e eba9 dabd
00000230: fcc4 b13c b2ea 8bbe c28d ce3d 8fa9 10bd
00000240: 6267 0cbe d899 d3bd 3dad 4f3d c45b 2dbe
00000250: c7a2 9bbd 1067 44be 3105 bc3c 67bb 0abe
00000260: 4731 863e b275 12be 2dd3 f73d 8e71 413e
00000270: 8adc a03d 0471 fe3c 00e4 54be 51b9 8d3c
00000280: 2fdd 023e 8dec b93c 2755 9d3c 88d7 793c
00000290: 30c7 df3d 7f54 183e 47bb 95bd bba2 a8bc
000002a0: 48d1 d93d 2537 583d a9bf 70bd c51b c43c
000002b0: 2135 d7bc abc7 efbd 0a2d 323d f2ac 0bbb
000002c0: 213e 8bbc c049 683d bd63 58bc d35d 4e3e
000002d0: ab6d fbbd 7ee6 893c d1a7 01bd 7440 2c3e
000002e0: 61aa 13be a639 9a3d 64d9 933d 0509 183e
000002f0: 83ca b13e a940 10bc 5aeb 47be 3ad0 27be
00000300: 343f 8d3e 521a cbbe e050 d7bd d449 edbc
00000310: 1aad ebbc d19e bcbc 80fc c2bd 506b 4e3d
00000320: 5838 75bd 6172 98bb d793 45be 4a3b f43c
00000330: 86d0 ba3b 4167 a73d 8076 5f3e 0a5f 633e
00000340: d506 2e3e 55c0 d33d 3cbb aebd 125c 3bbe
00000350: ec86 003e 3cf4 813d b049 7cbc 9333 8b3d
00000360: 0eb4 3c3d 28c8 cdbd f761 833e a30f 19be
00000370: 0027 4bbd 197d 24bb 6330 37bd 7603 233d
00000380: b1b3 ee3d 8436 cbbd 3b46 38be 4501 853d
00000390: f3bf 823e 3c2d 2bbe edb1 87bc 1518 0cbe
000003a0: f3d5 1dbe 737a dd3d be26 7f3e ebb4 c73d
000003b0: 7801 fd3d e179 8b3d 567c a33c e5e7 58bd
000003c0: bc79 e63d 2698 c63d 4b2b 7ab9 78e7 a6bd
000003d0: 502d 1e3e 34f6 ec3d afa7 42bd e663 803d
000003e0: 253b 2e3e 5ae5 fc3d 12f0 b53d 17c1 91bc
000003f0: 5786 0abe c7f6 993c d84a b63b 8faa 553e

network_body._body_endoder.seq_layers.0.bias f4 [128]
0.0 0.0 0.0 0.0 0.0 0.0 0.0 0.0
0.0 0.0 0.0 0.0 0.0 0.0 0.0 0.0
0.0 0.0 0.0 0.0 0.0 0.0 0.0 0.0
0.0 0.0 0.0 0.0 0.0 0.0 0.0 0.0
0.0 0.0 0.0 0.0 0.0 0.0 0.0 0.0
0.0 0.0 0.0 0.0 0.0 0.0 0.0 0.0
0.0 0.0 0.0 0.0 0.0 0.0 0.0 0.0
0.0 0.0 0.0 0.0 0.0 0.0 0.0 0.0
0.0 0.0 0.0 0.0 0.0 0.0 0.0 0.0
0.0 0.0 0.0 0.0 0.0 0.0 0.0 0.0
0.0 0.0 0.0 0.0 0.0 0.0 0.0 0.0
0.0 0.0 0.0 0.0 0.0 0.0 0.0 0.0
0.0 0.0 0.0 0.0 0.0 0.0 0.0 0.0
0.0 0.0 0.0 0.0 0.0 0.0 0.0 0.0
0.0 0.0 0.0 0.0 0.0 0.0 0.0 0.0
0.0 0.0 0.0 0.0 0.0 0.0 0.0 0.0
00000000: 0000 0000 0000 0000 0000 0000 0000 0000
00000010: 0000 0000 0000 0000 0000 0000 0000 0000
00000020: 0000 0000 0000 0000 0000 0000 0000 0000
00000030: 0000 0000 0000 0000 0000 0000 0000 0000
00000040: 0000 0000 0000 0000 0000 0000 0000 0000
00000050: 0000 0000 0000 0000 0000 0000 0000 0000
00000060: 0000 0000 0000 0000 0000 0000 0000 0000
00000070: 0000 0000 0000 0000 0000 0000 0000 0000
00000080: 0000 0000 0000 0000 0000 0000 0000 0000
00000090: 0000 0000 0000 0000 0000 0000 0000 0000
000000a0: 0000 0000 0000 0000 0000 0000 0000 0000
000000b0: 0000 0000 0000 0000 0000 0000 0000 0000
000000c0: 0000 0000 0000 0000 0000 0000 0000 0000
000000d0: 0000 0000 0000 0000 0000 0000 0000 0000
000000e0: 0000 0000 0000 0000 0000 0000 0000 0000
000000f0: 0000 0000 0000 0000 0000 0000 0000 0000
00000100: 0000 0000 0000 0000 0000 0000 0000 0000
00000110: 0000 0000 0000 0000 0000 0000 0000 0000
00000120: 0000 0000 0000 0000 0000 0000 0000 0000
00000130: 0000 0000 0000 0000 0000 0000 0000 0000
00000140: 0000 0000 0000 0000 0000 0000 0000 0000
00000150: 0000 0000 0000 0000 0000 0000 0000 0000
00000160: 0000 0000 0000 0000 0000 0000 0000 0000
00000170: 0000 0000 0000 0000 0000 0000 0000 0000
00000180: 0000 0000 0000 0000 0000 0000 0000 0000
00000190: 0000 0000 0000 0000 0000 0000 0000 0000
000001a0: 0000 0000 0000 0000 0000 0000 0000 0000
000001b0: 0000 0000 0000 0000 0000 0000 0000 0000
000001c0: 0000 0000 0000 0000 0000 0000 0000 0000
000001d0: 0000 0000 0000 0000 0000 0000 0000 0000
000001e0: 0000 0000 0000 0000 0000 0000 0000 0000
000001f0: 0000 0000 0000 0000 0000 0000 0000 0000

network_body._body_endoder.seq_layers.2.weight f4 [128, 128]
0.07087472 -0.0013197203 0.01661909 0.07778772 0.09611415 -0.06437709 -0.07031206 0.06241257
-0.21412808 -0.121287934 -0.16953981 0.10374552 -0.0042643547 0.10202659 0.026445914 0.035880208
-0.0072358735 0.027355077 -0.06999079 -0.21177126 0.09983318 0.09138396 0.017943772 -0.09381798
0.004628312 0.0025224353 0.20666009 -0.066830516 -0.081121735 -0.085223325 0.17772327 -0.031791434
0.001900863 0.13588363 0.013114404 -0.036117874 -0.121633254 0.0834966 -0.06969088 0.07942409
-0.08001701 -0.02372382 -0.13288473 0.032272168 0.048467778 0.07296846 -0.13925616 -0.04224418
0.088248916 -0.14511901 0.12531205 -0.06648848 0.0012510575 -0.14973548 -0.0840037 0.0070695886
0.09750755 0.05530836 -0.061258867 -0.047779743 -0.08761864 -0.1045365 -0.0542366 0.0027176589
-0.07940989 0.048275646 0.040891964 -0.04428364 -0.094064504 -0.1233393 0.06553788 -0.10799332
0.09465356 0.11647654 0.07032266 -0.04418817 0.09321119 0.11554584 0.028762674 -0.07970386
-0.035714865 0.23587793 0.05235048 -0.0027913642 0.06554145 0.11935549 -0.04923099 -0.022632943
0.100543216 0.14006425 -0.1213071 0.09207917 0.066421114 -0.031585984 -0.063070975 0.09202008
-0.14483333 -0.018773703 0.04184365 -0.08308443 -0.029517353 -0.032996155 0.03173404 0.029698923
-0.052450594 -0.0028615536 -0.01262826 0.05834543 -0.13327247 0.104247876 0.07345786 -0.1414607
-0.026577206 0.13153145 0.017354006 -0.064868614 0.029366506 -0.008147199 0.056332808 -0.15007004
0.09569057 -0.17624925 -0.09180666 0.15028751 0.21165435 -0.11881912 -0.015486753 -0.049663015
0.06569392 0.02374632 0.13273506 0.085319005 0.058699023 -0.031781536 -0.0048289034 -0.055162225
0.042014986 0.0004558929 -0.016743628 -0.13459475 -0.0075767795 -0.02205329 0.07298275 0.098512374
-0.103122294 -0.007214259 0.044952836 0.04411577 -0.0023921474 -0.020702455 -0.087718435 -0.15006746
-0.011369368 -0.021278532 0.06930233 -0.011153814 0.08662986 -0.082830384 -0.008905185 0.013779069
0.050605904 -0.053621765 0.0713501 0.0570837 0.018375285 -0.002399238 -0.034906518 0.09541726
-0.087130524 0.19346084 -0.18349637 -0.09424918 -0.038368113 -0.019131297 0.061954718 0.08698818
0.108949274 -0.03771519 -0.019493522 0.033744927 0.11253331 0.004391145 0.033705976 0.01992471
-0.061966192 0.062027663 0.07044329 -0.057840686 0.037439194 0.037257433 0.08268779 -0.08273145
0.09356483 -0.024030773 -0.1163682 -0.035903547 -0.30305907 -0.12167553 0.0074977963 -0.056944102
0.10311044 -0.0136551205 0.16737217 0.002708026 -0.09800546 -0.0820673 -0.097805135 0.018783445
-0.03541597 0.11768484 -0.024924403 -0.12454281 -0.010832321 0.12342444 0.080822304 -0.07700025
0.13395648 -0.10885474 -0.055427246 0.0003610906 0.24128923 -0.17008671 -0.0066540474 -0.06745106
0.02566866 -0.018587666 0.061564192 0.13842589 -0.026194766 0.0662515 -0.0806681 0.038505282
-0.008384159 0.012394509 0.08228565 0.07591721 0.09110857 -0.16067217 0.106200844 0.05513827
-0.06531681 0.0020485022 -0.008010732 0.019090477 -0.041222963 -0.19913347 0.051089562 -0.0052336436
0.023762854 -0.15723915 0.0325625 0.06094737 0.024190873 0.057940084 -0.0099591315 0.035907894
00000000: c426 913d 77fa acba c224 883c 2b4f 9f3d
00000010: 7fd7 c43d 23d8 83bd c5ff 8fbd 53a4 7f3d
00000020: 6444 5bbe cf65 f8bd d89b 2dbe 8878 d43d
00000030: 00bc 8bbb 51f3 d03d 1aa5 d83c 20f7 123d
00000040: e81a edbb c117 e03c 5557 8fbd 91da 58be
00000050: 5775 cc3d 8327 bb3d d1fe 923c a423 c0bd
00000060: 18a9 973b 714f 253b b49e 533e 70de 88bd
00000070: 2723 a6bd 9189 aebd 17fd 353e bc37 02bd
00000080: 6126 f93a 1425 0b3e ccdd 563c 56f0 13bd
00000090: db1a f9bd 4400 ab3d 18ba 8ebd 19a9 a23d
000000a0: f5df a3bd 7558 c2bc ef12 08be d22f 043d
000000b0: 2686 463d 7d70 953d 2b99 0ebe 3c08 2dbd
000000c0: d9bb b43d 149a 14be cd51 003e 1d2b 88bd
000000d0: 86fa a33a 4254 19be 220a acbd 02a8 e73b
000000e0: 0ab2 c73d 058b 623d 94ea 7abd b1b4 43bd
000000f0: 6771 b3bd 3c17 d6bd 3227 5ebd c01a 323b
00000100: a7a1 a2bd afbc 453d 557e 273d c362 35bd
00000110: e4a4 c0bd 5199 fcbd b938 863d 9a2b ddbd
00000120: bad9 c13d 418b ee3d 5405 903d a8fe 34bd
00000130: 82e5 be3d 4ca3 ec3d b39f eb3c c73b a3bd
00000140: c049 12bd fc89 713e 756d 563d 52ef 36bb
00000150: 993a 863d a770 f43d 6fa6 49bd b968 b9bc
00000160: 9ae9 cd3d 016d 0f3e db6f f8bd 0194 bc3d
00000170: cb07 883d 4e60 01bd 5b2b 81bd 0675 bc3d
00000180: 304f 14be 4fcb 99bc 3f64 2b3d 2b28 aabd
00000190: 60ce f1bc fa26 07bd 8dfb 013d 284b f33c
000001a0: 6fd6 56bd e788 3bbb c3e6 4ebc 9efb 6e3d
000001b0: 9478 08be e97f d53d 1371 963d 13db 10be
000001c0: 71b8 d9bc 2eb0 063e fd29 8e3c d6d9 84bd
000001d0: 0792 f03c d47b 05bc 3bbd 663d f6ab 19be
000001e0: 6bf9 c33d af7a 34be 2105 bcbd f8e4 193e
000001f0: ebbb 583e 7057 f3bd 26bc 7dbc 726b 4bbd
00000200: 898a 863d a487 c23c b3eb 073e bbbb ae3d
00000210: 636e 703d 5b2d 02bd c73b 9ebb c9f1 61bd
00000220: e817 2c3d e904 ef39 ef29 89bc 35d3 09be
00000230: a246 f8bb 1aa9 b4bc fb77 953d dbc0 c93d
00000240: c831 d3bd 9765 ecbb 7720 383d bdb2 343d
00000250: 93c5 1cbb 3298 a9bc b9a5 b3bd 49ab 19be
00000260: 9646 3abc 5150 aebc 61ee 8d3d 7dbe 36bc
00000270: ff6a b13d faa2 a9bd 0ee7 11bc 9bc1 613c
00000280: 2348 4f3d 7fa2 5bbd 0020 923d 99d0 693d
00000290: c487 963c 893c 1dbb 23fa 0ebd 206a c33d
000002a0: 7d71 b2bd 991a 463e 79e6 3bbe b705 c1bd
000002b0: e227 1dbd 3db9 9cbc 3bc4 7d3d dc26 b23d
000002c0: cc20 df3d 3e7b 1abd e1b0 9fbc 1f38 0a3d
000002d0: dd77 e63d 98e3 8f3b 470f 0a3d 2539 a33c
000002e0: 43d0 7dbd b810 7e3d 9244 903d 5bea 6cbd
000002f0: d759 193d 409b 183d 3758 a93d 1b6f a9bd
00000300: eb9e bf3d 2fdc c4bc 7352 eebd 990f 13bd
00000310: 8f2a 9bbe 0531 f9bd 13b0 f53b 383e 69bd
00000320: 912b d33d bab9 5fbc 9c63 2b3e 2379 313b
00000330: 16b7 c8bd e712 a8bd 0f4e c8bd bddf 993c
00000340: 5610 11bd c004 f13d 432e ccbc 4d10 ffbd
00000350: 0c7a 31bc f4c5 fc3d 2a86 a53d 4fb2 9dbd
00000360: e32b 093e 3cef debd ae07 63bd c350 bd39
00000370: 8614 773e 362b 2ebe 320a dabb c823 8abd
00000380: 1547 d23c 2945 98bc bc2a 7c3d 84bf 0d3e
00000390: 6896 d6bc deae 873d 5135 a5bd b7b7 1d3d
000003a0: b65d 09bc 5712 4b3c 6185 a83d 7b7a 9b3d
000003b0: 2197 ba3d 3f87 24be d47f d93d abd8 613d
000003c0: d2c4 85bd 2a40 063b 723f 03bc a263 9c3c
000003d0: 69d9 28bd a5e9 4bbe 4a43 513d fc7e abbb
000003e0: 51aa c23c 4d03 21be 4260 053d f3a3 793d
000003f0: f02b c63c 9552 6d3d a02b 23bc 2814 133d

network_body._body_endoder.seq_layers.2.bias f4 [128]
0.0 0.0 0.0 0.0 0.0 0.0 0.0 0.0
0.0 0.0 0.0 0.0 0.0 0.0 0.0 0.0
0.0 0.0 0.0 0.0 0.0 0.0 0.0 0.0
0.0 0.0 0.0 0.0 0.0 0.0 0.0 0.0
0.0 0.0 0.0 0.0 0.0 0.0 0.0 0.0
0.0 0.0 0.0 0.0 0.0 0.0 0.0 0.0
0.0 0.0 0.0 0.0 0.0 0.0 0.0 0.0
0.0 0.0 0.0 0.0 0.0 0.0 0.0 0.0
0.0 0.0 0.0 0.0 0.0 0.0 0.0 0.0
0.0 0.0 0.0 0.0 0.0 0.0 0.0 0.0
0.0 0.0 0.0 0.0 0.0 0.0 0.0 0.0
0.0 0.0 0.0 0.0 0.0 0.0 0.0 0.0
0.0 0.0 0.0 0.0 0.0 0.0 0.0 0.0
0.0 0.0 0.0 0.0 0.0 0.0 0.0 0.0
0.0 0.0 0.0 0.0 0.0 0.0 0.0 0.0
0.0 0.0 0.0 0.0 0.0 0.0 0.0 0.0
00000000: 0000 0000 0000 0000 0000 0000 0000 0000
00000010: 0000 0000 0000 0000 0000 0000 0000 0000
00000020: 0000 0000 0000 0000 0000 0000 0000 0000
00000030: 0000 0000 0000 0000 0000 0000 0000 0000
00000040: 0000 0000 0000 0000 0000 0000 0000 0000
00000050: 0000 0000 0000 0000 0000 0000 0000 0000
00000060: 0000 0000 0000 0000 0000 0000 0000 0000
00000070: 0000 0000 0000 0000 0000 0000 0000 0000
00000080: 0000 0000 0000 0000 0000 0000 0000 0000
00000090: 0000 0000 0000 0000 0000 0000 0000 0000
000000a0: 0000 0000 0000 0000 0000 0000 0000 0000
000000b0: 0000 0000 0000 0000 0000 0000 0000 0000
000000c0: 0000 0000 0000 0000 0000 0000 0000 0000
000000d0: 0000 0000 0000 0000 0000 0000 0000 0000
000000e0: 0000 0000 0000 0000 0000 0000 0000 0000
000000f0: 0000 0000 0000 0000 0000 0000 0000 0000
00000100: 0000 0000 0000 0000 0000 0000 0000 0000
00000110: 0000 0000 0000 0000 0000 0000 0000 0000
00000120: 0000 0000 0000 0000 0000 0000 0000 0000
00000130: 0000 0000 0000 0000 0000 0000 0000 0000
00000140: 0000 0000 0000 0000 0000 0000 0000 0000
00000150: 0000 0000 0000 0000 0000 0000 0000 0000
00000160: 0000 0000 0000 0000 0000 0000 0000 0000
00000170: 0000 0000 0000 0000 0000 0000 0000 0000
00000180: 0000 0000 0000 0000 0000 0000 0000 0000
00000190: 0000 0000 0000 0000 0000 0000 0000 0000
000001a0: 0000 0000 0000 0000 0000 0000 0000 0000
000001b0: 0000 0000 0000 0000 0000 0000 0000 0000
000001c0: 0000 0000 0000 0000 0000 0000 0000 0000
000001d0: 0000 0000 0000 0000 0000 0000 0000 0000
000001e0: 0000 0000 0000 0000 0000 0000 0000 0000
000001f0: 0000 0000 0000 0000 0000 0000 0000 0000

action_model._discrete_distribution.branches.0.weight f4 [2, 128]
0.0025643343 -0.0013020685 -0.01258004 -0.0054848343 0.0032513663 0.0031511248 0.0031129962 -0.0032166073
-0.003036511 0.0006353363 -0.0016049441 0.008730258 0.008475023 -0.0009662866 0.0045302473 -0.008789824
-0.009061024 -0.013925098 0.008930932 -0.00093537726 -0.0026270875 -0.005150904 -0.0028971208 -0.0012150378
-0.00518812 -0.0021610723 0.007996724 0.0050546033 -0.020113034 0.0012966921 0.009594591 -0.015348963
0.0045514815 -0.012605122 -0.00978828 0.016651424 -0.0037010144 -0.004741519 -0.010814852 -0.021103857
0.006830332 -0.0044245683 -0.018641898 0.0045949463 0.0068854704 0.0015310266 0.010335735 0.0008219148
0.0031482892 0.009472015 0.0006712157 -0.0066198753 -0.0014519525 -0.010883027 -0.014828833 0.0004232217
0.0026203636 -0.0056457785 -0.016500691 0.012702254 -0.0033651635 0.009804715 -0.009463531 -0.0072010295
-0.0040011625 -0.015440985 -0.0050406493 -0.0011666397 -0.004888269 0.0037501098 -0.0049210573 -0.0024444382
-0.010257508 -0.00347109 -0.0070946673 -0.0014068404 -0.003394539 -0.008657029 0.0083115455 -0.0036249198
0.0005346785 0.0026861595 0.0074408078 -0.0005106468 0.013458336 -0.002583466 -0.0045817266 -0.005309393
-0.0020848487 -0.014947346 -0.00066657213 -0.017890673 -0.016808016 0.0036714536 -0.005590717 -0.0055152215
-0.01426246 0.0036186352 -0.007343374 -0.011044489 -0.0028008295 -0.0008064238 0.0052289395 -0.020877464
-0.0063863187 -0.008425463 -0.006709552 0.0011323838 0.005599147 -0.010869163 0.0077624433 0.00555607
0.0018096153 -0.01998424 -0.00046994057 -0.010166893 -0.018895062 0.0007345436 0.011604584 0.014642869
-0.0037770483 -0.008947692 -0.008766367 0.007013952 0.0038600885 -0.002743542 -0.006896637 -0.007982188
-0.00018221543 -0.0034103685 -0.011665024 0.02020473 -0.005630648 -0.002737292 0.006264334 -0.0041279304
-0.015886465 0.028705994 0.015262864 0.00048003817 -0.0008016238 0.016201124 0.014581921 -0.0012900551
-0.0030535331 0.010651627 0.012199636 0.007596229 -0.0018864606 -0.01295528 -0.008278438 -0.0035907615
-0.0018980422 -0.0069090235 -0.02633574 -0.0013003045 0.0008416529 0.008421899 0.015371007 -0.0017696519
0.0016068578 0.014239877 0.0016968058 0.0029708776 -1.6689524e-05 0.003571032 0.004210178 0.0028714344
0.0049011176 0.001450154 0.0050872164 -0.0008193779 -0.004407002 0.005355106 -0.0064317468 0.008205244
0.00094515615 -0.0006189777 -0.006022058 0.0029823447 -0.009099568 -0.0028590732 -0.0055683064 -0.012869725
0.015010297 0.008017076 0.004315292 -0.0047602165 -0.005775505 -0.009482944 0.0015865073 0.020608967
-0.0043896865 0.005189417 0.00051964546 -0.013474709 -0.0043579713 -0.0013277876 0.020451894 0.0019392187
0.008210979 0.0052682497 -0.0057057654 0.012143514 -0.0069349194 0.008704497 -0.00029788935 -0.0056606266
0.0011367137 -0.002971496 0.0021143758 -0.008011764 -0.00049816974 -0.0030205378 -0.0075675435 -0.013993486
-0.0061292956 0.002280651 -0.0025404932 0.008886538 0.0011560096 0.00157541 -0.007737398 -0.0023156467
-0.007962926 -0.008099614 0.015712187 -0.006341131 -0.006478974 -0.011608429 0.014803583 -0.006496232
0.0039478135 0.011305812 0.012532334 -0.0006185553 0.007564193 -0.0007985996 -0.00095262995 0.005398504
0.0013712125 0.0034297283 -0.014069184 0.0005318891 -0.0069411295 -0.022610273 -0.0015517939 -0.015094817
-0.006422378 0.008358569 -0.009653251 0.0019525994 0.008838778 0.00016790014 0.0041667097 -0.008877356
00000000: 640e 283b 2baa aaba 831c 4ebc 20ba b3bb
00000010: e014 553b 1a83 4e3b 6903 4c3b b7cd 52bb
00000020: 3300 47bb b38c 263a fd5c d2ba 5b09 0f3c
00000030: d3da 0a3c 654e 7dba 7872 943b 3203 10bc
00000040: b074 14bc 1826 64bc 0b53 123c 1b34 75ba
00000050: 372b 2cbb eac8 a8bb 9fdd 3dbb e741 9fba
00000060: 1b01 aabb c7a0 0dbb b104 033c 16a1 a53b
00000070: 17c4 a4bc c4f5 a93a a232 1d3c 387a 7bbc
00000080: 9824 953b b785 4ebc 065f 20bc 9168 883c
00000090: b88c 72bb bf5e 9bbb c730 31bc ffe1 acbc
000000a0: fad0 df3b f8fb 90bb e5b6 98bc 3491 963b
000000b0: 839f e13b baac c83a 3757 293c c575 573a
000000c0: 8753 4e3b 8330 1b3c 86f4 2f3a 8aeb d8bb
000000d0: 714f beba b94e 32bc a2f4 72bc dbe3 dd39
000000e0: 68ba 2b3b 3900 b9bb 752c 87bc 1d1d 503c
000000f0: 138a 5cbb f5a3 203c ed0c 1bbc 9df6 ebbb
00000100: 2f1c 83bb 2ffc 7cbc 082c a5bb efe9 98ba
00000110: c62d a0bb 67c4 753b d240 a1bb de32 20bb
00000120: 1b0f 28bc 3a7b 63bb 627a e8bb bb65 b8ba
00000130: ea76 5ebb 36d6 0dbc 262d 083c 1090 6dbb
00000140: ab29 0c3a 470a 303b 05d2 f33b eddc 05ba
00000150: 5a80 5c3c 5e4f 29bb 4f22 96bb 6bfa adbb
00000160: f5a1 08bb b7e5 74bc e6bc 2eba 768f 92bc
00000170: f7b0 89bc c59c 703b 5532 b7bb 08b9 b4bb
00000180: 18ad 69bc a026 6d3b b0a0 f0bb f2f3 34bc
00000190: 1f8e 37bb 2f66 53ba 8657 ab3b 3707 abbc
000001a0: 5344 d1bb f40a 0abc cddb dbbb 7f6c 943a
000001b0: 0d79 b73b 9314 32bc 185c fe3b b10f b63b
000001c0: 9d30 ed3a fdb5 a3bc 5b62 f6b9 0a93 26bc
000001d0: d1c9 9abc 638e 403a 2721 3e3c a5e8 6f3c
000001e0: 5b88 77bb 5799 12bc cfa0 0fbc 4bd5 e53b
000001f0: 8af9 7c3b ffcc 33bb 2ffd e1bb b9c7 02bc
00000200: 1511 3fb9 7d80 5fbb a81e 3fbc 6484 a53c
00000210: 4d81 b8bb 2464 33bb 0b45 cd3b 9743 87bb
00000220: 5524 82bc d528 eb3c 1711 7a3c a2ad fb39
00000230: 1024 52ba 38b8 843c 02e9 6e3c 1117 a9ba
00000240: c91d 48bb 2984 2e3c fbe0 473c cae9 f83b
00000250: 1d43 f7ba 6242 54bc 49a2 07bc fb52 6bbb
00000260: bac7 f8ba 1765 e2bb 0dbe d7bc fb6e aaba
00000270: 5fa2 5c3a 01fc 093c add6 7b3c aaf3 e7ba
00000280: 339d d23a 604e 693c 5b67 de3a 0eb3 423b
00000290: 7b00 8cb7 fa07 6a3b 88f5 893b ad2e 3c3b
000002a0: 8e99 a03b 1813 be3a aab2 a63b 85cb 56ba
000002b0: 9d68 90bb e379 af3b 67c1 d2bb 4a6f 063c
000002c0: 5bc4 773a e442 22ba af54 c5bb 7173 433b
000002d0: 5b16 15bc 4a5f 3bbb 5776 b6bb 8adb 52bc
000002e0: c0ed 753c 0e5a 033c 4b67 8d3b 97fb 9bbb
000002f0: 7340 bdbb 5a5e 1bbc 5af2 cf3a 23d4 a83c
00000300: 5cd7 8fbb fc0b aa3b d138 083a 07c5 5cbc
00000310: 50cd 8ebb 2909 aeba bb8a a73c 622d fe3a
00000320: 5887 063c 48a1 ac3b 6ef7 babb 97f5 463c
00000330: 523e e3bb 4e9d 0e3c 082e 9cb9 c77c b9bb
00000340: c8fd 943a 6ebd 42bb 5791 0a3b c643 03bc
00000350: 9b97 02ba 37f4 45bb 28f9 f7bb ef44 65bc
00000360: 42d8 c8bb f976 153b 677e 26bb d898 113c
00000370: 3f85 973a fd7d ce3a 008a fdbb 1bc2 17bb
00000380: ef76 02bc 3eb4 04bc d8b6 803c 43c9 cfbb
00000390: 934d d4bb 4831 3ebc ba8a 723c 58de d4bb
000003a0: a95c 813b 033c 393c 6b54 4d3c 8b26 22ba
000003b0: 0ddd f73b 1d59 51ba eab9 79ba efe5 b03b
000003c0: 42ba b33a 4bc5 603b 6f82 66bc 796e 0b3a
000003d0: 6a72 e3bb 2e39 b9bc 9065 cbba 4050 77bc
000003e0: d072 d2bb 61f2 083c ab28 1ebc 5dee ff3a
000003f0: 86d0 103c 5a0e 3039 e588 883b 5472 11bc

action_model._discrete_distribution.branches.0.bias f4 [2]
0.0 0.0
00000000: 0000 0000 0000 0000

action_model._discrete_distribution.branches.1.weight f4 [3, 128]
0.002706941 0.0046808156 -0.0053885765 0.008783571 -0.00077033154 0.011925105 0.0026139023 -0.0008735115
0.002770559 -0.0066299117 -0.017752003 0.0067266547 -0.0011820904 -0.01913678 0.017581623 -0.004884939
0.0113818105 8.084587e-05 -0.015360727 -0.016462442 0.0043620984 0.014593362 -0.0046360805 -0.0032246453
-0.0029828253 0.0039157216 0.01780612 -0.007001133 -0.0022442748 -0.0007074461 0.007233012 -0.009703892
-0.009229901 -0.00046052164 0.010297109 -0.004500464 -0.002382377 -0.0013903417 -0.020172002 0.011624074
-0.008496639 -0.0016402332 0.0040603383 -0.025063375 0.0010482877 0.010288848 -0.012567568 0.0032014616
-0.009080658 0.005460699 -0.016029729 0.0016710839 0.009514606 0.0066145705 0.013609816 0.009229828
0.0012532182 0.004937401 0.0015986303 -0.011989282 -0.0030436858 0.0067765154 0.0010572792 -0.008060445
0.015712073 -0.005513456 0.017333802 -0.0020835013 0.014270112 -0.03374362 0.014726825 -0.0005077512
0.005297573 -0.0024375366 -0.009083348 -0.008058695 0.0007351534 0.000497293 -0.0076770405 -0.005589655
-0.005191849 0.002712026 -0.004998282 0.005021471 0.014739293 0.0012346408 -0.00047305654 -0.0028981909
0.004769685 0.0012279518 0.011280458 -0.013226447 -0.0011670846 -0.0054097404 0.0007438322 -0.018126393
0.0011844666 0.0069359937 -0.00063921453 -0.010464404 0.0060793078 0.01066745 0.0030081389 0.0054704524
0.009815377 0.0032753423 0.014919974 0.01508217 0.0023456626 -0.01415882 0.0039118184 0.011344115
0.01858195 0.004584991 0.0118015455 -0.0070953416 -0.0022487922 0.008669636 -0.0009890359 -0.008571194
0.00059085013 -0.00799267 -0.001850079 -0.0059313676 0.013526182 0.005248755 0.0139686465 0.008334695
-0.0021198243 -0.002204604 0.018003412 0.0050236178 -0.005074031 0.009184221 0.004997821 0.005531132
-0.0010404725 -0.004815948 0.018013908 0.01993371 -0.0051586544 -0.0015726428 0.0009665778 -0.010525424
0.0016524522 -0.005138777 0.008791278 0.017299546 0.0051583378 0.006665811 0.009455085 0.0036972817
-0.0017900554 0.0022300696 -0.0029082198 0.0036978142 -0.0021619727 -0.009787663 0.0038205169 0.002115954
0.010650031 -0.0009095521 0.004823362 0.010226294 -0.008725768 0.0016084332 0.009444966 0.02003276
-0.0030237592 0.011359336 0.0073465877 -0.013527616 0.013335069 0.0042800414 0.0046745404 -0.012642274
0.0052737473 -0.015916549 0.0076975296 0.0008087749 -0.0016869428 0.005205234 0.00917387 0.0022414417
-0.0054562557 -0.004593276 0.009390542 0.008313049 0.00572081 -0.0036194285 -0.008231891 -0.0023943072
-0.0021482112 0.00809548 0.0009812631 -0.004004501 -0.0059507084 -0.008459712 0.013465643 0.004731488
0.01213108 -0.0058111297 -0.008076629 0.0016600726 -0.0112513 0.0015332447 -0.0032226087 -0.005757105
-0.0018087587 -0.002682401 0.002175562 0.008037115 -0.0049726227 -0.006693914 0.010567351 0.00842432
-0.009456533 0.0023983838 0.005049297 -0.012402156 0.005713393 -0.015698992 -0.018885447 0.0013787532
0.0020890513 -0.004764108 -0.007691398 0.0014235851 -0.0015963011 -0.0028234997 0.0073225545 0.0027319398
-0.009193435 -0.01348051 0.013143576 -0.008316052 0.008083161 -0.011703348 -0.00010710972 -0.014189313
-0.0067037875 0.00035487273 -0.0043924763 -0.010940586 -0.016237449 0.0052287388 0.0036389844 0.010043443
0.009707188 -0.012252788 0.005976634 -0.0017131033 0.004934003 -0.01721994 0.002138651 0.0035117548
00000000: ef66 313b 8761 993b a892 b0bb f8e8 0f3c
00000010: 13f0 49ba 8461 433c 014e 2b3b 5dfc 64ba
00000020: 4492 353b bb3f d9bb a66c 91bc 456b dc3b
00000030: 5ff0 9aba bdc4 9cbc 5607 903c d711 a0bb
00000040: c67a 3a3c cc8b a938 8fab 7bbc 3edc 86bc
00000050: efef 8e3b ff18 6f3c 43ea 97bb 9254 53bb
00000060: 817b 43bb 744f 803b 24de 913c c369 e5bb
00000070: af14 13bb e773 39ba e702 ed3b 13fd 1ebc
00000080: 0339 17bc 2b72 f1b9 35b5 283c a178 93bb
00000090: a721 1cbb 203c b6ba c13f a5bc e672 3e3c
000000a0: 7d35 0bbc 18fd d6ba 960c 853b b551 cdbc
000000b0: b366 893a 8e92 283c 33e8 4dbc 9dcf 513b
000000c0: 0ac7 14bc aaef b23b c750 83bc 4508 db3a
000000d0: 26e3 1b3c 0abf d83b b5fb 5e3c b438 173c
000000e0: 0643 a43a ecc9 a13b 2289 d13a b26e 44bc
000000f0: 9378 47bb 880d de3b 6794 8a3a f50f 04bc
00000100: 9bb6 803c 39aa b4bb 9eff 8d3c 5a8b 08bb
00000110: 30cd 693c c036 0abd c848 713c 9b1a 05ba
00000120: 4397 ad3b 14bf 1fbb 53d2 14bc 9e08 04bc
00000130: 4fb7 403a c55c 023a af8f fbbb 6d29 b7bb
00000140: 6320 aabb 3fbc 313b a1c8 a3bb 278b a43b
00000150: 137d 713c acd3 a13a 9304 f8b9 93ef 3dbb
00000160: 054b 9c3b 3af3 a03a acd1 383c bdb3 58bc
00000170: dcf8 98ba 3144 b1bb bcfd 423a cd7d 94bc
00000180: 1b40 9b3a 5547 e33b f690 27ba e472 2bbc
00000190: ee34 c73b 87c6 2e3c 3224 453b 7b41 b33b
000001a0: add0 203c 20a7 563b e872 743c 351b 773c
000001b0: b0b9 193b 65fa 67bc b62e 803b abdc 393c
000001c0: 2c39 983c b13d 963b 455b 413c 0a80 e8bb
000001d0: 7960 13bb 170b 0e3c 8aa2 81ba 316e 0cbc
000001e0: 48e3 1a3a b0f3 02bc 5a7e f2ba eb5b c2bb
000001f0: eb9c 5d3c c0fd ab3b c0dc 643c 3f8e 083c
00000200: c0ec 0abb 1e7b 10bb e47b 933c 299d a43b
00000210: 0f44 a6bb 6a79 163c c3c4 a33b 803e b53b
00000220: 7760 88ba 1acf 9dbb e791 933c 054c a33c
00000230: ee09 a9bb 2321 ceba f061 7d3a d472 2cbc
00000240: 1897 d83a 3063 a8bb 4b09 103c c7b7 8d3c
00000250: 4607 a93b e06c da3b 80e9 1a3c 184e 723b
00000260: 4ba0 eaba 5c26 123b d597 3ebb 0757 723b
00000270: e2af 0dbb 6f5c 20bc a361 7a3b d1ab 0a3b
00000280: 787d 2e3c 026f 6eba 4b0d 9e3b 308c 273c
00000290: 86f6 0ebc 10d2 d23a 0fbf 1a3c be1b a43c
000002a0: 432a 46bb 821c 3a3c a5bb f03b efa2 5dbc
000002b0: 557b 5a3c 973f 8c3b e32c 993b 8a21 4fbc
000002c0: 66cf ac3b 6c63 82bc 8f3b fc3b f703 543a
000002d0: 681c ddba ab90 aa3b 004e 163c 27e5 123b
000002e0: 64ca b2bb 3183 96bb cada 193c 7433 083c
000002f0: a275 bb3b ef33 6dbb 0edf 06bc cfe9 1cbb
00000300: 01c9 0cbb e7a2 043c ba9d 803a 3038 83bb
00000310: 29fe c2bb 9b9a 0abc 009f 5c3c 990a 9b3b
00000320: 70c1 463c 4a6b bebb d653 04bc cb96 d93a
00000330: 5f57 38bc 28f7 c83a 6732 53bb 19a6 bcbb
00000340: df13 edba 39cb 2fbb e093 0e3b 1bae 033c
00000350: 62f1 a2bb 9f58 dbbb af22 2d3c 2906 0a3c
00000360: 93ef 1abc 342e 1d3b 9374 a53b 6a32 4bbc
00000370: 6a37 bb3b 2c9b 80bc a7b5 9abc 48b7 b43a
00000380: 77e8 083b 3c1c 9cbb 1f08 fcbb 9797 ba3a
00000390: fa3a d1ba 770a 39bb 0af2 ef3b 580a 333b
000003a0: 10a0 16bc 5bdd 5cbc 2758 573c 0d40 08bc
000003b0: 3c6f 043c 66bf 3fbc 18a0 e0b8 4b7a 68bc
000003c0: 72ab dbbb 360e ba39 c3ee 8fbb 2540 33bc
000003d0: 6604 85bc d755 ab3b 077c 6e3b 418d 243c
000003e0: e60a 1f3c ebbf 48bc a4d7 c33b 358a e0ba
000003f0: 6bad a13b d510 8dbc 9c28 0c3b 7825 663b

action_model._discrete_distribution.branches.1.bias f4 [3]
0.0 0.0 0.0
00000000: 0000 0000 0000 0000 0000 0000
