results/4/Test 1/Drive/checkpoint.pt (torch, 611822 bytes, 48 tensors)

discrete_act_size_vector f4 [1, 2]
000000 00 00 00 40 00 00 40 40
       2.0 3.0

network_body._body_endoder.seq_layers.0.weight f4 [128, 31]
000000 d9 3f 13 3e d9 67 6b be a5 62 b5 3e 8f 0d 04 3e
       0.14379825 -0.22988833 0.35426822 0.12895797
000010 78 8b 9c 3e cb 22 a1 be 95 42 18 3f f6 3b 85 bd
       0.30575156 -0.31471857 0.59476596 -0.06505577
000020 7a ca 38 3d 57 78 a3 be 80 03 b9 bd 71 b0 19 bd
       0.04511497 -0.3192775 -0.09033871 -0.037521783
000030 9a bb 5d 3e 20 e3 be b9 a4 e8 89 3c ee 7a e1 bd
       0.21653596 -0.00036408845 0.016834565 -0.11009775
000040 ce be 63 3e 25 fa 8d 3d cd f9 48 3e 0d 8d 8f be
       0.22240755 0.06932477 0.19626541 -0.280373
000050 1f 6f 9f 3c d3 f4 04 bd ad 3b e2 3d f1 ea 52 bb
       0.019462166 -0.032460045 0.110465385 -0.0032183493
000060 66 af 68 3e 18 a8 d5 3e de 33 88 3e 0a ec 0c 3f
       0.22723159 0.41729808 0.26602072 0.5504767
000070 61 5f c3 3e 6c c0 32 3f c5 9e be bc 4e b6 c2 bd
       0.38158706 0.6982486 -0.023269067 -0.09507428
000080 f3 02 47 3c 88 89 1a bf dd d3 3c 3e 0c c5 6b 3e
       0.012146699 -0.60366106 0.18440194 0.23024386
000090 78 e8 87 3e dc ec b4 be f1 b8 66 3d 17 95 ee bc
       0.26544547 -0.3533696 0.056328718 -0.029123826
0000a0 8b af 0f 3f 32 a3 5b 3d 61 ae 23 bd 08 61 65 3d
       0.5612723 0.053622432 -0.039961223 0.05600074
0000b0 0e 2a d0 3c b3 ae 04 bd 64 3e e8 3e c4 d8 2a 3e
       0.025410678 -0.03239317 0.453601 0.16684252
0000c0 a3 c8 8d bc df e7 ab 3e e0 5b 8f 3c ee 39 cd 3e
       -0.017307585 0.3357534 0.017499864 0.4008326
0000d0 06 8e 85 be f0 fb 4e be af f5 aa 3e 9c 6c 23 bc
       -0.26084918 -0.20213294 0.33390567 -0.009974625
0000e0 01 00 26 3e f2 2e 1d 3e 0d 4a 12 bf f4 ae 93 3e
       0.16210939 0.1534994 -0.5714424 0.28844416
0000f0 47 4f 80 be 61 5f 8b bd a1 91 4b 3d f5 7f a1 bc
       -0.25060484 -0.068053015 0.04969943 -0.019714335
000100 3e ce 4e bc 9f ef 61 3e 61 9b 3a bd 95 94 bc 3c
       -0.012622414 0.22064064 -0.045558337 0.023020068
000110 de 29 d1 be eb 1b 13 3f d8 b7 80 ba 96 05 35 be
       -0.40852255 0.57464474 -0.0009820415 -0.17677912
000120 41 7c cc 3d 7b 59 56 3d 0e 4a 8d bc a9 71 ce 3e
       0.09984637 0.05233143 -0.017247226 0.4032109
000130 6f c2 2b 3d 86 28 4f 3e 86 ae 94 3e 30 a2 ab 3d
       0.041933473 0.20230302 0.290394 0.08380544
000140 e2 d0 6f 3b 63 2f a9 3e 32 bb c7 3e a2 e6 e3 3e
       0.003659301 0.33043966 0.39010006 0.44511896
000150 3f b5 9b 3d 93 29 91 3e 2e 80 04 be 7b 99 32 bd
       0.07602929 0.2835203 -0.12939522 -0.0436034
000160 96 94 5a 3e c5 56 48 3d 01 47 6a 3e 41 c6 4f be
       0.21345744 0.048910875 0.22878648 -0.20290472
000170 33 7e 03 3e 08 c6 9c 3e 2f 50 15 3d bb d3 cb be
       0.1284111 0.30619836 0.036453422 -0.39809975
000180 f4 0c 87 3e 25 3d d8 bd 9c 39 d9 3d e9 30 07 bf
       0.2637707 -0.105585374 0.10606691 -0.52809006
000190 05 31 f0 3d d0 5e 36 ba d7 be 81 3d fa c4 7c bc
       0.117281 -0.0006956877 0.06335228 -0.015427822
0001a0 c3 dd 85 bd 1e 04 c4 bc 76 56 f9 3e 07 9b d3 3d
       -0.06536438 -0.023927744 0.48698777 0.103323035
0001b0 d9 e1 0b 3e 75 f4 1d 3e ca b9 20 3d 9d f2 68 be
       0.13660373 0.15425284 0.039239682 -0.227488
0001c0 82 ef 58 3e e7 00 48 3e 4f 84 a8 3d 7d bf 2e bd
       0.21185115 0.19531594 0.08228361 -0.042663086
0001d0 a0 4b a6 3e 40 50 89 3e b8 00 c1 3d 70 68 38 be
       0.32479572 0.26819038 0.09423965 -0.1800859
0001e0 34 04 3f 3e a3 68 1e 3c dc 0d 85 be f5 92 23 3c
       0.18653947 0.009668502 -0.25987136 0.009983768
0001f0 da 3a 49 bd c4 27 87 3c 8e da 0d 3e 8c 0f 11 3d
       -0.04912839 0.016498454 0.13852903 0.035415217
000200 2f f4 46 3e 9f 4d c6 be 45 6e 66 be 11 47 b5 bd
       0.19429086 -0.38731095 -0.22503002 -0.088514455
000210 42 b8 68 bd 50 fc 1b 3f 19 cc 9b 3e 01 64 b1 be
       -0.056816347 0.60931873 0.30429152 -0.3464661
000220 88 40 a1 3e 1b ef 89 3c 17 a0 70 3c 2b 13 80 3e
       0.31494546 0.016837647 0.014686606 0.25014624
000230 d0 69 ba 3e 04 ed c1 be aa f2 cf 3d a1 4c 19 bb
       0.36408854 -0.3787614 0.10153706 -0.0023391622
000240 b7 a5 f5 3e f9 bd 76 be 25 87 bb 3d ee 3e 83 bd
       0.47977993 -0.24095906 0.09156636 -0.06408487
000250 17 e7 3b bd 43 2f d2 3d 58 7b 90 3d 76 de 31 3e
       -0.04587468 0.10262921 0.07054776 0.17370018
000260 f7 67 ec 3d bd 46 b3 3e 68 a7 c3 bd 55 ec ae bd
       0.11543267 0.35014907 -0.095534146 -0.085411705
000270 31 25 99 3c 30 ef a4 be 3a d0 3a be 71 ab 0c 3e
       0.018694492 -0.32213736 -0.18243495 0.13737275
000280 2f 77 15 bd d9 15 2f bf 0a 48 1a 3f 9a af 69 3d
       -0.036490615 -0.6839271 0.6026617 0.057052232
000290 40 b5 c8 bc ce ac 98 3e 95 89 97 3d db bf 98 be
       -0.02450049 0.2981934 0.073992886 -0.29833874
0002a0 50 fe a1 3e c3 a3 0b 3e 85 6b ac 3e 74 42 47 3c
       0.31639338 0.13636689 0.3367578 0.01216184
0002b0 71 f1 26 bc e5 3a d8 bd df 76 cb be 99 60 2c bd
       -0.0101894 -0.10558108 -0.3973913 -0.04208431
0002c0 05 30 9f 3e de 91 39 3e df 27 b5 3e e2 14 93 be
       0.31091323 0.1812205 0.35381982 -0.2872687
0002d0 b3 d2 b6 3d d2 b1 02 be 14 56 72 bd 09 a9 c2 bd
       0.089269064 -0.12763146 -0.05916412 -0.09504897
0002e0 da 84 48 bd 11 c1 fd bc 3a 18 a6 be ce 97 3e 3e
       -0.048954822 -0.03097585 -0.32440358 0.18612596
0002f0 65 52 bc be 22 47 1f 3e ed 41 b0 3d 0b 3c 82 be
       -0.36781612 0.15554479 0.08606324 -0.25436434
000300 e6 42 8b 3e 76 da 38 be c5 05 7a be 04 48 a3 bd
       0.27199477 -0.18052086 -0.24416263 -0.0797272
000310 2a 98 77 3e 52 79 6f 3d 74 3e 97 be fd b6 b8 3e
       0.2417914 0.05846531 -0.29539835 0.3607711
000320 a5 63 7b be dd 53 e4 bd 99 24 d2 be b5 eb 90 3d
       -0.2454973 -0.11148808 -0.41043547 0.070762075
000330 a0 aa e5 3d 36 b0 67 3e 26 54 49 bd dc 45 12 bd
       0.11214185 0.22625813 -0.049152516 -0.035711154
000340 bc 4d c1 3d 2d 29 7d bc 31 71 a2 3e d1 4b 22 3d
       0.09438655 -0.015451712 0.31726983 0.039623085
000350 08 f4 1a be 30 3c a3 bd 0b a8 ce 3b 02 4e dc 3e
       -0.15132153 -0.07970464 0.0063066534 0.43028265
000360 4b b7 60 3d a9 22 15 be 14 c8 a0 be a0 e7 db bd
       0.0548623 -0.14564003 -0.31402647 -0.10737538
000370 d7 bf a9 3d 56 2d d4 3d b0 59 a6 bd 40 68 43 3e
       0.08288544 0.1036021 -0.08122575 0.19082737
000380 05 06 b3 bc 4c f7 24 3f a1 1c 57 be b3 89 d9 3d
       -0.021853456 0.64439845 -0.21007015 0.10621967
000390 33 06 89 3e 10 36 81 3e cf 3a 33 3e b4 be 79 be
       0.26762542 0.2523656 0.17502902 -0.24389154
0003a0 27 04 36 3e 17 b7 13 3e eb f6 b8 be 88 e0 73 3d
       0.17775021 0.14425312 -0.36125883 0.0595403
0003b0 ad 71 b9 3e 68 e9 42 be f3 90 35 3e 98 82 98 bd
       0.3621954 -0.1903435 0.17731075 -0.07446784
0003c0 52 6b ad bd 2d b1 b9 3d f1 f7 1a 3e bb 99 4b be
       -0.08467735 0.09066997 0.15133645 -0.19882862
0003d0 c5 11 75 3e 69 25 1a 3d a8 0b 68 be cd d5 81 bf
       0.2393256 0.037633333 -0.22660697 -1.0143372
0003e0 b0 fd ba 3e 68 11 9e 3c 84 69 3d 3e ee c7 c1 ba
       0.36521673 0.01929541 0.18497282 -0.0014784315
0003f0 c0 9f 16 be 07 15 1d be ba 09 f8 3e 25 a7 56 be
       -0.14709377 -0.15340053 0.4844492 -0.20962198

network_body._body_endoder.seq_layers.0.bias f4 [128]
000000 91 bb fa 3d 31 5e b9 3d 00 69 c5 3d 62 fb eb 3d
       0.12242807 0.09051169 0.09639168 0.11522557
000010 66 c6 9e 3d fc dc 80 3d 1e e2 2e bd 71 bf 23 3d
       0.07752685 0.062921494 -0.04269611 0.039977495
000020 20 aa 9b bd c4 64 e3 bc e7 fa b1 3d ae 82 13 bd
       -0.07600808 -0.02775801 0.08690434 -0.036013298
000030 20 4c 5e bd c0 2e fb 3d 8c b3 6e 3d 1f 85 a3 3d
       -0.054271817 0.12264776 0.058276698 0.07984375
000040 72 34 5a b9 62 24 83 bd 81 a6 b7 3d 67 ea 99 3d
       -0.00020809637 -0.06403424 0.08967305 0.07515412
000050 23 e6 cc 3d 1a d0 ee bc 2c be 8c bd 0a 41 49 3e
       0.100048326 -0.029151965 -0.0687221 0.19653717
000060 3e 72 52 3c 2e 2c aa bd 9f 82 a6 3d 39 20 08 3e
       0.01284462 -0.08309208 0.08130383 0.13293542
000070 37 3f a9 3d 8c 7f c3 bd ce 02 c0 bc 86 35 e7 3d
       0.082640104 -0.09545812 -0.023438837 0.11289506
000080 bc dc 18 bd 0d 66 d8 3c 86 7f f8 bd d4 d7 38 3d
       -0.037319884 0.02641585 -0.12133698 0.045127705
000090 2f 2c 52 3d f1 f6 8b 3d 5d 8a a5 3d e3 20 e8 3d
       0.051311668 0.0683421 0.08083031 0.11334398
0000a0 32 ad b0 3d f8 35 7c 3d 77 eb 06 3e 60 01 87 3d
       0.086267844 0.061574906 0.1317576 0.06592059
0000b0 23 4c 53 3d 65 03 18 3c 1e f7 d1 bc 0d e2 f4 bd
       0.05158628 0.009278153 -0.02563053 -0.11957178
0000c0 63 69 88 3d f4 1a 47 bd e7 e0 04 bd 29 a8 42 3d
       0.06660726 -0.04860969 -0.032441046 0.04752365
0000d0 19 43 a7 3d 05 03 17 3e 9b 28 b9 bd c5 66 11 3d
       0.08167095 0.14747246 -0.09040948 0.0354984
0000e0 06 71 81 3d 4e f8 ab 3d fb e7 31 3d db 7d e5 3d
       0.06320386 0.0839697 0.043434124 0.11205646
0000f0 ae fe 5f bd d9 c4 4a bd 72 10 b0 bd 6c 77 29 3d
       -0.05468624 -0.049504135 -0.08596887 0.041373655
000100 5e d5 dd 3c e5 ab c5 bd f9 96 27 3e 4a d7 95 bd
       0.02707928 -0.09651927 0.16366185 -0.07316454
000110 f0 f3 8b 3d 3a db a4 3d de a4 1f 3e c0 d8 f6 3d
       0.06833637 0.08049627 0.15590236 0.120530605
000120 9e 8b e2 3d e4 31 6c 3d 35 1f 33 3d a5 c2 14 3d
       0.11061786 0.057664767 0.043730933 0.03631844
000130 1b f0 66 3d 7f b3 6f 3b 7d f6 9e 3c 4e e6 f8 3c
       0.056381326 0.0036575494 0.019404644 0.030383255
000140 a6 94 cf 3d bc ba 53 3d a4 64 2e bd 9a 9e 86 3d
       0.10135774 0.051691756 -0.042576447 0.065732196
000150 34 47 0e bd 6f 2e 90 3d 80 7d 7b 3d d7 df 70 3c
       -0.034735873 0.070401065 0.061398983 0.014701805
000160 a3 30 27 bc a6 48 46 3e 0c 18 6a bc 8a 49 e7 bd
       -0.010204467 0.1936365 -0.01428796 -0.11293323
000170 5d 82 1f bc 77 03 ef 3d 7d eb 6a 3d 04 72 b4 3c
       -0.009735671 0.11670583 0.057353485 0.022027023
000180 1f 3c 72 3d ed 04 db 3d ea 79 74 3d d6 4a 05 bc
       0.059139367 0.10694299 0.05968658 -0.008135518
000190 63 be 65 3d ea 10 bb bd f6 e0 08 3e 25 84 5d bd
       0.05608977 -0.091340855 0.13367066 -0.0540811
0001a0 3d 4f bb bc 0e fd f4 bd 88 f7 82 3d 70 38 d9 3d
       -0.022864932 -0.11962329 0.06394869 0.10606468
0001b0 35 87 d1 3c 41 97 6d 3d 7b 12 5a bd c1 cf 75 3d
       0.025577167 0.058005575 -0.05324028 0.060012583
0001c0 e0 26 57 bd 6d 25 be bd 69 80 12 3c ce e7 ad 3d
       -0.05252731 -0.09284482 0.008941748 0.08491479
0001d0 54 ba 0d 3e b2 d1 9e 3c e8 38 ab 3d 75 74 99 bd
       0.1384061 0.0193871 0.083604634 -0.074929155
0001e0 16 81 bb 3c c9 ab dc 3d 65 54 98 bd 0a 54 98 3d
       0.022888701 0.10774953 -0.07437972 0.07437904
0001f0 82 c5 f6 3d f6 97 8d 3d 17 0c ed 3d 83 b6 26 3c
       0.120493904 0.0691375 0.115745716 0.01017535

network_body._body_endoder.seq_layers.2.weight f4 [128, 128]
000000 84 d0 97 3e 22 5c 1b 3e 36 f5 73 3c 03 56 9b bd
       0.29651272 0.15171865 0.014890006 -0.07584765
000010 66 0d 87 bd 10 80 b4 3e 7e 2e 3b bd 53 3d 0b 3d
       -0.065943524 0.35253954 -0.045698635 0.03399403
000020 5b 12 d6 3c 19 5f 8a bd 16 dc 62 3e e6 e7 0a be
       0.0261318 -0.0675642 0.22154269 -0.13565025
000030 3b 63 80 3c 3c 23 58 be 3f 15 07 be dc 6f fd bd
       0.015672317 -0.21107191 -0.13191698 -0.12374851
000040 b7 25 49 3e 90 8b 4a 3d 2f 72 11 3d 8b ff 73 3b
       0.19643293 0.049449503 0.035509285 0.0037231173
000050 31 36 19 be 14 c9 d6 3d f8 28 b2 3d d5 e6 78 bd
       -0.14962079 0.10487571 0.086992204 -0.060767014
000060 c6 77 8d 3e 71 21 9d bd 10 70 bc 3d 1e 3d 8f 3d
       0.27630442 -0.07672394 0.09201062 0.06994079
000070 b0 33 f0 3d 84 8e 32 bc 2a 3d 57 3d 3e 69 8e 3e
       0.117286086 -0.010898236 0.052548565 0.27814668
000080 70 26 a3 3c 82 62 34 3e 41 4f 61 be 93 ac a5 bc
       0.01991579 0.17615703 -0.22002889 -0.020223891
000090 1f 42 bb bd 4e 1b b6 bd 3c c4 68 be 84 67 06 3e
       -0.09143471 -0.08891927 -0.22731107 0.13125426
0000a0 fd 5a f7 bc 82 ef 23 bd e5 fb 26 3e 66 89 57 bd
       -0.030194754 -0.040023334 0.16307028 -0.052621268
0000b0 19 2b de bd 8d 88 49 3c 5f 98 5f be 1d c6 4e be
       -0.10848064 0.012300623 -0.21835469 -0.20192762
0000c0 66 c8 6d bc de f9 24 3d 5f da 06 3e f7 4a 78 3c
       -0.014513111 0.040277354 0.1316924 0.015154592
0000d0 58 0f 40 3d 03 fd 60 3e b2 89 2e bd f2 0e a7 3d
       0.046889633 0.21971516 -0.042611785 0.081571475
0000e0 51 08 86 3d 2e b8 62 3e 0d e2 53 3c cb c7 ba 3c
       0.06544555 0.22140571 0.012932313 0.022800347
0000f0 05 db e2 3d cb b0 87 3d 05 5b 87 3d db 4c ca 3d
       0.11076931 0.066255175 0.066091575 0.0987794
000100 a5 82 06 be f7 60 cc 3c 58 d7 e0 bd 93 2f 38 bc
       -0.13135774 0.02494858 -0.109785736 -0.011241811
000110 0c e4 8d 3a 61 0e 52 3e 9c 95 73 ba 71 3e 62 be
       0.001082541 0.20513298 -0.0009292008 -0.22094132
000120 6d 53 53 3c 2a df 84 3d 14 73 1c 3e a9 82 0e 3e
       0.012898308 0.06487878 0.15278274 0.1391703
000130 84 16 09 bd 06 59 10 3d 0c f1 63 3e 4c ff fd bd
       -0.03346874 0.03524115 0.22259921 -0.1240221
000140 ab 8a e5 3d 6b a7 de 3c 27 2f c7 3d ca 22 48 bd
       0.112080894 0.02717944 0.097257905 -0.048861302
000150 d6 26 aa 3b 4c 47 6e 3d 5e a7 aa 3c c3 16 8b bd
       0.005192618 0.058173463 0.02083176 -0.06791451
000160 ef fe 0f 3e 88 e2 8b 3c bb 7c 34 3b 2a 5e 8c 3d
       0.14062093 0.017075792 0.0027540165 0.06853898
000170 db 51 0e bc 95 9c c4 bd dd 91 22 3d 7e 31 6a 3c
       -0.008686508 -0.09600178 0.039689887 0.014294026
000180 ec 4a 05 3e ba d0 a5 bd 1b 13 43 3e 02 5f f1 bd
       0.13016862 -0.08096452 0.19050257 -0.117856994
000190 08 c2 a4 3d 83 99 2e 3d 67 c0 85 3d ae f7 6a 3d
       0.08044821 0.04262687 0.065308385 0.057365112
0001a0 19 62 92 3c 08 a0 92 3c b7 c8 8d be 49 8a 9e 3d
       0.017869042 0.017898574 -0.27692196 0.077412196
0001b0 4f 13 95 3e 0e 8b 5c 3e 46 4a 1b 3e 79 9f e7 3b
       0.29116294 0.2153742 0.15165052 0.007068571
0001c0 1c da 73 3c ca c6 1b 3e 4f 38 9e 3d bb 91 fe 3d
       0.014883544 0.15212551 0.07725584 0.1243014
0001d0 19 80 b6 bd c7 94 c5 3d 09 24 98 3b 53 29 cf 3b
       -0.089111514 0.09647518 0.0046429676 0.006322065
0001e0 2c c5 a9 3d b5 ad 46 3e 23 f8 7f bd ae 36 59 bd
       0.08289561 0.19402201 -0.0624925 -0.053030662
0001f0 eb 93 ac bd c4 f3 36 3e d0 d2 18 be ea fe df 3b
       -0.084266506 0.17866427 -0.14924169 0.006835808
000200 50 dc 60 bd 8b 15 01 bd 20 86 0e 3e 02 bd a3 bc
       -0.054897606 -0.031514686 0.13918352 -0.019987587
000210 b1 c9 08 3e dd c4 6e 3d 01 2e 6e bd 45 f8 93 3d
       0.13358189 0.058293212 -0.05814934 0.07225088
000220 db 3a de bc 58 3b 57 bd 3b 85 86 bd bb f5 fa 3d
       -0.027127674 -0.05254683 -0.065683804 0.122539006
000230 4e 40 ba 3b 98 13 db b5 f6 55 af bd e0 b1 74 3e
       0.0056839352 -1.6322474e-06 -0.085613176 0.23895979
000240 33 3c 91 bc 6a b9 34 bd c8 5a f6 bd ac 5f 8d bd
       -0.0177289 -0.044122137 -0.12029034 -0.069030136
000250 46 a5 bd bd 44 70 7c bd 78 0f 3e be 15 e5 f9 3d
       -0.09260039 -0.061630502 -0.18560588 0.12201897
000260 c5 78 c3 bd b0 8c 3f bc f3 36 68 be 62 d6 3c 3d
       -0.09544519 -0.011691257 -0.22677211 0.04610289
000270 fa 40 24 bd 61 21 24 3d be b7 44 3d 76 6c a9 3a
       -0.04010103 0.040070895 0.048026793 0.0012926001
000280 2a fc e7 bc e6 68 38 3c 88 f1 1d bd 9e 92 6d 3c
       -0.028318483 0.0112554785 -0.03856042 0.014500288
000290 ae 3a e8 bd 87 1e 30 3e 43 cb fc 3d 3e 6e 69 be
       -0.11339317 0.17199145 0.123434566 -0.2279596
0002a0 d9 3d 9a bc 74 98 40 be bf 72 7c be ba d5 e1 3c
       -0.01882832 -0.18808156 -0.24653147 0.027567733
0002b0 92 72 c9 3a 3d 46 82 be 83 9f fd bb fb 48 23 be
       0.0015369228 -0.25444213 -0.0077399625 -0.15945809
0002c0 b8 a1 92 bd b7 2f 2d bb 92 f3 12 be a4 3b b1 bd
       -0.07159752 -0.0026426145 -0.14350727 -0.08653954
0002d0 e1 6d 37 3e 5d 97 53 3d 41 25 17 be 4c 58 78 3d
       0.17913009 0.051658023 -0.14760305 0.06063108
0002e0 c9 78 42 3d f6 58 40 be 63 d8 41 3d 8a b0 ae bd
       0.04747847 -0.18783936 0.047325503 -0.08529766
0002f0 ef da 10 bd 74 6a f0 3d cb ce dd bd d8 f1 c4 bd
       -0.03536504 0.11739054 -0.10830458 -0.096164405
000300 b8 5b 03 be ba 4b 95 3d 1d d6 92 bd 37 38 8c 3d
       -0.12827957 0.07289834 -0.07169745 0.0684666
000310 e4 09 1a be 17 05 de bc a1 2e 08 3e 5b 96 59 3e
       -0.15042835 -0.027102036 0.13299038 0.21248762
000320 7d 55 a8 bc 90 06 0d 3e a7 4a 1e be db 47 34 be
       -0.020548576 0.13772035 -0.15458165 -0.17605536
000330 f2 2f 31 bd 7a ab 90 be 66 d0 24 3d e2 65 13 3d
       -0.043258615 -0.28255826 0.040237807 0.035985835
000340 98 e9 9a bd 3d 13 da bc 16 3a cf 3d 74 46 10 3d
       -0.07564086 -0.026620502 0.10118501 0.03522344
000350 33 a4 73 bc af 6d a4 bc c5 00 55 bd 76 0b 97 3d
       -0.014870691 -0.020071832 -0.052002687 0.07375233
000360 f1 c0 a0 3c 3d 73 fd bd 80 ea a5 3c c6 35 1a 3c
       0.019623252 -0.123754956 0.02025342 0.009412235
000370 db 52 19 bc 28 fd 63 bd 9a 4e 05 bc 83 cc 98 3c
       -0.009358133 -0.05566135 -0.008136416 0.018652206
000380 c7 8c 57 3c df 29 b0 3d 4c 9c 95 bd 84 2b aa 3d
       0.0131561225 0.08601736 -0.07305202 0.08309081
000390 07 c4 71 3b 3d d2 ac 3d 25 4a d0 bc 66 c8 81 bd
       0.0036890523 0.08438537 -0.02542598 -0.06337051
0003a0 b9 74 05 3e ba e0 f0 bd 9b a6 50 3d a7 99 0d be
       0.13032807 -0.11761613 0.050940137 -0.13828145
0003b0 d8 bd cb bc 1a 3e 13 be c1 1c 75 3c c5 51 34 3e
       -0.024870798 -0.14379159 0.014960469 0.17609318
0003c0 f3 98 1d 3e d3 c9 02 3b c6 06 fe bd cc 36 1f be
       0.15390377 0.0019956722 -0.12403636 -0.15548247
0003d0 40 c8 3e 3d 4d af 0e bd 3f 61 d1 bd ef 06 e1 3d
       0.046577692 -0.03483515 -0.10223626 0.109876506
0003e0 9c 4e 71 3c a0 65 b6 bc 52 f2 8c 3d df 9d a7 bd
       0.014728215 -0.022265255 0.068821564 -0.081844084
0003f0 8d 4e 4a bd 2a 81 04 3e ae 02 32 3e a2 fe 1c bd
       -0.049391318 0.12939897 0.17383835 -0.038328774

network_body._body_endoder.seq_layers.2.bias f4 [128]
000000 6e 2c 37 bd 24 37 d8 3b 04 9c 26 3d da 5d 61 bd
       -0.044720106 0.00659837 0.04067613 -0.055021144
000010 45 2e 8b 3d 64 3a 7e 3d 72 a3 af 3c 38 b1 cf bc
       0.067959346 0.062067404 0.021440241 -0.02535306
000020 11 ef 2d 3d 55 dd a9 3d c8 b8 ce 3d 67 93 ae 3c
       0.04246432 0.08294169 0.10093838 0.021310521
000030 81 de d2 bc 8d 90 0b 3d 61 f3 36 3d 11 4c c6 3d
       -0.025740864 0.0340734 0.044665698 0.09682477
000040 2b 7a ff 3c 0d 03 c7 3d 59 9e 71 3d f3 19 ed 3c
       0.031186184 0.09717379 0.058988903 0.028943038
000050 f4 41 08 bd 25 b6 58 3d e0 6a 4d 3d c8 2b 3d 3c
       -0.033266023 0.05290808 0.050150752 0.011546083
000060 9c f2 a8 bd 7f 53 85 3d 27 aa 6d 3d e4 33 8c 3d
       -0.08249399 0.06510066 0.058023598 0.06845835
000070 d1 50 71 bd e8 0b fa 3d f7 28 0e 3e 9b ad 60 3d
       -0.058914963 0.12209302 0.13882814 0.054853063
000080 e1 0f c1 3d 02 e3 93 3c fe f1 d4 bc 57 6d 5e 3d
       0.09426857 0.018052582 -0.025994297 0.054303493
000090 a8 91 ae 3d 03 52 5a 3d 2f 33 96 bd fb 8a 23 bc
       0.085238755 0.05330087 -0.07333981 -0.009981866
0000a0 02 e2 66 3d 6e 1f 68 3b 7a ca 59 bd 5c 01 bf bb
       0.05636788 0.0035419124 -0.053171612 -0.0058290195
0000b0 b9 d9 20 3c c4 d8 a5 3d 84 05 ae 3d 48 74 c5 3d
       0.009817534 0.080979854 0.08497146 0.096413195
0000c0 d0 cc 4a bd e7 8c a9 3b 5d ae 2a 3d ee 8c ba 3d
       -0.04951173 0.0051742676 0.041670192 0.091089115
0000d0 f4 07 97 3d 7a 9c 39 3d 67 68 9b bd 8a 03 7f 3c
       0.07374564 0.045315243 -0.075882725 0.015564809
0000e0 e3 ac d3 3d 2b bc 99 3d ef 8c 21 3d a2 94 3f 3d
       0.1033571 0.07506593 0.039441045 0.046772607
0000f0 f8 c8 98 3d ce 8e 94 3d c1 22 a6 3d f2 59 64 3d
       0.07460207 0.072538 0.081120975 0.05574984
000100 58 67 5d bd 23 19 d9 3d 2e bd df 3c 8a d6 a3 3d
       -0.054053634 0.106004976 0.027311888 0.079999045
000110 3b 35 56 bc e3 74 fd 3c 59 28 af 3b 1d 35 9a 3d
       -0.013074215 0.030939525 0.005345386 0.07529662
000120 6e 9f 87 3d 29 78 93 3d 0f e3 35 bd e7 87 71 3d
       0.06622206 0.07200653 -0.044405993 0.058967497
000130 88 d7 5b 3e 24 c8 59 3d 99 6a 93 3d d8 e5 60 3d
       0.21468937 0.053169385 0.07198066 0.054906696
000140 60 6a 3c bd 97 61 f2 3d 69 b6 f9 3c 2e 57 b2 bc
       -0.045999885 0.1183502 0.030482488 -0.021770086
000150 a2 b6 e4 3d 56 37 f3 3b f8 c8 0a 3e a1 ef 53 bd
       0.11167647 0.007422368 0.13553226 -0.0517422
000160 b5 7c a2 ba 8a f7 fe 3d 6d 49 12 3d cc ed 97 3c
       -0.0012396785 0.12449558 0.035714556 0.018546008
000170 b2 8e 9d 3c 7b 5d b2 3d 99 bc ad bd fd 63 0b 3e
       0.019233081 0.08709236 -0.08483238 0.13612361
000180 47 65 ef 3d d1 cb a5 3d f8 b1 fa bc bd c6 a2 3d
       0.11689239 0.080955155 -0.03060244 0.079480626
000190 a2 6b 51 bd cf 37 d8 3d d9 ab 7c 3c 7c ea 8c 3d
       -0.051128037 0.1055752 0.015421831 0.06880662
0001a0 6d c0 f8 3d bf 67 91 3d 61 b9 f0 3c 43 3e 0f 3d
       0.12146077 0.07099866 0.02938527 0.034971487
0001b0 4e ad 6c bd 02 a7 d9 3d 4b c7 04 3e c6 14 72 3d
       -0.057782464 0.10627557 0.12966649 0.059101842
0001c0 f0 6a 98 3d 98 d2 25 3d 3c 9f ba 3d 90 da 9c bd
       0.07442272 0.04048404 0.09112403 -0.07658875
0001d0 63 5c 95 bd d9 10 38 bd 7d db f1 3c 83 dd b8 3c
       -0.07293012 -0.044937942 0.029523605 0.022566563
0001e0 58 8c 2e 3d 72 b1 1f bb ee 61 44 3d d8 42 93 3d
       0.04261431 -0.002436724 0.047944956 0.07190484
0001f0 4e 40 f1 bc 7f 49 cc 3d 64 1d 53 bd 82 72 2e bd
       -0.029449608 0.09974956 -0.0515417 -0.042589672

action_model._discrete_distribution.branches.0.weight f4 [2, 128]
000000 75 e7 93 bd 57 63 08 bd dd 74 dd 3b fc 12 d5 bc
       -0.07221881 -0.033297863 0.006758316 -0.026010029
000010 04 53 db 3c 92 a4 de bd 58 b2 2c 3c c4 63 2b bc
       0.026772983 -0.10871233 0.010540567 -0.010460798
000020 71 35 da bd e5 a8 04 be d8 90 f4 3d e8 27 8f 3b
       -0.106547244 -0.12955053 0.11941689 0.004368771
000030 d7 3b bf 3a a1 89 a2 3d b5 eb 26 be 76 87 e2 3b
       0.0014589977 0.07936407 -0.16300853 0.006913121
000040 a9 e5 ce 37 dc 90 73 be 92 c7 08 be e4 68 a3 bd
       2.4664057e-05 -0.23785728 -0.1335738 -0.07978991
000050 eb 4a 38 ba 75 ff 4b be 53 e3 25 3c 62 3f 0a 3d
       -0.00070302066 -0.19921668 0.010124999 0.033751853
000060 e2 96 1c bc b5 a3 c3 bb bd 35 14 be 9a 9e c6 bd
       -0.009557458 -0.005970443 -0.14473625 -0.096982196
000070 f2 a3 3d bc 68 38 a6 bd 4c f6 81 3e ba ca b2 bc
       -0.011574732 -0.081162274 0.25383222 -0.021825183
000080 3f 4f 0f 3d de 93 be bc f7 85 87 bc c2 dd b8 ba
       0.034987684 -0.023263868 -0.016543372 -0.0014104175
000090 91 99 cf bd 57 45 26 be d9 e7 45 bd 02 c3 35 3a
       -0.10136712 -0.16237389 -0.04831681 0.00069336605
0000a0 c6 32 c1 3d c0 97 c3 bd e5 4a 31 bd 9f 7b ef bd
       0.094335124 -0.095504284 -0.043284316 -0.11693501
0000b0 8e b8 b3 bd 5a 07 a1 3d 7b 10 b9 bc 1d d2 1b 3e
       -0.087754354 0.0786273 -0.022590866 0.1521687
0000c0 29 43 33 bc 25 14 39 3c 3c 28 83 3a 08 ce 59 be
       -0.010941305 0.011296307 0.0010006498 -0.21270001
0000d0 49 5f 76 bd 2e 8e 9f bd b7 c0 36 bc cd 67 27 3e
       -0.060149465 -0.077907905 -0.011154345 0.1634819
0000e0 dd 4f 31 3a 33 f2 a3 3d 26 bb 05 3d 6e d5 92 3b
       0.0006763915 0.0800518 0.03264918 0.004481009
0000f0 d0 77 f3 3c 55 fb af bd 23 c3 6e be 8c 4a a4 bd
       0.029720217 -0.0859286 -0.23316626 -0.08022031
000100 4a 8a 13 bc 8b 7d c8 bd 2f 9f 8b bd 93 cb ab 3d
       -0.009005139 -0.097895704 -0.06817471 0.08388438
000110 cd e8 70 bc 81 68 d9 3b 3b cb 2e 3c 2d 06 10 be
       -0.0147039415 0.0066347723 0.010668571 -0.14064856
000120 5c 2e 9c 3d e4 c1 c1 bd a2 a0 97 bc a4 a1 aa bb
       0.0762603 -0.0946081 -0.018509213 -0.0052072573
000130 c9 af 77 bd 9b 62 86 3c 93 9e ce bd 94 3b 91 bd
       -0.060470376 0.01640444 -0.100888394 -0.07091442
000140 6a f5 6a bc ab 71 78 be a3 7c 1d 3d 8c 71 72 bb
       -0.014340738 -0.24262111 0.03844894 -0.0036993949
000150 7c eb 31 be 6d 1f 8b b9 f4 a3 96 be 99 a5 1b bd
       -0.17374986 -0.0002653556 -0.2942196 -0.037999723
000160 a8 c5 cf 3d 28 26 b3 3d 40 af b2 3d f2 c0 47 3c
       0.10145122 0.08747512 0.087248325 0.012191998
000170 3d 7d d6 bd c3 8d 88 be 94 39 9c bc 38 84 34 be
       -0.10473106 -0.26670656 -0.019070424 -0.17628562
000180 e5 24 13 3d bd 03 bd bd c7 e1 1e bd 9e 00 60 bd
       0.035923857 -0.09229229 -0.038789537 -0.05468809
000190 e4 cd 18 bd f3 08 03 3d 59 39 d4 3d 9d e3 af bc
       -0.037305728 0.031990957 0.10362501 -0.02147084
0001a0 88 e7 59 3d f9 00 d9 bd 1f 2b 19 bd f4 84 d9 3c
       0.05319932 -0.10595889 -0.03739464 0.026552655
0001b0 1d c0 46 bc 27 e4 73 be 18 53 47 3e 31 8b 19 3e
       -0.012130764 -0.23817502 0.19465292 0.14994504
0001c0 83 66 86 be a3 14 87 3d e1 8d 33 3e df 91 15 bd
       -0.26250085 0.06595733 0.17534591 -0.036516067
0001d0 f8 d1 36 bd 0e 5f 50 bc c9 7b 41 3c c5 2f 15 3d
       -0.044633836 -0.012717975 0.011809298 0.03642251
0001e0 88 37 07 be 13 6f d5 bd 8c f0 19 3d b1 61 09 be
       -0.13204777 -0.10421576 0.03758292 -0.13416173
0001f0 5d a0 65 bc 42 72 91 3d e7 07 32 bb 44 55 9e bc
       -0.014015284 0.07101871 -0.0027165355 -0.019327767
000200 80 4d 6d 3d ea e0 c8 3c 35 56 08 bb 38 9e c1 3c
       0.057935238 0.02452131 -0.0020803337 0.023635015
000210 72 a4 07 bd b9 d5 c3 3d 1e cd db bb 56 b4 3d 3b
       -0.03311581 0.09562249 -0.0067078015 0.00289466
000220 3b 55 d0 3d 62 3c 08 3e d6 72 e1 bd 82 54 a4 bc
       0.101725064 0.13304284 -0.11008231 -0.020059828
000230 ca d9 51 bb 55 18 96 bd 33 1b 1c 3e d9 05 d3 3a
       -0.0032020682 -0.0732886 0.1524475 0.0016099765
000240 28 bb 5f 3c 14 ad 6b 3e 48 66 0f 3e d3 88 a0 3d
       0.013655461 0.23015243 0.14003861 0.07838597
000250 ba 9d 11 3d 83 c3 52 3e 46 f2 e9 bc b6 9e d1 bc
       0.03555081 0.20582394 -0.028557908 -0.025588375
000260 ad 2f f5 3a c1 6b 20 bc 13 7a 29 3e 2e ac ad 3d
       0.0018706225 -0.0097913155 0.16550474 0.08480106
000270 20 53 07 3d ce 8a c9 3d ce dc 87 be 8f df 00 3d
       0.03303826 0.09840928 -0.26535648 0.031463202
000280 b7 76 31 bd 1e f6 81 bc 2b 96 a7 3b fd 60 e3 bb
       -0.043326106 -0.015864428 0.005114337 -0.006939052
000290 c2 79 01 3e 21 52 35 3e 98 cf 56 3d f0 d0 5f 3c
       0.12644103 0.17707111 0.05244407 0.013660654
0002a0 bf f5 a7 bd c7 5c c7 3d 72 ba 1f 3d ab 76 cc 3d
       -0.08201169 0.09734493 0.038996167 0.099835716
0002b0 47 19 c1 3d 5e 7f 9a bd d1 4b ba 3c a6 ba 17 be
       0.094286494 -0.075438246 0.02274123 -0.14817294
0002c0 63 a4 5c 3c 12 9b c0 bb f3 33 68 bb 00 f5 62 3e
       0.013466927 -0.005877861 -0.0035431355 0.22163773
0002d0 e7 ab 8b 3d fc a8 4c 3d 46 75 e0 3c 57 19 39 be
       0.06819897 0.049965844 0.02739967 -0.18076073
0002e0 9b c9 55 bc 8a 5a b5 bd d3 55 aa bc e9 76 cc 3b
       -0.013048555 -0.088551596 -0.020792877 0.006239761
0002f0 68 1f d7 bc 5c 71 c3 3d a4 c9 6a 3e 26 3c c4 3d
       -0.026260093 0.09543106 0.22928482 0.09581785
000300 b5 b3 ca 3b e3 4c cb 3d 0c cd 8d 3d 98 25 b5 bd
       0.0061859735 0.09926774 0.06923875 -0.08845061
000310 36 c8 c7 3c 8b 3a 85 bc d7 09 ad bb e7 00 11 3e
       0.02438746 -0.016263267 -0.005280714 0.141605
000320 50 57 7c bd 69 91 ca 3d 1a a3 b5 3c ea 93 5f 3a
       -0.061606705 0.09891016 0.0221725 0.0008528816
000330 ec af 4f 3d d8 77 c7 bb d8 87 cf 3d 07 55 a1 3d
       0.05070488 -0.0060872845 0.10133332 0.07877546
000340 01 58 33 3c e5 2e 90 3e 64 97 70 bd f0 44 3d bc
       0.010946275 0.28160778 -0.058738127 -0.0115520805
000350 ff 31 2c 3e 76 29 11 3b 60 d7 8f 3e 72 c4 fd 3c
       0.16815947 0.0022149957 0.28094006 0.030977461
000360 8f b4 c5 bd 9b b1 97 bd 75 86 94 bd dc ca c0 bc
       -0.096535794 -0.074069224 -0.07252208 -0.02353423
000370 94 db bc 3d 75 aa 8f 3e 3d 95 8b 3c b9 8a 3b 3e
       0.09221569 0.28059736 0.017038936 0.18314637
000380 02 da e4 bc 40 4d ae 3d 04 e6 57 3c 10 a3 61 3d
       -0.027935985 0.08510828 0.013177399 0.05508715
000390 6c 3c 0d 3d 51 06 a5 bc 46 96 da bd 2e af 38 3d
       0.03448145 -0.020144613 -0.10673194 0.04508894
0003a0 34 ee 3e bd 27 c0 ae 3d dd 21 44 3d bf b8 0c bd
       -0.046613887 0.08532744 0.047883857 -0.034355875
0003b0 bb df 5c 3c 85 fc 6e 3e 76 a5 48 be 27 e7 16 be
       0.013481076 0.23338516 -0.19594368 -0.14736615
0003c0 d7 be 81 3e 12 c0 71 bd 0f b7 27 be 12 f2 51 3d
       0.25340912 -0.059021063 -0.16378425 0.051256247
0003d0 36 14 78 3d e9 a6 52 3c 78 bb 57 bc 3c 3c 1d bd
       0.06056615 0.012857177 -0.013167255 -0.038387522
0003e0 e0 50 f4 3d 4a a5 ac 3d 96 34 0c bd 3a 47 15 3e
       0.11929488 0.08429964 -0.034229837 0.14577952
0003f0 f5 0b 1a 3c 0a 0f a8 bd 5e cc 40 3c ba 3c 28 3d
       0.009402265 -0.082059935 0.011767475 0.04107354

action_model._discrete_distribution.branches.0.bias f4 [2]
000000 da 96 05 3d d2 96 05 bd
       0.032614566 -0.032614537

action_model._discrete_distribution.branches.1.weight f4 [3, 128]
000000 a6 20 6a 3d 9c 8c 9f 3d 1f eb cc 3c e2 ee 70 3b
       0.057160042 0.07790491 0.025014458 0.003676348
000010 67 87 1c 3e 82 82 44 3e d6 61 60 bc 8c 2a d9 3c
       0.15286027 0.1919041 -0.013695201 0.026509546
000020 24 9b 9b bd 2e f5 31 be a2 c2 8f 3d 19 bb 52 3b
       -0.0759795 -0.17378685 0.07019545 0.0032154976
000030 ae 6b de bc 9c de cb 3d 75 48 fc 3d d9 f3 5b 3c
       -0.027150955 0.09954569 0.123185076 0.013424837
000040 3a d4 41 3c 8e 1d 43 bd 0c de 25 3e a7 38 02 3e
       0.011830384 -0.047635607 0.16197985 0.12716924
000050 d2 9a fb 3c 51 c9 70 3e 81 fc cd bc d4 47 21 bd
       0.030713473 0.23514296 -0.025144817 -0.03937514
000060 ab c7 6b 39 40 12 6e 3c e6 61 c6 3d d0 db 1f 3e
       0.00022485729 0.014530718 0.096866414 0.15611196
000070 5f 1d 9d 3c 3b 8e 61 be c6 31 46 bd 95 9d 00 3e
       0.019179044 -0.22026913 -0.04838731 0.12560113
000080 91 a0 6e bd a5 38 e6 ba 4b da 8d 3c 22 96 a9 3c
       -0.058258597 -0.0017564489 0.017316004 0.020701472
000090 b6 1c 46 3e 1d 0a 19 3e 0a a4 54 3d 66 bb e7 bd
       0.1934689 0.14945264 0.051914252 -0.1131504
0000a0 65 84 67 bd f4 96 bc 3d 1d 08 d5 3c 34 d5 4b 3d
       -0.056522746 0.092084795 0.026004845 0.049763873
0000b0 a1 29 53 3e 15 b1 a7 3b 9c 4c 0a 3e b5 2a 18 3e
       0.20621349 0.0051175454 0.13505787 0.14860041
0000c0 cc 32 1b bc 5b ec 8e bc f2 c1 0a bc 1a 26 65 3e
       -0.00947256 -0.017446687 -0.008469092 0.22377816
0000d0 0e ac 6c 3e e4 34 1d 3e d1 fe 12 3b c1 99 06 be
       0.23112509 0.15352207 0.0022429714 -0.1314459
0000e0 45 a2 07 3c 84 bf 82 bd 1c dd d5 bc e7 3b a6 3b
       0.008278434 -0.06384185 -0.02610641 0.005073059
0000f0 c6 55 09 bc b4 bb 03 3e 91 a1 8e bd 8d 5c 8c 3d
       -0.008382266 0.12864572 -0.0696441 0.0685359
000100 05 3d 66 3c a5 ab 85 be 99 d0 87 3c e5 30 bf bd
       0.014052634 -0.26107517 0.01657896 -0.09335498
000110 50 ca 87 3d 55 b0 cf bc 7d 52 f5 39 8d 7b 2d 3e
       0.06630385 -0.025352636 0.000467915 0.16941662
000120 84 5e 96 bd 9a 2d 6d 3e ea 86 eb 3c 5c 5f 3a 3c
       -0.07342246 0.23161927 0.028750855 0.0113752745
000130 cd a0 e4 bc c0 81 84 bc 8f cc 5e 3e ad 1e 52 3e
       -0.027908707 -0.01617515 0.2175772 0.20519514
000140 3c 34 89 3c a4 22 20 bd f3 fe e9 bd 53 ba 46 bc
       0.01674854 -0.039095536 -0.11425581 -0.012129384
000150 0f 28 1f be 3b 85 d4 3c de f1 fb 3c 08 95 4e 3d
       -0.15542625 0.025942435 0.03075498 0.050435096
000160 19 b7 00 be 3a 1c 94 bd d4 eb 23 be 82 9e 4a be
       -0.12569846 -0.07231946 -0.1600793 -0.19787028
000170 d4 14 45 bd 08 6a 23 3e 13 d5 61 3c 4f bb 62 be
       -0.048115566 0.15958416 0.013783711 -0.22141765
000180 a5 83 bd bc 01 0d 53 3e 15 bc 1a 3d 7a 75 25 3e
       -0.023134062 0.2061043 0.037777025 0.16158095
000190 cd e5 63 3d a4 54 6a bc 58 94 9c bd 6a f7 16 3e
       0.055639077 -0.014302406 -0.07645482 0.14742818
0001a0 b8 1b 30 bd e6 de c5 3d 19 c3 73 be 36 33 48 bc
       -0.042995185 0.09661655 -0.23804893 -0.012219241
0001b0 45 fa 17 3c f1 b3 13 bd ce b1 be be dc 98 3d 3c
       0.0092759775 -0.036060277 -0.3724503 0.011572089
0001c0 db d7 1d bd 2b 8c 89 bd ce 32 2f be cd ac 23 3d
       -0.038535934 -0.06716188 -0.17109224 0.039959718
0001d0 dd 88 72 3d 6f 3e 2a 3b 7e e3 e5 bc 0e c4 36 bd
       0.059212554 0.0025977155 -0.028062578 -0.044620566
0001e0 35 95 42 3e 3a 4b 6c 3c a1 ba 5e 3d ac 07 53 3e
       0.1900223 0.014422232 0.054377202 0.20608395
0001f0 af 4e 60 3c 00 83 96 bd f4 de e6 3c b0 b6 dc 3c
       0.013690635 -0.07349205 0.028182484 0.026942581
000200 36 db fb 3c bb 54 36 3d c0 68 d4 bc 54 bd e0 3d
       0.030744176 0.0445144 -0.025928855 0.109736115
000210 5f 61 0c bd a4 41 3b 3e 6a 14 13 3b f9 65 85 bb
       -0.034272548 0.18286759 0.0022442588 -0.004070994
000220 c0 33 93 3e f7 49 36 3e 8e f4 bb be c6 7d df ba
       0.2875042 0.17801653 -0.36710018 -0.0017051033
000230 8a 66 43 3c 34 90 80 3d ab 93 f0 3c 1b f6 e1 bc
       0.011926303 0.062775046 0.029367289 -0.027583173
000240 4d 49 a6 bc 56 5c 87 3d 68 4a 36 3e 4e 0f fd bc
       -0.020298624 0.066094086 0.17801821 -0.030891087
000250 ee 0b 3a 38 09 1f 3d 3e 70 22 24 bc 76 6b 7f 3c
       4.4356966e-05 0.1846887 -0.010017976 0.0155895855
000260 e7 d3 e1 3d da af 17 bd 86 db 90 3e 38 47 dd 3d
       0.11026745 -0.03703294 0.28292483 0.108045995
000270 63 32 9c 3c b7 11 a1 3d 47 11 0b be ee d8 41 3e
       0.019066995 0.07864707 -0.1358081 0.18930408
000280 ac da bf bd 1f 2a 04 bd b4 9c c3 bb cc 5f d1 bc
       -0.0936788 -0.032266732 -0.005969608 -0.025558375
000290 34 a0 6d 3e 38 9a d0 3c 8f 51 8c 3c 8d df 6e 3e
       0.23205644 0.025464162 0.017128734 0.23327465
0002a0 88 3f eb bd a6 b4 56 3d 43 49 8e 3c 99 16 03 3e
       -0.11486727 0.052418374 0.017368918 0.12801589
0002b0 f7 f4 c7 3d d9 2d 59 3e 77 b2 b7 3e 64 dd ee bc
       0.0976352 0.21208896 0.35878345 -0.029158302
0002c0 21 2a 5d 3d 14 c9 f4 3b e1 79 e2 bc 21 c4 91 bc
       0.053995255 0.0074702594 -0.027646007 -0.017793717
0002d0 28 0a 13 be 32 bf 20 3e b3 2c 21 3d cd 47 b3 3e
       -0.14359343 0.15697935 0.03934927 0.35015717
0002e0 f7 36 f0 bc 65 20 65 bd ad a7 0f bd 36 f3 3e bc
       -0.029323084 -0.055939097 -0.035072017 -0.011654666
0002f0 df 60 bb bc 71 db 23 3e ce e4 d2 3e 37 62 9f 3e
       -0.02287334 0.16001679 0.4119019 0.3112962
000300 80 ea 19 3d 44 52 d4 3e e2 98 c7 3d ea b3 98 bd
       0.037577152 0.41469014 0.09745957 -0.07456191
000310 57 38 b9 3c 6d 25 b0 bc 05 bb 6e bb be 35 30 3e
       0.022609873 -0.021502221 -0.003642739 0.17208001
000320 f2 af 24 bd b6 34 04 be 90 94 92 3c 62 29 df bc
       -0.040206857 -0.12910733 0.017893106 -0.027241413
000330 f1 f1 43 bd 7d db 05 bd cc 13 03 3e be 6a fe 3d
       -0.047838155 -0.032680023 0.1280052 0.12422703
000340 39 f3 83 3c e9 da 8e 3e ef c1 9d 3e 3c ef 10 3c
       0.016107189 0.2790139 0.30812022 0.0088461
000350 67 26 40 3e 4d 22 25 bc 4c 94 17 3e 94 11 fb 3c
       0.1876465 -0.010078979 0.14802665 0.03064803
000360 c4 b1 8e bd db 80 9a be d6 34 80 3e d0 15 53 bd
       -0.069675 -0.30176434 0.2504031 -0.051534474
000370 0c de dc 3e f4 9e 5c 3e c1 a9 a9 3d a3 eb 22 3e
       0.43138158 0.21545011 0.08284331 0.15910201
000380 e3 41 95 be f9 d7 07 3e 83 d8 fc 3a 34 fe 85 3e
       -0.2915183 0.13265981 0.00192906 0.26170504
000390 db de 36 3d cb 4e e9 bd 39 15 4e be dc 59 79 3e
       0.044646125 -0.11391982 -0.20125283 0.24350685
0003a0 82 9d a1 be ae 9c 85 3e 06 1c a4 3e b7 d2 5d bc
       -0.3156548 0.260961 0.3205263 -0.013539008
0003b0 a5 58 11 3c ec 79 f2 3e 88 62 89 3e 4c 3e ac be
       0.008871232 0.47358644 0.26832986 -0.3364128
0003c0 fd d3 88 3e 22 9c b8 bb 45 74 89 3d 3f a5 5c 3c
       0.26724234 -0.005633847 0.0671163 0.013467132
0003d0 86 8a 9a 3d 75 32 b6 3b 99 ca 87 bb 9d 5f 37 3c
       0.075459525 0.005560214 -0.0041440246 0.01119223
0003e0 8e e9 52 bd 7d fa b6 3d 57 e0 88 3d f5 aa 0c be
       -0.051492266 0.089344956 0.066834144 -0.1373709
0003f0 d9 43 75 bc 46 48 29 be 08 4f 2d 3d ae b3 a9 3c
       -0.014969789 -0.16531476 0.0423117 0.02071556

action_model._discrete_distribution.branches.1.bias f4 [3]
000000 1d 64 01 3c 84 94 ac bd dd fb 6a 3d
       0.007897404 -0.084267646 0.0573691

exp_avg f4 [128, 31]
000000 79 ca 9b bb c0 81 1e 36 fd 5b 61 b7 08 c3 db b9
       -0.004754361 2.361936e-06 -1.3432463e-05 -0.00041916245
000010 c9 e7 bf bb 4d c3 8b 3a db 9f cf 37 d8 03 d9 b9
       -0.0058564884 0.0010663063 2.4750761e-05 -0.0004139233
000020 e2 6f 5a bb 6b f6 b9 ba b0 95 63 b7 57 7b 9e b9
       -0.0033330848 -0.0014187818 -1.3565106e-05 -0.00030228004
000030 a8 91 d0 bb e7 6b d3 3a 3f 56 61 b7 c8 8e b6 ba
       -0.00636502 0.001613018 -1.3431126e-05 -0.001392805
000040 75 59 83 ba 66 c7 75 bb f0 8e 5a b7 06 67 1d ba
       -0.0010021167 -0.0037502884 -1.3027093e-05 -0.00060044264
000050 32 ac c2 ba 63 8c 50 bb fd 85 cd b8 8b cd 00 bb
       -0.0014852344 -0.0031821958 -9.800119e-05 -0.0019653763
000060 df 2f 8d ba 24 f9 6d bb 32 66 6f b8 34 9d 1e ba
       -0.0010771713 -0.003631183 -5.7077217e-05 -0.0006050647
000070 18 c8 9f bb 83 47 9c bb a0 36 a9 bd 32 cb 2a 39
       -0.004876148 -0.004769267 -0.08262372 0.0001628816
000080 6a e0 3c b8 04 a6 17 37 41 16 8b 38 56 c7 2a 39
       -4.5031695e-05 9.038955e-06 6.6321816e-05 0.00016286722
000090 f2 73 15 b8 4e c7 b9 b4 7a 68 aa 38 06 cb d9 b7
       -3.563235e-05 -3.4603949e-07 8.125692e-05 -2.5962956e-05
0000a0 a9 ce 16 39 a2 82 17 37 ce ba 07 38 46 8b 83 b9
       0.00014382102 9.030717e-06 3.2360484e-05 -0.00025090034
0000b0 c6 54 c1 39 4c a7 17 37 58 12 f6 38 2b 3e d6 38
       0.0003687499 9.039253e-06 0.00011733611 0.00010215895
0000c0 00 ce 83 37 3b 4a 17 37 1a 08 20 b7 17 c2 96 b8
       1.5712343e-05 9.0175845e-06 -9.5386295e-06 -7.1887094e-05
0000d0 39 4d 4c 39 ca 27 84 36 24 c7 b1 37 ef e4 50 38
       0.00019483724 3.9385386e-06 2.1192776e-05 4.9804275e-05
0000e0 9e ad 97 38 cc ad 9f 36 b8 0e 3d b6 98 d9 bb 38
       7.23258e-05 4.758802e-06 -2.8171762e-06 8.957385e-05
0000f0 7e 08 16 38 00 af c4 3a 55 7f 79 39 0d 49 8f b6
       3.5770696e-05 0.0015005767 0.00023793925 -4.2702363e-06
000100 39 dd 31 b8 8f e0 ce b8 02 e7 e5 39 cd 90 52 b9
       -4.2406118e-05 -9.864673e-05 0.00043850398 -0.00020081103
000110 10 be 42 b8 b0 8f f2 b8 40 e0 5f 37 64 eb 66 39
       -4.6430214e-05 -0.00011566223 1.3344048e-05 0.00022022199
000120 b7 6e 31 b8 7c 10 fb b8 25 b6 04 3a c6 e9 8e b9
       -4.23032e-05 -0.00011971683 0.0005062542 -0.00027258525
000130 3c dd 31 b8 f0 35 d3 b5 c7 28 5f 38 2c c5 3d 39
       -4.240613e-05 -1.5736423e-06 5.320532e-05 0.00018097897
000140 94 06 34 b8 1d fe 81 b8 9e 69 ad 38 07 6b 0e 39
       -4.292147e-05 -6.1985316e-05 8.2689556e-05 0.00013582046
000150 da 90 e4 b7 98 47 7a 38 8e e0 f7 38 42 af e0 38
       -2.724717e-05 5.967132e-05 0.000118197044 0.00010713797
000160 c1 e8 0e b8 0c b0 00 b8 4a 45 84 39 50 e7 75 39
       -3.4072207e-05 -3.0681535e-05 0.00025228626 0.00023451191
000170 28 d9 4f ba af e6 a3 3a 20 03 07 37 06 e1 ef b7
       -0.0007928782 0.0012504662 8.047355e-06 -2.8595805e-05
000180 c2 fb 91 b9 ae 37 1e 3b 47 ee 94 ba 63 7c 49 b8
       -0.0002784413 0.0024142074 -0.0011362516 -4.803798e-05
000190 2e dc bd b9 04 9c ba 39 83 91 6c 3a 36 a4 ee b7
       -0.00036212936 0.00035592925 0.00090243685 -2.8448278e-05
0001a0 8f 83 b0 b9 da 61 35 3b f7 ce c5 ba c6 e2 ef b7
       -0.00033667355 0.0027676732 -0.0015091588 -2.859662e-05
0001b0 4e 63 46 39 2c 9a b2 39 ac e1 70 3a 12 8c f8 b7
       0.00018919745 0.00034065673 0.0009188901 -2.962913e-05
0001c0 e8 23 01 37 b0 76 13 3a 94 fe 2d 3a b1 1a 75 36
       7.697359e-06 0.0005625291 0.00066373614 3.6523381e-06
0001d0 b4 de fa 39 78 01 ed 39 56 c3 4e 3a c9 6c 36 b7
       0.00047849643 0.00045205257 0.00078873837 -1.0873374e-05
0001e0 bb 98 da 38 50 73 b4 3a 62 60 af 3a 44 5e 5c bc
       0.00010423498 0.0013767276 0.0013380165 -0.013450209
0001f0 8a 55 94 38 a6 e3 77 b7 3b 03 a9 b6 b3 bf d7 b7
       7.073123e-05 -1.4775351e-05 -5.0369686e-06 -2.5719264e-05
000200 b4 e8 0f 37 f4 de 61 38 09 1d 41 b7 b5 10 2b b8
       8.577645e-06 5.385182e-05 -1.1510457e-05 -4.0785137e-05
000210 f5 39 d0 b8 a6 cb 22 39 80 47 a9 b6 58 97 a3 b8
       -9.929008e-05 0.00015525389 -5.044916e-06 -7.800636e-05
000220 bf fa 44 b8 64 d6 d7 38 10 03 a9 b6 cf 85 5d b8
       -4.6963567e-05 0.00010291932 -5.036949e-06 -5.2815125e-05
000230 ba 28 47 38 1c d3 0d 37 18 5e a8 b6 8b df a2 b8
       4.7483227e-05 8.453408e-06 -5.017744e-06 -7.7664e-05
000240 24 76 00 39 8d 9e 94 b8 a6 6d 42 b5 91 19 f7 b8
       0.00012251042 -7.086722e-05 -7.243019e-07 -0.0001178264
000250 2f 22 d1 39 17 dc b4 b9 58 f0 49 b6 02 a7 8c b8
       0.00039889055 -0.00034496255 -3.0091232e-06 -6.706828e-05
000260 73 8e 9c 38 f8 33 06 39 e4 03 dc b9 e0 1d c1 b7
       7.465193e-05 0.00012798596 -0.0004196457 -2.3021305e-05
000270 c8 2a 0b b8 0a a2 62 b7 42 dd ca 38 a1 4a a5 b9
       -3.3180026e-05 -1.3508377e-05 9.673323e-05 -0.00031526855
000280 74 2c 8b 39 a7 e1 a6 b7 c8 84 12 39 fc b9 2a 38
       0.00026545266 -1.989382e-05 0.0001397311 4.070437e-05
000290 cb 46 cb b8 6a 3c 62 b7 89 45 92 38 84 73 42 ba
       -9.6929805e-05 -1.3484716e-05 6.9747744e-05 -0.0007417726
0002a0 d6 b7 33 3a dc 9e 62 b7 b6 61 c6 38 28 24 bd b6
       0.0006855702 -1.3507637e-05 9.459576e-05 -5.636848e-06
0002b0 c0 d2 53 b8 81 ad 63 b7 c9 8a 84 b8 ee b4 02 b9
       -5.0502596e-05 -1.3570651e-05 -6.320101e-05 -0.00012465168
0002c0 5c b8 9c 38 cc fe a5 b7 08 d6 8c b7 47 64 5e b8
       7.472999e-05 -1.9788182e-05 -1.6788967e-05 -5.3022315e-05
0002d0 00 e0 a3 b3 50 58 8b b7 72 a0 7b b8 bd 37 e4 b8
       -7.631024e-08 -1.6611215e-05 -5.999249e-05 -0.00010882269
0002e0 c6 55 49 b9 10 1b 01 3c b4 fd bc 38 4e 88 a6 b6
       -0.00019200807 0.007879987 9.0117945e-05 -4.9630535e-06
0002f0 f4 83 be 37 f3 1c c5 39 71 2a 36 ba df 4d 4b 3a
       2.271121e-05 0.00037596337 -0.0006949073 0.0007755439
000300 53 6b e4 37 de 99 eb 39 66 f7 9f 39 a5 7b 66 b9
       2.7229695e-05 0.00044937333 0.0003051117 -0.0002198057
000310 6e 3f bd 37 4f 51 be 39 20 6e 97 ba 6d 97 a2 3a
       2.2560092e-05 0.00036300204 -0.0011553206 0.0012404748
000320 69 85 be 37 11 00 07 39 ef f1 1f b9 5c 6e 78 39
       2.2711889e-05 0.00012874628 -0.00015253549 0.00023692235
000330 15 f5 c4 37 26 02 b7 38 a7 7f bd b8 e2 16 5b 39
       2.3479146e-05 8.72652e-05 -9.0359994e-05 0.00020893992
000340 ef bf 33 b7 02 8b 8a 38 08 5b c0 38 60 3c 4f 37
       -1.0713919e-05 6.606245e-05 9.172229e-05 1.2352219e-05
000350 fd 72 7e 36 80 90 f4 36 20 ed 7f 37 70 e8 f1 b7
       3.7915881e-06 7.2885887e-06 1.5254394e-05 -2.8837676e-05
000360 18 73 4b 3c 9e e7 b9 37 82 f5 73 30 be c1 06 ae
       0.012417577 2.2161574e-05 8.875177e-10 -3.064015e-11
000370 ba 5d 0b b7 f0 97 b1 37 72 6c 7e 35 fa 45 3c 33
       -8.306868e-06 2.1170796e-05 9.478018e-07 4.3835804e-08
000380 60 a5 3f b7 3e b1 b9 37 94 41 e1 32 97 c2 06 ae
       -1.14229915e-05 2.2136253e-05 2.6223269e-08 -3.0640903e-11
000390 14 67 e7 b6 22 20 c1 38 c0 a5 92 b8 c9 c1 06 ae
       -6.8963363e-06 9.208942e-05 -6.992696e-05 -3.064019e-11
0003a0 88 ed 6a b6 c9 d6 b4 38 65 5c 86 b8 97 c2 06 ae
       -3.5006979e-06 8.623076e-05 -6.406828e-05 -3.0640903e-11
0003b0 ed 29 3b 37 9e 07 f2 35 f6 c8 aa 37 d0 c6 68 2c
       1.115583e-05 1.8032622e-06 2.0359159e-05 3.3079546e-12
0003c0 e0 dd 2a b6 73 41 1a 36 5c a1 a6 37 cd d4 b7 2b
       -2.5461122e-06 2.2985885e-06 1.986388e-05 1.3061996e-12
0003d0 65 ea 58 37 16 50 bf 37 d0 11 bd 37 89 a7 8b 3a
       1.29291775e-05 2.2806267e-05 2.253885e-05 0.0010654788
0003e0 a6 7d 4c ba 1b 38 4d 37 ee 33 81 37 9a 4b 9b b8
       -0.00078007055 1.2232015e-05 1.540218e-05 -7.405058e-05
0003f0 81 e7 88 ba 13 33 8c 39 52 ca ce 37 fb 85 9a b8
       -0.001044497 0.00026740934 2.4651326e-05 -7.368248e-05
