results/4/Test 2/Drive/Drive-100012.onnx (onnx, 88275 bytes, 9 tensors)

discrete_act_size_vector f4 [1, 2]
000000 00 00 00 40 00 00 40 40
       2.0 3.0

network_body._body_endoder.seq_layers.0.weight f4 [128, 31]
000000 49 72 17 be a0 f3 46 be 9d bc bf 3e 4d f3 3e 3c
       -0.1478969 -0.19428873 0.37448588 0.011654687
000010 ac d2 5f be 14 ba 82 3e 83 70 71 3e 8c a3 af bd
       -0.21857709 0.2553259 0.23578076 -0.08576116
000020 2b ad 12 be d2 98 4d be a0 8c 1d 3d 23 34 e3 3e
       -0.14323871 -0.20077828 0.03846419 0.44375715
000030 12 4b cc bd 19 83 33 bc 0f 47 67 be 11 24 a4 bd
       -0.09975256 -0.010956549 -0.225857 -0.080146916
000040 de c7 92 bc 2c 25 9c 3d 02 f8 0c be e0 8f 8c bd
       -0.01791757 0.076242775 -0.13766482 -0.068633795
000050 38 59 6f 3d 25 85 b8 be 83 4c cd 3e f8 0f 3e be
       0.058434695 -0.3603908 0.40097436 -0.18560779
000060 b7 07 28 3e 79 b8 03 3d c3 05 55 3e 81 10 53 3c
       0.16409193 0.03215835 0.20802979 0.012882353
000070 5c 84 7f be 27 f0 1a 3e d8 6a 91 3d f4 53 ad be
       -0.24952835 0.15130673 0.07100457 -0.33853114
000080 b6 e4 7c bd c0 10 51 bd 8a c6 2f 3e c8 54 1f be
       -0.061741553 -0.051041365 0.1716558 -0.15559685
000090 82 a7 e0 bb ec 97 b1 3e cc db b2 3d 06 dc 3b bd
       -0.006855906 0.3468622 0.08733329 -0.045864128
0000a0 3d 39 23 3e 52 7f 47 3e 0a 94 1a bd ee 1b e0 bd
       0.15939803 0.19482163 -0.037738837 -0.10942827
0000b0 c3 ce 62 bd 35 98 15 3e 17 8e 62 be 8a 99 5d bd
       -0.055372965 0.14608844 -0.22124515 -0.054101504
0000c0 b7 b3 37 be 91 04 14 3d f7 55 a5 bb b2 cb a8 3d
       -0.1793965 0.036137167 -0.005045648 0.08241977
0000d0 5f a1 5e 3e 4c 1f d8 3d 46 40 bf bd ce f5 87 3d
       0.21741246 0.105528444 -0.09338431 0.066386804
0000e0 18 cb e9 bd 52 dc 2f be 5b fb cf 3d 52 da 0c be
       -0.1141569 -0.1717389 0.10155364 -0.13755158
0000f0 97 43 99 3d 46 e3 ac be 89 9e b8 3b e0 9f ef 3c
       0.07483595 -0.33767146 0.0056341332 0.029251039
000100 4f b1 05 3e f6 6f 08 bd 0f cb af bd 48 76 aa 3d
       0.13055919 -0.0333099 -0.08583652 0.083233416
000110 a7 50 33 3c 59 de 87 3d b2 1c c6 3e 04 dd f5 bc
       0.010944522 0.06634206 0.38693768 -0.030012615
000120 34 05 6c 3d ac ea 67 be e6 33 dc 3d 96 65 0a 3d
       0.05762215 -0.22648114 0.10752086 0.033788286
000130 36 62 d5 bd f5 55 ca 3e 3a dd 81 3e 0d d6 52 3e
       -0.10419123 0.39518705 0.25364095 0.20589466
000140 95 96 cc 3d 2b 02 5c 3e c9 70 47 be 87 c3 7b 3e
       0.09989659 0.21485202 -0.19476618 0.24586307
000150 9a 66 3d bd 19 ea b8 3d 89 96 ec bd 45 ef e8 3d
       -0.046240427 0.090290256 -0.1155215 0.11373762
000160 e6 d0 81 3d f0 22 08 be 09 25 98 3e b5 85 f3 3d
       0.06338672 -0.13294578 0.29715756 0.11890737
000170 c7 12 5e bc 1f dd ca bd 56 5c 06 3e ce e5 26 3e
       -0.013554282 -0.09905457 0.13121161 0.16298601
000180 3f 84 91 bd 33 58 f9 3d ed e9 07 3d 08 e5 13 bc
       -0.07105302 0.12175026 0.033182073 -0.009026773
000190 62 59 d4 3c e9 0a 73 3e 3b 4b 40 be 59 ab 28 be
       0.025921527 0.2373463 -0.18778698 -0.16471614
0001a0 85 c0 e3 3d e4 fd 4c be bd 23 4d 3e 80 9a 3b be
       0.111207046 -0.20018727 0.20033164 -0.18320656
0001b0 7d 70 2c 3d 45 d5 58 3d 08 2e ef 3b 9c b1 7d be
       0.042099465 0.052937765 0.0072991885 -0.24774784
0001c0 6a ff a5 bd 8a 5f 8c be df f2 80 be a9 66 5a be
       -0.08105357 -0.2741664 -0.25185296 -0.21328224
0001d0 e7 81 51 3e ce 4d 94 bd c3 03 1d 3e fb 2f 49 3e
       0.2045971 -0.072414026 0.15333466 0.1964721
0001e0 1a 77 fc bd 83 17 56 bc b2 17 17 3e 42 d9 48 be
       -0.12327404 -0.013067129 0.14755133 -0.19614127
0001f0 fa 92 0c be 07 01 30 3e c3 d6 2b 3e 9f 65 b0 3d
       -0.13727942 0.17187892 0.16781144 0.08613133
000200 66 23 70 3d 9f b7 ec bc 16 5e 25 3e 84 77 f4 3b
       0.05862751 -0.028896151 0.16149172 0.0074605364
000210 b1 c9 a3 3e d3 2e 7f bc 6b f9 80 be 73 1b 88 3e
       0.31989816 -0.015575129 -0.2519029 0.26583442
000220 66 6d 28 3d f6 5b 0e 3e 53 6e ef be b7 bc 27 bd
       0.041119955 0.13902268 -0.46763858 -0.040951457
000230 e1 bc 9f 3e a1 81 4b 3d 0d f1 a4 3e 98 64 48 3d
       0.3119879 0.04968417 0.32215157 0.04892406
000240 b3 5e 69 3d cc db 57 bd 1d a3 57 3d b7 70 a4 be
       0.056975078 -0.05269985 0.05264579 -0.32117245
000250 38 01 2f 3a 4a 30 42 3e ca e2 06 3d 83 63 bd 3e
       0.0006675902 0.18963733 0.032931127 0.36989984
000260 f4 48 f8 3e f3 0c 2d 3e 99 e2 0b 3e c1 e3 6e bd
       0.4849316 0.16899471 0.13660659 -0.05832267
000270 f6 d9 3c be eb ce 9a be e1 ed 05 bd f0 51 10 be
       -0.1844252 -0.3023599 -0.032697562 -0.14093757
000280 be 88 c6 3e f9 35 cc bd 84 6e 98 3b 5f 66 47 bd
       0.387762 -0.09971232 0.0046518464 -0.048681613
000290 25 b9 65 bd 95 ec 50 3e c4 1b b0 bd c8 9d 15 3d
       -0.05608477 0.20402749 -0.08599046 0.036527425
0002a0 3b aa 9c 3c 60 a1 eb 3d 81 67 91 3d 1c e6 8c bc
       0.019124141 0.11505389 0.0709982 -0.017199568
0002b0 97 33 6e be 8d c9 00 3e 77 57 99 bd 4b d6 21 be
       -0.23261867 0.12576886 -0.07487386 -0.15804403
0002c0 3a c3 75 be d4 63 2d 3e b5 65 8f be f3 a0 8c be
       -0.24000254 0.16932613 -0.28007284 -0.27466545
0002d0 63 63 b0 3d 59 97 c0 bd aa e4 4a 3d 70 e2 42 3e
       0.086127065 -0.09403867 0.049534477 0.19031692
0002e0 5d c8 bb be f0 c2 0c 3e 6f f9 03 be e9 56 0e 3e
       -0.36676303 0.13746238 -0.1288812 0.13900341
0002f0 a3 c5 0b be 5f 58 66 bc ee 0f 28 be a6 5d b1 be
       -0.13649611 -0.014059155 -0.16412327 -0.3464176
000300 ec d4 9a bd 20 8c 1e be e4 d2 2d 3d ee 2e 8a 3d
       -0.07560143 -0.15483141 0.04243745 0.067472324
000310 31 6b 85 bb 63 dc f7 3b 93 82 75 bd c4 e4 6b be
       -0.004071616 0.007564114 -0.05993898 -0.23036486
000320 a3 3f f0 3e 4f ab 57 ba 1c ff 37 be 90 17 27 be
       0.4692355 -0.0008227126 -0.1796841 -0.16317582
000330 9a 53 22 bd df 6c bb 3e 3b 22 a7 be 9e 3f 9f bd
       -0.03963051 0.366065 -0.32643303 -0.07775806
000340 26 a2 ef 3d 7f 8c 08 3e 94 16 48 3e 10 42 2d 3e
       0.11700849 0.13334845 0.19539863 0.16919732
000350 5d c3 bc 3d fd 60 8a 3d 48 81 00 3d 29 ba 04 3f
       0.0921695 0.0675678 0.031373292 0.5184656
000360 f6 24 b0 3e 90 11 31 3e 90 f2 b6 3d cc 80 06 be
       0.344032 0.17291856 0.08932984 -0.1313507
000370 e0 7d 83 bd 01 6a 26 be f1 79 8a be 9d cf 2e 3d
       -0.06420493 -0.16251375 -0.2704616 0.042678464
000380 5d 82 91 bd 87 26 bb 3d bc 58 c6 3a df a8 5e be
       -0.07104943 0.09138208 0.0015132646 -0.21744107
000390 8b 75 71 3d 22 08 18 bb 68 91 4c be 59 fe 4c be
       0.05894999 -0.0023198207 -0.19977343 -0.20018901
0003a0 9c 76 00 3f df bc 3d 3e 95 58 62 bc b1 99 86 3d
       0.50180984 0.1852908 -0.013815065 0.06572283
0003b0 7e 30 90 be 5e 5b 5d be 22 cf c0 3d 64 74 fa bd
       -0.28161997 -0.21616885 0.094145074 -0.12229231
0003c0 b9 70 84 bd b0 ee bb bd 9f 8a cb bd a7 ee b7 be
       -0.06466813 -0.091763854 -0.09938549 -0.35924265
0003d0 6c e9 df 3d 87 c3 10 3e 53 28 4f 3d cc 76 e3 3e
       0.109331936 0.14137088 0.050575566 0.44426572
0003e0 1c 11 90 be c4 5f f1 bc 29 37 fa 3d d7 75 12 3e
       -0.28138053 -0.02946461 0.12217552 0.14302765
0003f0 15 21 56 3e 04 71 c8 be 5f 2c ce 3e 9b 69 2c 3e
       0.20911057 -0.39148724 0.40268227 0.1683716

network_body._body_endoder.seq_layers.0.bias f4 [128]
000000 f4 6b e7 ba 46 e4 d3 bc 74 0b 19 3c 1d aa ed 3b
       -0.0017656074 -0.025865685 0.00934111 0.007252945
000010 94 9a dc 3c 86 62 c4 bb ee 65 d2 3b b4 a5 0e 3c
       0.026929177 -0.00599319 0.0064208424 0.008706499
000020 a5 24 b1 bb 4b 97 f3 3b 44 f3 ea 3b d1 6f c7 3a
       -0.0054059797 0.007433807 0.007170113 0.0015215819
000030 76 33 3d bc d4 f0 b8 3c c0 e8 c2 3c 23 89 03 3c
       -0.011547914 0.022575773 0.023792624 0.008028301
000040 40 17 06 3d 20 5f cc 3c d8 45 06 3d 10 e1 7a 3c
       0.032737017 0.024947703 0.032781452 0.015312448
000050 d1 73 19 3c 4c c8 3d 3c 62 a2 01 3b 3d d8 8f 3a
       0.009365992 0.011583399 0.0019780626 0.0010974478
000060 1d 25 ae 3c 79 6f e3 bb 42 de 81 bc 22 b5 44 3d
       0.021257931 -0.006940779 -0.015853051 0.048024304
000070 2b 63 73 3c 09 1c 16 3b 6a 7e 56 3b d8 a7 f4 3c
       0.014855186 0.0022904894 0.0032729157 0.02986519
000080 65 c4 7a bc c6 6a ce bb 12 92 4e 3c 56 c9 a0 bb
       -0.015305613 -0.0062993495 0.012608068 -0.0049068136
000090 d2 fe 8c 3c ac 03 51 bc 1f 98 7a 3b 44 4d ca 39
       0.017211352 -0.012757223 0.0038237644 0.0003858601
0000a0 8e 43 da 3b d9 14 3c 3d fe 33 a6 bc 5c e8 2f bb
       0.006660885 0.04591832 -0.020288464 -0.0026841378
0000b0 3c d4 17 3c e9 20 58 bb 3a a6 34 bc 62 3c 20 bc
       0.009266909 -0.00329786 -0.01102596 -0.009780021
0000c0 a3 97 da bc 95 5e c8 3c 70 3e 67 3c 2d 61 12 3c
       -0.026683634 0.024459163 0.014114007 0.008934301
0000d0 c8 ea 5b bc f0 2f a2 bc 48 dc 95 3b e7 6f 9e 3b
       -0.013422675 -0.019798249 0.0045733787 0.004835117
0000e0 bf 06 fe 3c 61 7c b0 3c 05 c2 0d bd 39 bb 7e 3c
       0.031009076 0.021543683 -0.03460886 0.015547567
0000f0 1c b2 5f 3b 2a 6a fb bc 70 ac fb 3c 4c fb f7 3b
       0.003413326 -0.030690271 0.030721873 0.0075677987
000100 9a dc 56 3c b0 2d 4a 3c 95 c2 20 3c fb 87 58 3d
       0.013114119 0.012339994 0.009812017 0.052864056
000110 d4 30 90 3c 21 32 9b 3c c5 13 a1 bc 31 10 7c 3c
       0.017601408 0.018944802 -0.019662747 0.01538472
000120 5b 30 b7 bb f8 b2 89 3b ba ce 3d 3d b9 76 62 bc
       -0.005590481 0.004202243 0.046339728 -0.013822251
000130 42 31 61 3c 56 26 43 bc 07 3b d8 bc 2e 14 da 3c
       0.013744654 -0.0119109955 -0.026395334 0.02662095
000140 60 b4 68 bc 64 1b 06 3c bd c1 b4 3c f6 ed 8b 3b
       -0.014203161 0.008185241 0.022065038 0.0042703105
000150 96 59 0f 3d b8 bc b3 ba bc e6 fb 3b d4 03 3f bc
       0.034997545 -0.0013712859 0.007687418 -0.011658628
000160 46 2a 99 bb 23 2b bd bc ed a8 32 bc c2 a7 7b 3b
       -0.004674229 -0.023091858 -0.010904533 0.0038399552
000170 12 79 3a 3c e6 51 69 bc 33 8e 93 3c 3a a0 09 bc
       0.0113814045 -0.0142407175 0.018012142 -0.008400017
000180 c5 c3 81 bc 1c 6b b2 3a 08 8b 22 3c 93 fb 3f bc
       -0.01584042 0.0013612243 0.009920843 -0.011717695
000190 80 1c 14 39 d9 85 cf bb 8d db a7 bb 19 0a 0f 3d
       0.00014124997 -0.0063330946 -0.005122608 0.03492174
0001a0 c4 c1 9b 3b 65 1a c5 ba 18 a9 b2 bc f8 2a e2 3c
       0.0047533233 -0.0015037773 -0.021809146 0.02760838
0001b0 ba bf 83 3b 9f c0 b1 bc 31 fd 9c 3c 9d c4 c4 bb
       0.0040206583 -0.021698294 0.0191637 -0.0060048834
0001c0 3e d0 fb 3c 48 a1 75 3c 5f 28 b5 3c c0 2d 8a bc
       0.030738946 0.014992066 0.022113977 -0.016867518
0001d0 87 5f 57 3c 4e 3d b6 bb 2f c4 51 bb aa ef 40 3d
       0.013145334 -0.0055615073 -0.0032007804 0.04710356
0001e0 3f 04 a3 3c 31 7e c7 3b 69 7a f6 ba 2d 5e 56 bc
       0.019899486 0.0060880412 -0.0018804792 -0.013083977
0001f0 9f 9c 06 bc 49 08 dc bb 8f 79 85 3c bd 75 97 3c
       -0.008216052 -0.006714855 0.016293315 0.01848876

network_body._body_endoder.seq_layers.2.weight f4 [128, 128]
000000 63 69 1b be 58 7e 14 bd 39 45 b5 3d 15 78 31 3d
       -0.1517692 -0.036253303 0.08851094 0.04332741
000010 b9 3f d0 bc 48 a7 1a 3e f2 15 f0 bd be bf 9f 3d
       -0.02542101 0.15102875 -0.11722936 0.07800244
000020 37 cb 2c be 38 91 cf 3d fb 2d fb 3b aa b8 e3 3d
       -0.16874395 0.1013512 0.0076653934 0.11119206
000030 13 56 78 3b 27 8f 8c bd 00 59 87 3d d8 bc 1f bd
       0.00378931 -0.06863242 0.06608772 -0.038998455
000040 9a 78 b4 bc 24 0f 43 be dc 86 d4 3d d5 bd 52 3c
       -0.022030164 -0.19048744 0.10377285 0.012862642
000050 0b 30 2e be 74 be ed bc 1b c2 83 3c 90 1e 70 be
       -0.17010514 -0.02902148 0.016083768 -0.23449159
000060 e6 e0 ba 3c 26 33 c9 bc b5 a1 56 be b0 b6 6c bd
       0.022812318 -0.024560522 -0.20960124 -0.057791412
000070 69 27 28 3d 59 a8 20 be fd 36 41 3d 47 68 df bc
       0.04105321 -0.1568922 0.04717158 -0.027271403
000080 fa e8 b4 3c 8a 8a 18 be 2b 6b b7 bb 03 15 03 bd
       0.022083748 -0.14896598 -0.005597492 -0.03200246
000090 da 62 10 3d 59 36 b6 bd e3 8f 89 3d 1a 08 42 bc
       0.035250522 -0.08897085 0.06716897 -0.011842752
0000a0 e7 e5 71 bd 08 59 90 bd 94 0c 19 3c d3 ee b2 bc
       -0.059057143 -0.07048231 0.009341378 -0.021842396
0000b0 54 f4 8f bd 29 97 bc 3c 9c 1d 6b bd d9 7d 84 3d
       -0.07029024 0.023021298 -0.057401285 0.06469316
0000c0 2d 3b 40 bb 3f f3 39 bd 4a 39 8a bd 89 e0 96 3d
       -0.0029332147 -0.045397993 -0.06749208 0.073670454
0000d0 91 57 cc 3d d3 44 02 3e ee fe fd bc 52 85 c3 bc
       0.099776395 0.12721567 -0.031005349 -0.023867283
0000e0 89 0b 58 bd e1 88 42 be 61 1d a5 bd 48 6b 91 3c
       -0.052745376 -0.18997528 -0.08062244 0.017751351
0000f0 d5 21 56 be 3b 7c d9 bd 45 e9 02 3e 55 c5 45 bd
       -0.20911343 -0.10619398 0.12784298 -0.048283894
000100 23 3a 9d 3d 01 a8 ad 3d 2f f5 a9 bc 29 f9 98 3d
       0.07677104 0.0847931 -0.020746795 0.074693985
000110 16 7f 28 bd 45 79 0a 3e 9e 58 6e 3d b6 0e 93 3b
       -0.041136824 0.13522823 0.05818998 0.0044878377
000120 d8 ba 0a 3e 6b 97 3d 3e d8 23 72 3c f0 18 b8 bd
       0.13547838 0.18514793 0.014779054 -0.089891315
000130 ae d6 5d ba 28 1f bc bd c6 00 e6 3c 7d 68 fe bd
       -0.0008462471 -0.0918563 0.02807654 -0.12422273
000140 60 2c 42 bd 73 a0 4a 3d 4f d3 5e be 32 bd c0 3c
       -0.0474056 0.049469423 -0.21760295 0.023527715
000150 be 49 89 bd 42 0f 04 3d b1 0e 2c 3d 7d 80 5d 3e
       -0.06703518 0.032241113 0.0420062 0.21631046
000160 e9 26 90 3d ee b7 ef 3c c0 0a 0b bd ac 92 aa 3d
       0.070386715 0.02926251 -0.0339458 0.08328757
000170 68 d6 55 3d fc 52 ae bd 08 82 fd 3b bd 31 a7 3d
       0.052206427 -0.08511922 0.007736448 0.08163784
000180 f4 ce 1b bc 30 2d c2 bd f1 01 2a 3e 4f cb 9c 3c
       -0.009509791 -0.09481275 0.16602303 0.019139914
000190 bc 9b f1 bd d5 44 23 3c ad 25 33 3c 34 2b 98 3d
       -0.11797282 0.009965141 0.010934276 0.07430115
0001a0 ff 9a 18 bd cf 51 19 3d b5 50 3a bd 8f af a4 bc
       -0.03725719 0.037431534 -0.045487124 -0.020103244
0001b0 d4 ae 9e 3d f9 a9 40 3d 24 dd c1 bd 6c 01 c3 bd
       0.077481896 0.0470371 -0.09466007 -0.095217556
0001c0 07 33 5b bd 8d cb e9 3d bc b5 8e 3d c2 68 dd bd
       -0.05351546 0.11415777 0.06968257 -0.108109966
0001d0 74 45 c8 3d 46 24 c6 bd c9 ba 2c be ac 00 99 bd
       0.09778872 -0.09674887 -0.16868128 -0.07470831
0001e0 52 bc 06 bc 4b 27 4d 3d 61 2a 02 bd 7b b2 04 3e
       -0.00822361 0.0500863 -0.031778697 0.1295871
0001f0 37 23 5b bd a8 fc df 3d 75 c4 85 bd 5d fe 39 bd
       -0.05350038 0.10936862 -0.06531612 -0.045408595
000200 a2 c4 6c 3d 8b e8 5b be 2e 13 cd 3c 64 7f 88 bd
       0.05780471 -0.21475427 0.02503356 -0.06664923
000210 86 ee cc 3d 26 cc 00 bd 91 ac 8a bd 1c 38 ea bb
       0.10006432 -0.03144469 -0.06771196 -0.007147802
000220 79 fd a9 bc 6f 8e ae bd 59 2c 37 bd 80 8e b8 bc
       -0.020750748 -0.08523261 -0.044720028 -0.022528887
000230 a9 39 b5 3d 1e f0 65 bd 12 3a 3d bd 84 4d 93 bd
       0.088488884 -0.056137197 -0.04619796 -0.07192519
000240 16 43 59 3d 0a 59 03 3c 36 27 a9 bc fd 82 17 be
       0.053042494 0.008016834 -0.02064858 -0.14796062
000250 3e d1 64 3c a1 d4 cb bb bd f0 f6 bd 81 5f 54 bd
       0.013965903 -0.0062204157 -0.12057636 -0.051848892
000260 aa 96 ad bd 43 fb 0d 3e 46 5d 85 3d 76 48 af 3d
       -0.084760025 0.1386538 0.06511931 0.08558743
000270 b1 6b ce bb 0f 72 c7 3d 32 8f ba 3d b7 06 05 3e
       -0.006299459 0.09738552 0.091093436 0.12990843
000280 36 b9 f0 bc 7f 1f ec bd 4a 9a 87 3d 39 03 7f 3d
       -0.02938519 -0.11529445 0.06621225 0.062258933
000290 02 9d 26 3b 56 4a 28 3d f2 fd 8a bd 07 1d 07 be
       0.0025423174 0.041086517 -0.067867175 -0.13194667
0002a0 dd 37 08 bd f2 a1 f0 3d 52 06 ca 3c fa 49 e9 3d
       -0.0332564 0.117496386 0.024661217 0.11391063
0002b0 2e 83 70 bc 34 9d 53 be 6b b9 33 3e ee 3b 56 3d
       -0.014679713 -0.20665437 0.175512 0.052303247
0002c0 af 3c 2a bc 8b ba 35 be 49 5a 71 be 87 2d 15 be
       -0.010390445 -0.17746942 -0.23569597 -0.14568149
0002d0 fc 7d dd 3d 4c 5f 0e 3d 65 36 03 3d 7b 8f fb 3a
       0.10815045 0.03475885 0.032034297 0.0019192541
0002e0 fd 4d b9 3d a8 d6 07 3d 8e 6a 43 3d 36 18 ce 3c
       0.09048078 0.033163697 0.04770904 0.025158029
0002f0 89 60 87 bd 63 3b dd bb 46 a1 35 bd af 76 a1 bd
       -0.066102095 -0.006751464 -0.044343255 -0.07883965
000300 cc da 93 3d 87 85 83 bc 68 e6 ae bc c0 32 4d 3d
       0.072194666 -0.016054882 -0.0213501 0.050097227
000310 5d 8c a5 bc 30 6d e8 3d 88 c2 c1 bc de 68 9d 3c
       -0.020208532 0.11348951 -0.02365233 0.019215044
000320 21 cf fe bd d0 75 ba 3c fa df 82 bc 45 ed 7e bd
       -0.124418505 0.022761256 -0.015975941 -0.062237997
000330 c6 29 0e 3e b4 b7 6b bd 47 d3 a7 3d d5 48 ba bd
       0.13883123 -0.05754824 0.08194595 -0.09095923
000340 c0 d5 8f 3c c0 b8 2a be ed 76 a3 bd ac 0b 6c 3e
       0.017557979 -0.16672039 -0.07981668 0.23051327
000350 23 0b c9 3d c6 b6 5e 3d f6 7a 0d 3d 32 60 b2 ba
       0.09816577 0.054373525 0.034541093 -0.0013608991
000360 56 5d 4f 3c 5c 89 c5 bd bf a6 1d be 7c 1b 98 bb
       0.01265653 -0.0964534 -0.1539564 -0.0046419483
000370 54 c5 1d be 31 9c 9c bd 38 69 b7 3c a1 95 b5 bd
       -0.15407306 -0.07646979 0.02238904 -0.0886643
000380 87 ae 33 3d d3 ed 43 bd ce 22 37 be b6 38 95 bd
       0.043867614 -0.04783423 -0.1788437 -0.072862074
000390 a7 e3 04 3d 09 08 89 3b ad 40 d5 bd d4 8e 33 3e
       0.03244367 0.004181866 -0.104127266 0.17534953
0003a0 59 93 53 3d 9c 34 cb 3d f5 5c 02 3e 5a 29 3d 3d
       0.051654194 0.09922144 0.12730773 0.046182014
0003b0 37 27 3b be c2 f7 68 3c 2b ae d2 bc 3b 78 e8 bd
       -0.18276678 0.014219226 -0.025717815 -0.11351057
0003c0 4a 45 64 bc c7 5c ab bd d7 ed a4 bb 99 f3 aa bd
       -0.013932535 -0.08367305 -0.0050332355 -0.08347244
0003d0 63 df a1 3d fc 5f 9a bd 5f f4 4a 3d 10 59 ac bd
       0.07903936 -0.07537839 0.049549457 -0.08415425
0003e0 07 2a b7 bd 89 d0 d1 bd f2 8a 2c 3b fb 47 3b bd
       -0.08943563 -0.10244853 0.0026327935 -0.045722943
0003f0 46 9a 2e bd ea 19 34 bd e0 95 99 bd e6 c8 e0 bc
       -0.042627595 -0.043970026 -0.074992895 -0.027439546

network_body._body_endoder.seq_layers.2.bias f4 [128]
000000 73 53 df bb ae ff a9 3b 49 fb ff bb 24 ca ff 3b
       -0.006815368 0.00518795 -0.007811938 0.0078060795
000010 a5 a2 bf bb f3 ae 9f 3c 95 6e 85 bc 52 62 35 bc
       -0.005848246 0.019492602 -0.016288081 -0.011070805
000020 e7 8b 39 3c c2 66 39 bc 1e 02 cc 3c dc 28 2a bc
       0.011324859 -0.011316003 0.024903353 -0.010385718
000030 d8 11 7e 3b ac 6b e0 3a af 20 0c 3b 19 1f 95 bb
       0.003876796 0.0017121932 0.0021381786 -0.0045508263
000040 32 79 58 3b 40 b6 8d bc 4b b9 d2 3a 08 df 46 bb
       0.0033031222 -0.017298818 0.001607695 -0.003034534
000050 1b f6 8b 3b 4f 59 2d bb a7 92 66 3c 44 2d 98 bb
       0.0042712814 -0.0026450937 0.014073051 -0.004644068
000060 6f 04 6a bc f3 13 46 bc 54 d3 b6 b9 4b 0b 0c 3d
       -0.014283284 -0.012089717 -0.00034871197 0.034190457
000070 85 9a 9b 3c ca e2 67 3a 84 4d ba bb d0 d8 f1 3c
       0.01899458 0.0008845745 -0.00568551 0.02952233
000080 b2 9b 80 3c 6a 0d d3 bb bb 5f ba 3b 5d 13 6f 3c
       0.015699241 -0.006440808 0.0056876815 0.014592019
000090 25 88 38 3c 46 28 4c 3c a1 44 3c bc 0d ae 93 3b
       0.011262928 0.012460774 -0.011490972 0.0045068325
0000a0 fe 11 d3 3c 19 80 0a bc 72 63 e8 3a 59 5c 85 bb
       0.025765415 -0.008453392 0.0017729832 -0.0040698466
0000b0 ce 88 2e 3a 88 fb 01 bc dd da 15 bc 68 a7 05 3b
       0.0006657959 -0.007933505 -0.009146419 0.0020393971
0000c0 b7 63 8d bb e6 f2 d8 3c 47 13 72 bb 5e a5 b0 3c
       -0.0043148655 0.02648301 -0.003693776 0.021563228
0000d0 90 db eb 3b 9f 08 0f 3d 9d 81 cb ba ef 7e 34 bc
       0.0071978047 0.03492033 -0.0015526299 -0.011016591
0000e0 8e 14 2c bc a4 94 7b 3b d2 d1 1b 3c 58 a7 9c bc
       -0.0105029475 0.0038388157 0.009510474 -0.019122764
0000f0 4d 17 ad 3c 86 64 bd 3c 04 8a 04 3c a6 6d 28 bc
       0.021129275 0.023119222 0.008089546 -0.0102800485
000100 01 6d a8 3c 8a d5 d0 bc 61 d8 8f 3c 46 15 c1 3b
       0.02055979 -0.025492448 0.017559232 0.0058924286
000110 70 d1 37 3b 64 ab 85 3b 56 47 91 3c 20 e4 7a 3c
       0.0028048418 0.0040792692 0.017734211 0.015313178
000120 58 e5 c8 bb 03 06 23 bc 20 50 59 39 68 a6 61 bc
       -0.0061308555 -0.009950164 0.00020724582 -0.0137725845
000130 9a c8 eb 3a a3 ca a4 3c 2e 22 ee bb dd 07 5a 3c
       0.0017988861 0.020116156 -0.007267258 0.013307539
000140 13 2a 65 bc 96 1e bd bb 74 3a 4b bc 94 95 c8 3c
       -0.013987082 -0.0057714684 -0.012404073 0.024485387
000150 4b 68 9a bb 5d 22 b5 bb bc cc 9d 3c dc f4 1a 3c
       -0.0047121397 -0.005527778 0.019262664 0.009457793
000160 eb c7 85 3c 27 15 f9 b9 2f ab c6 3c 26 c2 94 3c
       0.01633068 -0.0004750874 0.024251549 0.018158983
000170 09 f4 bf bb 0d 14 83 bc ab f2 1e 3b ec 2c 32 3c
       -0.0058579487 -0.016000772 0.0024253528 0.010874968
000180 0e 73 d9 3a 0e 56 c0 39 3b 8b 93 ba 59 37 01 3d
       0.0016590075 0.0003668521 -0.0011256704 0.031546924
000190 55 46 29 3b 01 37 6b 3c 4b 1a 44 3c 51 b2 5f 3b
       0.0025829275 0.014356376 0.011969159 0.0034133384
0001a0 4c b1 2d 3c 54 41 87 3c 74 92 0e 3b bc 73 c2 b9
       0.010601353 0.016510643 0.0021754773 -0.00037088792
0001b0 21 6c 75 3b fb 77 8d 3c 54 4e 38 3c 55 7a b5 bc
       0.0037448483 0.017269125 0.011249144 -0.022153059
0001c0 ca 39 5a 3c a3 67 81 bc 6b 69 78 3c 54 bd 46 3c
       0.013319442 -0.015796488 0.015161852 0.0121301
0001d0 50 98 3d bc 6d 67 f6 ba bc aa c1 bb 73 fb e2 3b
       -0.011571959 -0.0018799134 -0.0059102457 0.0069269477
0001e0 16 63 b2 ba db 8b ef 3b 6b c4 4e bc 88 68 78 bc
       -0.0013609852 0.0073103732 -0.012620072 -0.015161641
0001f0 1e 9a 8c 3c 8c 25 95 bc 8c 28 e0 ba dc 1d b3 3b
       0.017163333 -0.01820638 -0.0017101928 0.005466206

action_model._discrete_distribution.branches.0.weight f4 [2, 128]
000000 ad 80 53 bc 7f 3d 8f bc db 1f 86 3a a3 76 02 bc
       -0.012909097 -0.017485378 0.0010232882 -0.0079628555
000010 99 d1 85 3c 24 98 b3 bc 8f c5 1f 3c 1e 7e 9f 3b
       0.016335296 -0.021923132 0.0097516915 0.0048673293
000020 59 2c 38 bb 1e 98 90 3b 73 d1 d6 bc 93 19 30 3c
       -0.0028102605 0.004412665 -0.02622292 0.010748285
000030 84 38 ee 3c 2b 48 16 bc e4 5b 3c bb ff 27 e2 bc
       0.029079683 -0.00917248 -0.0028741295 -0.027606962
000040 bc 0a 98 bb 68 96 68 bb ef 55 8b bc 46 07 18 bb
       -0.0046399515 -0.003549004 -0.01700875 -0.0023197695
000050 30 14 c7 3c 8c 4a 18 bc a6 8e 39 3c ec 24 d9 bb
       0.024301618 -0.009295117 0.011325514 -0.006626716
000060 e9 55 64 3a d6 47 87 ba c6 18 bf 3c 7a 4f 2d bd
       0.00087103114 -0.0010321091 0.023327243 -0.042312123
000070 9f 1c f7 bc ad c9 82 3c 3b 91 1f 3a 41 67 a8 bc
       -0.030165015 0.015965307 0.00060870097 -0.020557048
000080 4a e7 c0 bc f3 ae 02 3d 2d 1f b7 bb 65 8f e8 bc
       -0.023547787 0.031905126 -0.0055884332 -0.028388688
000090 57 4a ac 3b cc bd 72 bc f6 08 53 3b 39 1c 42 3c
       0.0052578854 -0.014815759 0.0032201386 0.011847549
0000a0 d1 65 0a bc e8 e1 06 3c 59 ef a4 3c b2 d2 c5 3c
       -0.0084471265 0.008232571 0.020133661 0.024148319
0000b0 78 d0 03 3c 15 4c 87 bb d9 0e e4 3b 9a 19 89 bb
       0.008045308 -0.0041289427 0.006959778 -0.00418396
0000c0 c6 de 87 3c 13 cc 6b bd 86 2c a1 3c a8 20 10 bd
       0.016585719 -0.057567667 0.01967455 -0.035187393
0000d0 6a 20 af bb 42 3e 43 bd 4a bb 4e bc b5 9e 79 3c
       -0.00534444 -0.047666796 -0.012617895 0.015235593
0000e0 46 de 89 3b f5 90 06 bc 03 c3 3e bc 01 7c 5b bc
       0.0042074053 -0.008213271 -0.011643174 -0.013396264
0000f0 46 4d 8f bc 26 1c 31 bd ca 08 71 bc 99 09 31 bb
       -0.017492902 -0.043239735 -0.014711568 -0.0027013777
000100 1d 37 0a 3c b4 d9 24 3c 5f a0 60 bc f6 54 87 3c
       0.008435992 0.01006167 -0.01371011 0.016520005
000110 ce 29 cc bb bc c0 57 3b c7 1f 68 bc ed ef 19 bd
       -0.0062305694 0.0032921275 -0.014167733 -0.037582327
000120 19 e1 3d 3c 9b eb 4d 3c b6 aa b5 3c 75 51 09 3c
       0.011589312 0.01256838 0.022176128 0.008381237
000130 72 c2 76 bc 0e e9 cc bc 7c 9e 0e bc 42 8c 20 bc
       -0.015061008 -0.025013473 -0.008704778 -0.009799065
000140 3c 6e 79 3b e3 84 9a 3b 11 87 0b ba 5c 9c 5a bc
       0.003806009 0.0047155484 -0.00053225557 -0.013342943
000150 14 04 73 3c ec c3 5f 3c d3 e8 d0 bc 1c 38 15 b9
       0.014832515 0.013657551 -0.025501644 -0.0001423065
000160 74 31 4f bc 28 85 bf 3c 2f 8c cf bb 81 ca 2d 3c
       -0.012646068 0.023378924 -0.00633385 0.010607363
000170 28 9a 14 3c 52 64 ac 3c 98 7a 7e ba 92 07 88 bc
       0.009069957 0.02104393 -0.0009707599 -0.016605172
000180 9a d9 d3 3b 09 1a ef bb 1b 15 96 3c 46 5c 65 bd
       0.006465149 -0.007296805 0.01832061 -0.055996202
000190 91 cf cc 3a 3b 72 8f bc 41 37 12 3c e5 58 1a bb
       0.0015625824 -0.017510524 0.008924306 -0.002355152
0001a0 f6 ef 19 bc 44 ca 24 bd 70 4a 61 bc 0c 6f 42 3b
       -0.00939559 -0.040231958 -0.013750657 0.002966824
0001b0 fc f4 96 3c ce 6a be bc 16 40 59 bc aa 90 6f bb
       0.018427365 -0.023244288 -0.013259908 -0.0036554732
0001c0 07 5e 41 bd d8 b0 56 bb e1 9a 99 bc 48 29 14 bd
       -0.047208812 -0.0032759216 -0.01875061 -0.03617218
0001d0 85 e8 14 3c 51 77 81 bc fe 8b 78 3c 36 ad 8f 3c
       0.00908864 -0.015803965 0.0151700955 0.017538648
0001e0 ca 5a 38 bb 0d be 3b bc cd 60 5d bc 30 36 31 3c
       -0.0028130286 -0.011458886 -0.013511849 0.010816142
0001f0 da 4f fb bc 53 17 de 39 a8 a2 94 3c 26 e8 8d 3a
       -0.030677725 0.00042360518 0.018143967 0.0010826632
000200 ff d3 9c bb d8 2c b5 3c bd 31 45 bc b5 0d 92 3c
       -0.004786014 0.02211611 -0.012035784 0.017828802
000210 13 6e 53 3b aa ae dc 3c 17 e2 75 bc ec b3 1f 3c
       0.0032261654 0.026938755 -0.015007517 0.009747487
000220 cf 89 ae ba 66 e7 0d bc 4b 94 00 3d 21 33 5d bc
       -0.0013316217 -0.008661127 0.031391423 -0.01350096
000230 f0 f3 d3 bc 16 70 0a bc 7d a5 27 3c e6 eb af 3a
       -0.025873154 -0.008449575 0.010232327 0.0013421744
000240 a0 02 82 bb 9e f6 fc 3a 6a 26 bc bb 56 5a 0a bc
       -0.003967598 0.0019299572 -0.005741884 -0.008444389
000250 0a a6 c2 bb ee 09 06 bb b8 28 b1 3c 12 e2 59 3b
       -0.0059402036 -0.0020452696 0.021625862 0.003324632
000260 a5 4a f0 3b ae 07 64 bc 4f 95 2f bc a1 74 c2 3c
       0.007333117 -0.013917847 -0.01071675 0.023737254
000270 b4 0d 00 3d ed 65 8c bb 65 5a 20 3c ce 8f 39 3d
       0.03126307 -0.0042846114 0.009787177 0.04530316
000280 84 f6 29 3b fd 08 1f bd da 38 ab 3a 8d ce 19 3d
       0.0025934288 -0.03882693 0.0013063208 0.037550498
000290 ab 65 2e 3c 41 29 a4 3c e9 65 35 3c 05 6b 10 bc
       0.010644357 0.020039203 0.011071661 -0.008814578
0002a0 62 dd b4 3c e8 86 6d ba 87 9c 08 bd cc ed d4 bc
       0.02207822 -0.0009060935 -0.0333524 -0.025992297
0002b0 0d 18 0c bc 42 f6 01 3c 56 8b 64 bc 45 d7 6c 3c
       -0.008550656 0.007932248 -0.013949236 0.014455621
0002c0 eb b6 e4 3b 96 e3 4a 3d 2f f5 68 3b 8b 2f b3 3c
       0.0069798133 0.04953345 0.0035546531 0.021873256
0002d0 a9 48 05 3c 36 3b 05 3d 82 1e 1b 39 97 9d 25 bc
       0.008134999 0.03252717 0.00014793317 -0.010108373
0002e0 52 d8 7f bc 62 d2 9e bb a5 8b fe 3b 53 17 24 3c
       -0.01561554 -0.004846857 0.007768112 0.010015327
0002f0 c2 5b 14 bb 46 e0 09 3d 3d ba 67 3b a7 35 32 3c
       -0.00226377 0.03366115 0.003535881 0.0108770495
000300 22 8d 06 3c f2 22 72 3c cf 7b b6 3c 18 62 d0 bc
       0.00821236 0.014778839 0.022275833 -0.0254374
000310 ec c5 ad 3a 99 78 29 bc 40 f7 22 3c cd b9 32 3d
       0.0013257838 -0.010343694 0.009946644 0.043634225
000320 b5 93 c3 bb e1 f3 d8 bb 3f 4b 22 bc 77 be 49 bc
       -0.005968536 -0.0066208695 -0.009905635 -0.012313477
000330 21 dc 24 3c 99 97 6f bb fc f3 68 bc ab da a4 3b
       0.010062248 -0.0036558865 -0.014218327 0.00503095
000340 39 0c 1f 39 e5 86 e2 bb e0 79 38 bc f3 29 ee 3c
       0.00015167975 -0.0069130533 -0.011259526 0.029072737
000350 96 ba bf bc c1 f4 f0 bb 8b 2f c7 3c 61 cd 63 bb
       -0.0234044 -0.0073533957 0.024314662 -0.0034759867
000360 1a 4e 6c 3b 5e 5a 83 bc df 21 48 bc db 59 11 bc
       0.0036057294 -0.016034301 -0.012215107 -0.008871521
000370 b7 60 24 bc 18 f9 d2 bc 7d 8c e0 3a e5 d2 7b 3c
       -0.010032824 -0.025753543 0.0017131713 0.015370105
000380 c9 4d c1 bb 25 12 a0 bc 0a 09 ba bc 99 dd 55 3d
       -0.0058991653 -0.019539902 -0.022709388 0.052213285
000390 eb 82 13 3c aa ee 9a 3c b6 86 d6 bc b6 c3 f1 3b
       0.009003381 0.018912632 -0.026187282 0.007378067
0003a0 dc c6 27 3c 8f f1 48 3d 8c 7b d1 ba cd 0d 1c bb
       0.010240283 0.049058493 -0.0015982254 -0.0023811937
0003b0 06 99 5d bc 56 3e b7 3c 49 6c b2 3c 5e c2 58 bc
       -0.013525253 0.022368591 0.02178015 -0.0132299345
0003c0 dc e5 c8 3c 3a 69 2d bc 4d 2f dd 3b 81 82 60 3c
       0.024523668 -0.01058417 0.0067500235 0.01370299
0003d0 8c 49 8f bc d2 56 81 ba 3c 7c af bc 66 b0 a5 bb
       -0.017491125 -0.0009867793 -0.021421544 -0.0050564287
0003e0 4a 06 25 3c fb e7 b9 3c 32 b1 7b ba a1 7a e2 3a
       0.0100723 0.022693625 -0.00096012943 0.0017278978
0003f0 00 a7 9a 3c 10 08 08 bc cf 0d a9 3c 13 b9 1d 3c
       0.01887846 -0.0083027035 0.020636467 0.009626645

action_model._discrete_distribution.branches.0.bias f4 [2]
000000 8e ec 60 bc 8e ec 60 3c
       -0.013728274 0.013728274

action_model._discrete_distribution.branches.1.weight f4 [3, 128]
000000 5c 3f a7 3b a0 71 bb 3b 69 f4 b0 3b 5d e6 9a 3c
       0.0051039886 0.0057203323 0.0054002297 0.018908674
000010 7a 3f 95 bc f0 9f 83 3c bb d4 c6 bb 6a 96 e1 b9
       -0.018218745 0.016067475 -0.00606784 -0.0004302741
000020 d1 76 1f bb 2b c7 9e 3c a2 dc b5 3c cc 3f bf bc
       -0.0024332295 0.01938208 0.022199932 -0.02334585
000030 17 4a f3 bc 96 c0 eb 3b 4f 32 c9 bb de e5 20 bc
       -0.029698415 0.007194589 -0.0061400305 -0.00982043
000040 80 ab 2f bb 81 90 12 3c 96 a7 45 3c fb e9 bd bb
       -0.0026805103 0.008945585 0.012063881 -0.005795715
000050 b3 48 f7 bc fe db 6e 3b 2f f0 b7 b9 1e 1e 98 3c
       -0.030186033 0.0036447044 -0.0003508343 0.018569048
000060 eb 4b 83 3c a7 f4 d3 38 c1 a7 36 bc 77 94 d1 3c
       0.016027411 0.00010106834 -0.011148394 0.025583489
000070 63 7e 58 bc aa cb b4 3c 9d 74 e7 bc 61 9a 94 3c
       -0.013213727 0.02206977 -0.028253848 0.01814002
000080 2a 81 34 3b 28 81 db bc 35 9a 83 b9 19 cd 17 3b
       0.0027542808 -0.026794985 -0.0002510116 0.002316302
000090 5d 05 da 3c e5 04 28 3c 19 72 0b 3d 93 2f a4 bc
       0.026613886 0.010255073 0.03404436 -0.020042216
0000a0 55 fd ce 3c 20 b1 64 3b be 97 2b bd 9c 5a 78 bb
       0.025267283 0.0034895614 -0.04189276 -0.0037895804
0000b0 34 06 a1 3b d6 4f 3a bc e5 ee 29 bc c8 f3 3a bb
       0.0049140695 -0.011371573 -0.010371898 -0.0028526653
0000c0 ed b2 08 bd bb a6 1c 3d 8f 87 b6 bc a7 49 d3 3c
       -0.033373762 0.038244944 -0.022281436 0.025791956
0000d0 cd 12 b1 3b 4d f2 0d 3d ff 65 cc bc e8 07 84 3c
       0.0054038526 0.034654904 -0.02495098 0.016117051
0000e0 26 f2 93 3c fb 7e 98 bb b3 c9 07 3c 3d 95 fb bc
       0.018059801 -0.004653809 0.008287835 -0.03071081
0000f0 a6 1c 63 3c c5 8c 0a 3d d1 3b a6 bb a4 16 12 3c
       0.013861811 0.033825655 -0.0050730486 0.008916531
000100 f0 5b f8 3a f6 0b c2 bc c5 ca 8a 3c dd 10 f2 bc
       0.0018948298 -0.023687344 0.016942391 -0.029549057
000110 e4 ca 8c 3c e0 5a d6 bc 85 b1 33 3b 25 c9 93 3c
       0.01718659 -0.02616638 0.0027419042 0.01804025
000120 34 c3 4a bc fe d3 49 3b 67 fa a3 bc 00 34 df 39
       -0.012375642 0.0030796523 -0.020016862 0.00042572618
000130 a0 17 c1 3b 27 d4 05 ba 2c fd c5 bc 11 77 0a bc
       0.005892709 -0.00051051605 -0.024168573 -0.008451239
000140 f3 25 83 3c 95 71 f2 bc 43 c4 9a 3b ff cb 15 3d
       0.016009307 -0.029595176 0.0047231033 0.0365715
000150 62 ad df 3b ac 28 af bc a3 f3 31 bb 6c 1e 52 bc
       0.0068260888 -0.021381699 -0.0027153275 -0.012824636
000160 2a 38 a3 3c e9 61 52 bc 2a fb dd bc 8b d3 a6 bb
       0.019924242 -0.012840726 -0.027097303 -0.005091136
000170 3f f4 2a bb af 70 c8 b9 0e bf b6 bb 6a e3 48 3b
       -0.0026085523 -0.00038230928 -0.0055769747 0.0030653127
000180 94 44 c7 bc 82 c4 11 3a a0 d8 c0 bc 55 ae a5 3c
       -0.024324693 0.0005560593 -0.023540795 0.02022473
000190 28 9f 29 bb 0a 12 15 3c 49 22 cc bc a6 6f 9a 3a
       -0.0025882218 0.009098539 -0.024918692 0.0011782541
0001a0 79 ef b4 3b c5 86 04 3c ae 58 74 3b 16 0b fd 3a
       0.0055217114 0.008088772 0.0037284303 0.0019305672
0001b0 b1 cf bd 3b 77 c4 75 3c ac 9e 19 38 86 54 4d 3c
       0.005792581 0.015000454 3.6625817e-05 0.012532359
0001c0 13 19 cd 3c b8 d9 b5 3c 02 7b f9 3b 8e 92 c6 3b
       0.02503637 0.022198543 0.0076135406 0.006059951
0001d0 e6 55 7a bc 00 5a 8e 3c 29 07 c0 bb 9b d7 cd bb
       -0.015279269 0.0173769 -0.0058602286 -0.0062818057
0001e0 fb 53 8b 3c 57 ee 57 bb 30 82 26 bc b0 f5 8d b9
       0.017007818 -0.0032948458 -0.010162875 -0.00027076667
0001f0 ed 24 a8 3b 85 18 98 3b e3 0a a5 bb 5b 0f 11 bb
       0.005131355 0.004641595 -0.005036698 -0.0022134397
000200 dd e2 1e bc 25 b5 e7 3c 4a ac 91 bc c6 41 27 bc
       -0.009697643 0.028284619 -0.01778235 -0.010208553
000210 7f c6 6f bc c3 20 0f 3c a2 b1 0f 3b be 79 1c bc
       -0.0146347275 0.008735838 0.0021925946 -0.00955051
000220 e9 9b ee 3b a0 71 df bb 2a 99 87 3c eb 68 52 38
       0.0072817695 -0.006818965 0.016552527 5.0165614e-05
000230 7b 69 3e 3c 95 2b ff ba ca 7d 26 3c 8f d0 ea 3c
       0.011621828 -0.0019467945 0.010161826 0.028663902
000240 09 3e a7 bb 96 50 18 3b a4 54 09 bc 59 83 1f 3c
       -0.0051038307 0.0023241392 -0.008381996 0.009735906
000250 f7 4b 15 bc 89 09 36 bb 7a 78 0a 3b be 71 db bb
       -0.00911235 -0.002777668 0.0021128939 -0.0066969087
000260 a7 a0 9c 3b 42 f0 47 bc cc 85 1f bb cc e8 6d bb
       0.0047798934 -0.012203278 -0.0024341224 -0.0036302088
000270 53 90 5f 3b 08 1d 43 bc b5 6d b1 3a f0 ac 81 3c
       0.0034113124 -0.011908777 0.0013536724 0.015829533
000280 5c 25 31 bb c2 d9 4e bb aa d6 0a 3a be 91 e4 3c
       -0.0027030325 -0.00315629 0.00052962697 0.027901527
000290 4b 67 c6 3c b9 18 af 3b 2c fd 0a 3d b8 b9 f3 3b
       0.024219176 0.0053435233 0.03393285 0.007437911
0002a0 42 10 32 3c a2 fc b0 ba 39 be e0 ba 6b 45 77 bc
       0.010868134 -0.0013503025 -0.0017146535 -0.015092234
0002b0 1c 9b 0b bc 6f 14 15 3b cc d0 c5 bb cc 4b 07 3c
       -0.008520868 0.0022747775 -0.0060368534 0.0082578175
0002c0 19 c4 4e bb 09 34 40 39 15 b5 31 bb 5d 1c d3 3c
       -0.0031549989 0.00018329931 -0.002711599 0.02577036
0002d0 b0 3c d1 bc d2 cf 96 3c 28 ec fa bc 30 e4 89 3a
       -0.025541633 0.018409643 -0.030630186 0.0010520276
0002e0 8a be b0 3c 40 0d 6f 3c ac 8f 44 bc bc c0 f1 3c
       0.021575231 0.014590561 -0.011997145 0.029510848
0002f0 cc b0 1e 3d fe 9d 82 3c 8a 95 cc 3c ca 7b d6 3b
       0.038742825 0.015944477 0.02497365 0.0065455185
000300 da 68 bd bc 8b 29 83 3c d2 ae 1b bc d4 7a 99 3c
       -0.023121286 0.01601102 -0.00950213 0.018735327
000310 88 5e 34 bc 67 d2 ef 3b ad 0c a4 bb dd ed 33 3b
       -0.011008866 0.007318783 -0.005006394 0.002745501
000320 a4 6c 82 3c bb 99 52 3a 3f 56 db 3c fe bf 85 bc
       0.015920945 0.0008033772 0.026774524 -0.0163269
000330 83 ce e2 3a ad e4 3e bc be 7b 44 3c e7 8e 9c 3c
       0.0017303977 -0.0116512 0.011992393 0.01911111
000340 25 f9 23 bb 01 ad 83 3c 3a 80 a5 bb d6 09 27 3c
       -0.0025020328 0.016073706 -0.005050686 0.010195216
000350 84 d0 d4 bb d8 59 d0 3c 93 a7 0c 3c 65 13 4a 3c
       -0.0064945836 0.025433466 0.008584875 0.012333726
000360 25 92 9d 3c 93 6b 6d bc 61 6c 8a 3b 86 96 86 3c
       0.019234726 -0.01449098 0.0042243456 0.016429197
000370 bf 99 9f bb 25 52 e1 3b 9e 09 bc 3a 09 f1 a9 39
       -0.004870623 0.0068762475 0.0014346128 0.00032413777
000380 6f 3d 8e 3b d8 6d 9a 39 3c ec 91 3c 9c d3 df 3c
       0.0043408195 0.0002945501 0.01781284 0.027322583
000390 fd 03 da 3b b4 61 b1 3c 5c 8f ff 3b 88 18 1d bc
       0.0066533075 0.021653034 0.007799072 -0.009588368
0003a0 bc 4b 96 bb 21 79 a6 3c a7 6d 92 3b b4 25 b2 3c
       -0.004586665 0.02032143 0.004468638 0.021746494
0003b0 81 60 1a bc 52 65 af 3c 20 69 9d 3c fd fe 0a 39
       -0.009422422 0.021410618 0.019215167 0.00013255696
0003c0 f1 7a 20 bc e3 4d 16 3c 3d f7 4c bc f8 ff a3 3b
       -0.0097949365 0.009173843 -0.012510118 0.005004879
0003d0 ac 70 65 bc 96 0f 93 3b 12 d6 9f 3c b4 7f b0 bb
       -0.014003914 0.004487942 0.019511256 -0.005386317
0003e0 31 b1 d4 3c dd 37 81 bb 39 10 dd 3c cd 6c f9 3a
       0.025963398 -0.003943427 0.026985275 0.0019029618
0003f0 df fb 1d 3c 94 a1 aa 3b b1 c6 ab 3c 0c 1b 5e 3c
       0.00964257 0.00520725 0.020968767 0.013556253

action_model._discrete_distribution.branches.1.bias f4 [3]
000000 d0 72 ca bb 81 5d 88 ba 71 a8 7b 3c
       -0.0061782375 -0.0010403843 0.015359984
