results/old/Test00001/Drive.onnx (onnx, 87763 bytes, 9 tensors)

discrete_act_size_vector f4 [1, 2]
000000 00 00 00 40 00 00 40 40
       2.0 3.0

network_body._body_endoder.seq_layers.0.weight f4 [128, 30]
000000 10 da 22 bc 3e 27 5c 3d 18 fb f1 bd 6c 8d 93 3e
       -0.009939685 0.05374836 -0.118154705 0.28818834
000010 50 66 0b be ce a0 de 3d b0 42 06 bd 69 14 db 3d
       -0.13613248 0.10870515 -0.032778442 0.10697252
000020 52 f9 8a bd d3 7a c1 be fe 9c 02 3e 20 9b f6 3e
       -0.06785835 -0.3778902 0.127552 0.48165226
000030 52 7f 86 bd f2 1e f0 3e 3d 98 ad bd 47 1d c8 be
       -0.06567253 0.4689861 -0.08476303 -0.39084837
000040 a1 29 1c 3e 47 6c d4 3d bf 3e e4 3e 0f a4 84 3e
       0.15250255 0.10372215 0.4457912 0.25906417
000050 b7 bb 5a bf 0d 01 e6 3d 4d 22 a7 3e 2c 54 40 be
       -0.8544268 0.11230669 0.32643357 -0.18782109
000060 3d 58 43 bd 27 b5 66 3d 73 ac f8 bd fd a1 79 be
       -0.047691572 0.056325104 -0.12142267 -0.243782
000070 9a 5a 7c 3d ff c0 8b 3e e5 53 87 3e 2f ff 8a be
       0.061609842 0.27295682 0.26431194 -0.27147815
000080 09 dd d9 be 7f 94 bf 3e 2c 7d fe bd 94 aa 9f 3e
       -0.4255145 0.3741798 -0.124262184 0.31184828
000090 fe c4 3b 3e a6 32 46 be 72 67 43 3e ab f4 60 3d
       0.18336865 -0.19355258 0.1908243 0.054920834
0000a0 6e c1 80 be 54 bf 6c bb 12 75 99 3d 45 e6 7c 3e
       -0.25147575 -0.0036124783 0.074930325 0.24697216
0000b0 3a 2a 6a 3d f7 f5 af bd 41 3c ad bd 14 54 26 3e
       0.057169177 -0.08591836 -0.08458758 0.16243011
0000c0 f9 94 ab be 07 8e d2 3d 35 39 a5 3e 3e 59 8e 3d
       -0.33512095 0.10280996 0.32270208 0.06950615
0000d0 af 98 1c be 1b 5c 14 be c7 bc e7 3e 17 aa 25 3e
       -0.15292619 -0.1448826 0.45261213 0.16178165
0000e0 fb 6b a8 be 09 2f be 3d e2 35 ad be 3f 9c 3a bd
       -0.32894883 0.09286315 -0.33830172 -0.045559164
0000f0 2d 47 02 3e f1 d6 87 3e 13 57 2e be cf 0c 2d be
       0.12722464 0.26531175 -0.17025404 -0.16899417
000100 67 a9 01 3e 05 02 02 3f f4 9a ea bd f6 d3 85 3e
       0.12662278 0.5078433 -0.11455336 0.26138276
000110 e8 a5 a3 3e 80 3c ef 3e 45 4a b4 3c 08 1b bc 3e
       0.31962514 0.46725845 0.02200807 0.36739373
000120 00 09 1e be 74 64 aa 3e 9d a2 13 bd 63 05 fd 3d
       -0.1543312 0.33279765 -0.036043752 0.12354543
000130 06 49 3c be de 70 7a 3e 1f 1c c9 bd d1 db 0f 3e
       -0.18387231 0.24457118 -0.09819817 0.14048697
000140 fa 33 f4 3e 34 20 41 be 4c 7a 4c 3e c1 24 d2 3e
       0.47695905 -0.18859941 0.19968528 0.41043666
000150 67 91 80 3d 97 1a d3 3e 6a aa 81 3d f3 e7 1e 3b
       0.06277733 0.41231224 0.06331332 0.002424714
000160 da fb 88 be a4 90 78 bd 2b 32 03 be 41 0d e9 bd
       -0.26754647 -0.060684815 -0.12812106 -0.11379481
000170 58 b5 07 3e 73 ab 61 be 6f b9 c3 3d 35 c5 ca 3e
       0.13252771 -0.22038059 0.09556853 0.39603582
000180 5d dc 7e 3e c8 a3 80 3e 01 e2 83 be d7 51 7b be
       0.2488875 0.25124955 -0.25758365 -0.24542938
000190 72 ba 16 3e 5e ac 5b 3d e6 6d c2 3d ed 56 24 3f
       0.1471956 0.05363118 0.09493618 0.6419514
0001a0 3c 24 cc 3d f3 9e c0 3d e4 d0 1d be 51 fd bc 3d
       0.09967849 0.09405317 -0.15411717 0.09228004
0001b0 c0 d2 7f 3d 72 66 99 bd ef 87 35 3d 40 80 70 3e
       0.062456846 -0.07490243 0.04431909 0.23486423
0001c0 89 23 28 3f 19 77 a4 be e9 c9 64 3e 4f 6b 86 3c
       0.6567922 -0.32122114 0.22342648 0.01640859
0001d0 53 5c de 3d f0 37 0c bc 14 9e 83 3e b7 23 3f bd
       0.10857453 -0.008558258 0.25706542 -0.04666492
0001e0 d1 4b bc 3e 6a bb 50 3d 2f 5d d6 be 14 3d 52 be
       0.36776593 0.050959982 -0.41867968 -0.20531112
0001f0 d5 06 b6 3e 2a 98 6f bd b6 74 02 bf 5d 98 04 be
       0.35552087 -0.058494724 -0.50959337 -0.12948747
000200 47 e6 4c bd 29 60 0a be 4e d7 7c be 8d 51 a7 3d
       -0.050024297 -0.13513245 -0.24691507 0.081698515
000210 61 06 f1 3d f6 a7 36 3e 74 a6 04 bf aa fd 7e be
       0.11768795 0.1783751 -0.5181649 -0.24901453
000220 13 be 37 3e 83 78 06 3c f0 57 3a 3e 14 be 64 3d
       0.17943601 0.008207443 0.18197608 0.055845335
000230 ea b9 92 3e 18 c7 11 3e 12 94 08 bf e4 a0 49 be
       0.28657466 0.14236104 -0.5335094 -0.19690281
000240 1f 34 3d 3f 81 4c 33 be 8a b9 75 3e 22 e9 18 3e
       0.73907655 -0.17509653 0.23996559 0.14932683
000250 44 b0 5a 3e 87 78 9d bd 7f 56 28 bd bb 24 49 bf
       0.21356302 -0.076890044 -0.041098114 -0.7857167
000260 95 5d b1 3e 1f 89 5a be fe 0b 07 be 83 e1 49 3d
       0.3464171 -0.2134137 -0.13188168 0.04928733
000270 c0 de c6 3e e5 c5 0c bf ba 7b 76 3d 40 95 c8 be
       0.3884182 -0.54989463 0.06017659 -0.3917637
000280 40 c9 27 3d 6f 90 25 bd a6 eb f9 bd fd 08 05 bf
       0.04096341 -0.040420946 -0.122031495 -0.5196684
000290 57 72 a7 3e a4 66 0e bc 00 c9 8a be bf ec 66 be
       0.32704422 -0.008691464 -0.27106476 -0.22551249
0002a0 35 1e dd 3d ba 14 64 3c 6e 89 79 3c 3d 9a 6f be
       0.10796777 0.013920957 0.01523052 -0.23398681
0002b0 e6 99 e7 3e 5d 73 67 be 60 4a 58 be 1a e3 4b bd
       0.45234603 -0.22602601 -0.21122122 -0.049777128
0002c0 b1 74 34 bd 5e f3 2b be d4 cc 1c 3e 36 d3 04 3e
       -0.044056598 -0.16792056 0.1531251 0.12971196
0002d0 97 79 7b 3e b2 35 1a 3f d2 78 4f be fa bc 54 be
       0.24558102 0.6023818 -0.20260933 -0.20775214
0002e0 c0 1d 8f 3e 3c 1f c1 bd d0 eb 65 3d 47 e1 74 3e
       0.27952385 -0.094297856 0.05613309 0.23914061
0002f0 dd e4 ae 3e 51 41 5d 3d 8a 56 52 be 79 e5 01 be
       0.34158984 0.05401737 -0.20540825 -0.12685193
000300 15 80 bb 3e 91 d9 0b 3b a2 0b 8c 3e c1 5d ab 3e
       0.36621156 0.0021339396 0.27352625 0.33469966
000310 73 71 60 3e f9 30 31 3e 29 8c 84 3e 52 ba aa bc
       0.21918277 0.17303838 0.25888184 -0.020840798
000320 d3 dc 9f 3e 80 b0 f6 3d 1d d7 16 3e 0f f1 ae 3e
       0.31223163 0.120453835 0.14730497 0.34168288
000330 0f 3e 60 3d e5 44 ba 3e 92 4f 0f 3e 7d b6 71 be
       0.054746684 0.36380687 0.13995197 -0.2360477
000340 da 8b 46 be fe 0c 4f 3b 06 7b 76 3e 82 5c 0a bf
       -0.19389287 0.0031593437 0.24070367 -0.54047406
000350 91 5a ea be 14 94 4e be 09 6b 56 3e 93 7b d5 be
       -0.45772222 -0.20173675 0.20939268 -0.41695842
000360 ac 46 a5 be 8b 7d 95 bc 54 fd 9b 3e 75 9e b1 bd
       -0.3228048 -0.01824834 0.30466712 -0.086728014
000370 17 35 8b bd 2d f4 ff 3d 30 30 c3 3e 7a b0 b2 be
       -0.067972355 0.12497745 0.38122702 -0.34900266
000380 7f 71 b4 be 93 7a 4e 3e d3 c9 1c 3f 1d 2a 4b bd
       -0.3524284 0.20163946 0.6124546 -0.04960071
000390 78 7f bc 3b 66 05 20 3f a2 9b 35 3e 87 31 ba bd
       0.0057525 0.6250824 0.1773515 -0.09091478
0003a0 1f fe 12 bf 48 7a df bd 5d 69 96 3e 68 93 93 bd
       -0.5741901 -0.10911995 0.2937726 -0.0720585
0003b0 c4 6b 38 be 23 44 6e 3f 11 8b ac 3e ec 67 a0 bc
       -0.1800986 0.9307272 0.3369985 -0.019580804
0003c0 a7 34 d4 bd 57 e9 22 3f 32 62 03 bf 50 ce a2 3e
       -0.10361605 0.636373 -0.5132171 0.3179803
0003d0 b3 60 84 be 61 c1 b3 3d 62 65 4d 3d bb 82 ee 3d
       -0.25855026 0.087771185 0.050145514 0.116460286
0003e0 2d 82 d1 3d fd a1 e0 3d f0 7c 90 be 6d c8 cf bc
       0.10229907 0.10968397 -0.2822032 -0.025364125
0003f0 84 d6 ce bd 7b cf 9f 3e 2d 46 2f be 3d 1a 6c 3e
       -0.10099509 0.31212983 -0.17116614 0.23056884

network_body._body_endoder.seq_layers.0.bias f4 [128]
000000 a6 8e da 3c 30 a2 04 3e 7c 89 5c 3d ac 9c 9f 3d
       0.026679348 0.12952495 0.053842053 0.07793555
000010 7a 78 f2 3d da 5f 81 bd 61 2a 0f 3e 28 c6 13 3e
       0.11839385 -0.0631711 0.1398101 0.1443106
000020 d5 1b 8e 3d 37 b3 f2 3d 16 13 ff 3c 69 94 0e 3e
       0.06938902 0.11850589 0.03113703 0.13923801
000030 6c 24 ad bd 19 33 8d bd 9e ce e2 3b 22 36 34 3d
       -0.084542125 -0.06894512 0.0069216033 0.043996938
000040 87 6e bd 3d 21 9d c2 3d 80 3c a9 3d 6f 53 ca 3d
       0.09249597 0.09502626 0.082634926 0.09879195
000050 d6 dc 92 3d 17 57 86 3d cf cf 28 bd 5f 6a 25 be
       0.07171027 0.0655958 -0.041213807 -0.16153859
000060 2f 1e 56 bd 60 b2 db 3c 21 30 94 3d 1b 4c a7 3c
       -0.05227488 0.026818454 0.07235742 0.020422032
000070 d0 c3 83 bc 07 25 8a 3c 87 8c 31 3d 11 b2 0a 3e
       -0.016084582 0.01686336 0.043346908 0.1354449
000080 a6 5f 07 3d f3 ea 74 3d 13 58 fe 3d de e1 ea 3b
       0.0330502 0.059794378 0.124191426 0.0071680387
000090 69 80 35 bd 6c 8b b7 3d e2 d6 00 3e 52 30 2e bc
       -0.044311915 0.089621395 0.12581971 -0.010631638
0000a0 45 a8 4a bb 83 25 59 3d 2f 20 cf 3c 87 02 d9 bd
       -0.003092305 0.05301429 0.025283901 -0.10596185
0000b0 36 4c 2e 3e 9d 77 72 3d d3 a9 19 bc 70 df 74 3d
       0.1702126 0.059196103 -0.009378868 0.0597834
0000c0 1c e1 b5 3d 46 1f 98 3d 0e 9b b5 bb a1 f7 94 3d
       0.08880827 0.0742784 -0.0055421656 0.07273794
0000d0 46 e9 cc bd 75 77 e9 3d a6 a8 91 bd 0e 8f d0 bc
       -0.10005431 0.11399738 -0.07112245 -0.025458839
0000e0 a5 b5 a3 3e c8 d9 eb bd 2d 0f 83 3d 7d b4 42 3d
       0.3197452 -0.11516148 0.06399379 0.04753541
0000f0 00 17 e6 3d 12 dd 51 3d ce 47 57 3d eb 96 2c 3c
       0.11234856 0.05123622 0.052558713 0.0105340285
000100 07 73 7d 3d 37 32 8d 3a 67 79 db bd af 5b 0b 3d
       0.061877277 0.0010772411 -0.10716515 0.034022983
000110 e2 c6 a3 bc 6c 4b e6 bd 9e 05 ee bc 61 44 01 3e
       -0.019992296 -0.11244854 -0.029055413 0.1262374
000120 78 70 68 bc 45 f7 41 bd 76 01 1e 3e b5 60 54 bd
       -0.014186971 -0.047354955 0.15430245 -0.05185004
000130 44 41 0e bd 99 c1 aa bd e8 eb 26 bd 54 b8 1c 3e
       -0.03473021 -0.08337707 -0.04075232 0.1530469
000140 27 4d 75 bc a8 3e eb 3d aa 46 ad 3d 04 44 aa bc
       -0.014972008 0.1148656 0.08460744 -0.020784386
000150 53 9c 2f 3d ff cc 49 3d 91 49 82 3d d0 b5 46 3d
       0.04287369 0.049267765 0.06361688 0.048513234
000160 33 06 f4 bc 2b b5 23 bd b6 9b 9c 3c 27 08 94 3d
       -0.029788112 -0.039967697 0.019117218 0.072281174
000170 11 36 1b 3d 4b b0 a9 bd 03 23 83 3d 4d 80 a7 bd
       0.03789336 -0.08285578 0.06403162 -0.08178768
000180 79 1e a8 3d f4 e2 80 3c 98 04 e7 3d e2 48 1f 3d
       0.08208937 0.01573322 0.11280173 0.038887866
000190 6f 3f 39 3d 16 ca f0 3b 9e 64 ba 3c fa 5c 4d 3d
       0.04522651 0.0073483093 0.022753056 0.050137497
0001a0 a6 0d 83 3d 94 31 35 bd b4 91 29 3d ee a4 5f bd
       0.063990876 -0.044236735 0.04139872 -0.05460065
0001b0 a6 b0 90 3d 6b 0a 5b bc 55 8d 31 3a f2 9b d3 3d
       0.07064943 -0.013369183 0.0006773074 0.103324786
0001c0 3b dc 16 bd 48 25 ec bc 28 a9 7a bd 32 0b cd bc
       -0.036831122 -0.02882637 -0.061196476 -0.025029752
0001d0 84 3f ce 3d d4 95 3b 3b 19 7d ae 3d 03 04 0a 3c
       0.100707084 0.002862324 0.08519954 0.008423808
0001e0 40 cc 5d bd c8 83 6c bd 35 e6 96 3d 67 16 87 3c
       -0.054149866 -0.057742864 0.07368127 0.016490174
0001f0 b3 8a 4c bd 77 b3 93 3c 35 03 ef 3d 4e 54 d1 bc
       -0.04993696 0.018029911 0.116705336 -0.025552895

network_body._body_endoder.seq_layers.2.weight f4 [128, 128]
000000 5f e2 85 bc 7a 95 71 be 5b 42 8c 3d dc b7 88 3d
       -0.016343294 -0.23592177 0.06848594 0.066756934
000010 e7 7c 0c bd 50 83 46 3c e4 d7 69 3d 53 69 d1 3d
       -0.034298804 0.012116268 0.057090655 0.10225167
000020 be e2 1f 3e f1 82 69 3e e1 8f 3b 3e e8 d5 27 be
       0.15613839 0.22803856 0.18316604 -0.16390193
000030 d8 f7 11 3d f5 84 e7 bd ed 7a 23 3e 95 6d d8 bc
       0.035636753 -0.113046564 0.15964861 -0.02641944
000040 17 a7 5c bc 6c e6 5c 3e 3d da fb bd 5a aa 23 3e
       -0.013467572 0.21572274 -0.12297485 0.15982953
000050 78 b1 07 bc c9 1a 42 3e 81 fa 77 3d 2a 61 4f 3d
       -0.008282058 0.1895553 0.060541634 0.050629772
000060 2a b2 27 bd 1f 24 9a bc f4 4a 61 bd e4 23 71 3c
       -0.040941395 -0.018816052 -0.05500312 0.01471803
000070 2b 51 88 3d 08 a8 6b 3d d5 08 f6 bc dd 35 35 3d
       0.066561066 0.057533294 -0.030033508 0.04424082
000080 cd c6 a6 3d d7 17 65 bd 8c da a8 3d 8c 7d 4d 3d
       0.08143387 -0.05593094 0.082448095 0.05016856
000090 b4 47 0f 3e c2 a7 ae 3b 0f e7 e5 3d c9 b0 83 3e
       0.13992196 0.005330057 0.112257116 0.25720814
0000a0 3f 3e 94 3c b9 e8 53 bd 06 7f 52 3d 4e 84 af bd
       0.018096088 -0.051735613 0.05139067 -0.08570157
0000b0 3a e3 44 3e 02 a1 87 3d e4 27 86 bd 46 b0 dc 3c
       0.19227305 0.06622507 -0.06550577 0.026939522
0000c0 25 5b 00 bd 18 11 b5 3d 91 7c cd 3c e1 5b 0e 3d
       -0.031336922 0.08841151 0.025083812 0.03475559
0000d0 09 8f c8 3d 50 b6 14 bd 65 ae a9 3d 0e cc 06 3d
       0.09792907 -0.03630668 0.08285216 0.032909445
0000e0 88 96 2a 3e 95 58 9c bd 62 2b c6 bc 41 f8 5e 3d
       0.16658986 -0.07634083 -0.024190608 0.054435972
0000f0 53 31 ad 3d 1c 86 94 3c b7 ca 0c 3e 3f 50 e1 bc
       0.084566735 0.018130355 0.13749205 -0.027504085
000100 00 85 4f 3d 59 22 62 3d fc 25 95 3d 08 e7 16 3e
       0.050663948 0.055208538 0.072826356 0.14736569
000110 6e 2d 90 3d e5 db 6c bd cb 23 40 3d 7c 94 6e 3e
       0.07039915 -0.057826895 0.046909135 0.2329883
000120 46 2b ab bd af d2 72 bd 3e 86 5a bd e1 a8 47 bd
       -0.08357863 -0.059282955 -0.05335068 -0.04874504
000130 75 3f ea bd 2f 0d 26 bd e3 ab 25 bc fe 5b 1d 3e
       -0.11437885 -0.040539917 -0.010111782 0.15367123
000140 09 9e bb bc fe d7 53 3e 98 21 28 3e 0c 61 30 3c
       -0.022902505 0.20687863 0.16419065 0.010765325
000150 00 37 e6 3d d9 d8 2f 3e 4e 48 4c 3e b5 bd e4 3c
       0.11240959 0.17172565 0.19949457 0.02792249
000160 ae e7 84 3d 4c 4c a8 3d 53 2d 1d 3e 4f 5b e2 bd
       0.06489502 0.082176775 0.15349321 -0.11052572
000170 5f 1e f7 3d 76 1c b0 3c a4 45 d6 3d 98 69 85 3c
       0.1206634 0.021497946 0.10462502 0.016285703
000180 b6 4b 04 be 81 82 97 bd 8f be 33 3e 1e bc 16 3e
       -0.12919506 -0.073979385 0.17553161 0.14720199
000190 d4 e6 73 3e d5 28 62 3e 11 08 8b bd b6 63 fd 3d
       0.23818523 0.22085889 -0.06788648 0.12372534
0001a0 2f d5 ac 3d 78 2d 21 be 3e fd dc bd 85 7c 03 3d
       0.08439099 -0.15740001 -0.107904896 0.032101173
0001b0 4f 73 0d 3e 72 4d 9b bd 37 47 78 3e f6 96 24 be
       0.13813518 -0.07583131 0.24245916 -0.16073212
0001c0 e4 7b 46 bd a6 5a f9 3d 8f 3e d1 3c 43 99 d2 3d
       -0.048457995 0.12175493 0.025542526 0.102831386
0001d0 28 c9 37 3d 29 ed a3 3d 3b 76 4e bd f6 76 ae bc
       0.044869572 0.08004219 -0.050405722 -0.02129696
0001e0 20 80 54 3c ca 97 1b 3d 8f 42 02 3d 51 b9 de 3d
       0.0129700005 0.037986554 0.031801756 0.1087519
0001f0 dd df 1e bd 85 06 cc bc 57 83 10 3e 07 22 bd bc
       -0.03878771 -0.024905453 0.14112602 -0.023087515
000200 92 3c 2b bd d4 9d f2 3d 08 88 41 be 3a 9e 20 bc
       -0.04180581 0.118465096 -0.18899548 -0.009803349
000210 d8 1f 10 3e 87 42 99 3d d6 22 8e 3d f1 1d 3f be
       0.14074647 0.07483392 0.06940238 -0.18663765
000220 8f 66 5c be d4 f1 03 be 49 a5 30 be 6f cc 44 3e
       -0.21523498 -0.12885219 -0.17250551 0.1921861
000230 72 af 99 bd f7 90 3d be f2 91 0e be bf c5 8b 3d
       -0.07504167 -0.18512331 -0.13922861 0.068248264
000240 9b f2 79 3d 65 6d 82 be b8 21 ef 3d 42 8b d6 bd
       0.061022382 -0.25474086 0.11676353 -0.1047578
000250 48 84 b7 bc 05 04 02 be 07 d2 17 3c 97 a0 a1 bc
       -0.022401944 -0.12696846 0.009266383 -0.019729896
000260 e9 7d bb bd b4 54 17 be ca 32 7b 3e ac c2 37 be
       -0.09154875 -0.14778405 0.24531093 -0.17945355
000270 4e 03 80 3c 81 88 b4 bc 4d c8 ca 3d 03 87 14 be
       0.015626576 -0.022037746 0.099014856 -0.14504628
000280 7c 3a be be 6b 3e 1a be 6e c4 3c 3e 2a f9 21 3d
       -0.37153995 -0.15062873 0.18434307 0.039544262
000290 7d ed a4 bd c5 a8 f1 3d 77 d8 97 be fb bd 17 be
       -0.0805311 0.11799768 -0.29657337 -0.14818566
0002a0 2d c6 93 be 2f c7 15 3e f9 55 17 be 49 8b 88 bd
       -0.28862134 0.14626764 -0.1477889 -0.066671915
0002b0 81 68 91 bd 8d 03 96 bc 8e 3c 0f bc 29 77 33 3e
       -0.07100011 -0.01831224 -0.008742465 0.17525925
0002c0 39 06 8f bd fb 85 e1 3d fc 39 87 3d fb ff d5 3c
       -0.06983609 0.11011883 0.066028565 0.026123038
0002d0 77 63 d7 bd a5 7f c5 3d 20 06 31 be 4a 1f c5 3c
       -0.10517018 0.09643487 -0.17287493 0.024062771
0002e0 73 d5 b9 3d a5 f4 de 3d 03 d6 8d be 17 a3 ac 3d
       0.09073915 0.10886506 -0.2770234 0.084295444
0002f0 5d 1e e7 3d a8 02 d2 3d 17 5b b7 be 89 37 7b bd
       0.11285088 0.10254413 -0.35811684 -0.06133226
000300 3f d9 19 be 20 58 5a 3c a7 db a2 bd 37 23 fd 3c
       -0.15024279 0.013326675 -0.079520516 0.03090058
000310 35 bc ce 3c 4e ec f5 bd 30 e0 c2 bd 30 a1 99 be
       0.025236228 -0.12007962 -0.095154166 -0.3000579
000320 a8 ec 2b be 7b f6 a5 bd da 08 df bd 44 b1 3b bd
       -0.16789496 -0.08103653 -0.1089036 -0.04582335
000330 cd bd 8f bd 6e 2a 90 bc 3a 87 32 3c b8 62 24 3e
       -0.070186235 -0.017598357 0.010896498 0.16053283
000340 d0 c5 af 3c 7c 27 af be 4f a0 a3 bc 69 38 02 3e
       0.021456629 -0.34209812 -0.019973902 0.12716831
000350 ea ba 41 be 4c 49 6c be 7d fd 63 be 19 94 c7 be
       -0.18918958 -0.23074836 -0.22264667 -0.38980177
000360 cb d6 99 bc 59 54 08 bd 94 21 69 bc 3b 03 75 be
       -0.01877918 -0.033283565 -0.014229197 -0.23927014
000370 ec 1d e9 bd 2f 76 0d bd 5a 12 17 be 35 54 6b be
       -0.1138266 -0.034536537 -0.14753094 -0.22981341
000380 29 7c 94 bd 33 88 ec 3d b8 2a 5e be d2 a6 8f 3c
       -0.07250244 0.115494154 -0.21695983 0.0175356
000390 f9 fe 31 be 5c f4 51 be 0d 9f 11 bd c1 b2 4e bd
       -0.1738242 -0.20503372 -0.035552073 -0.05046344
0003a0 50 91 62 3e b3 87 b4 bd c1 e6 84 bd 67 00 25 be
       0.22125745 -0.08814945 -0.06489325 -0.16113435
0003b0 6e 16 99 bd 69 4c a6 bc 28 96 0b 3e 8d 58 3c bd
       -0.07474981 -0.020300107 0.13631499 -0.045982886
0003c0 03 84 89 bc 96 a2 2e 3d 72 a4 f9 3c e2 55 ec 3d
       -0.01678658 0.042635523 0.030473921 0.11539818
0003d0 85 f2 eb 3c 65 cb eb bc 00 8f 82 3d f3 a2 3d be
       0.028802166 -0.02878351 0.06374931 -0.18519191
0003e0 cb 75 02 3d 88 58 3a be c1 8c 4d 3d 87 7f 4d be
       0.031850617 -0.18197834 0.05018306 -0.20068179
0003f0 df 55 06 3e 08 c0 53 bd 4e 8e 23 3c 01 94 9d bc
       0.13118695 -0.051696807 0.009982659 -0.019235613

network_body._body_endoder.seq_layers.2.bias f4 [128]
000000 9f d5 7f bc 4d c9 6e 3d 4e ac bd bd 28 1b af 3c
       -0.015614896 0.058297444 -0.0926138 0.021375254
000010 90 07 cb 3d f5 91 56 3c 05 8d e7 3d e9 ed a7 3b
       0.09913552 0.013096322 0.11306194 0.0051247966
000020 e3 f5 df 3c 73 e3 75 bd c3 8b cf bd a5 46 52 3d
       0.027338928 -0.060031366 -0.10134079 0.051336903
000030 9c 6c e7 3d 37 47 30 3d a1 26 cc bc 50 3e 97 3c
       0.113000125 0.043036666 -0.024920763 0.01846233
000040 ae f2 bb 3d 3e eb 87 3d 0d a3 3c 3d ea dc c0 3d
       0.09177147 0.06636666 0.046053935 0.09417136
000050 f1 c0 31 3c d2 f1 9a 3d 0f a5 bc 3d cf 72 98 3d
       0.0108492235 0.07565655 0.0921117 0.07443773
000060 e5 1a c9 3c 15 64 6e 3c ce 62 b5 3d b0 13 4b 3d
       0.024548957 0.014550229 0.08856736 0.049579322
000070 9a 75 95 3d fa 5d 93 bd a1 6b 66 3d 8a 37 2a bd
       0.07297821 -0.07195659 0.056254987 -0.041556872
000080 30 56 8e 3c 11 e8 88 3d 49 3c b9 3c 0e 03 77 bd
       0.017375082 0.06684888 0.022611754 -0.060305648
000090 e4 06 58 3c ac 52 1e 3d 37 53 e4 3d 78 ca 00 3d
       0.013185237 0.03865306 0.111486845 0.03144309
0000a0 47 90 e0 3d 28 0f 45 3d ef 7d 85 3c 08 83 f7 3c
       0.10965019 0.048110157 0.016295401 0.030213848
0000b0 88 bb f0 bc 6a 1f ac 3d 57 df 45 bd a4 8e a0 3d
       -0.029386297 0.08404429 -0.048308697 0.078397065
0000c0 ad c5 bc 3d 5d 5c d6 3c 7b 1c 19 3d 2c e3 ae 3d
       0.09217391 0.02616709 0.037380677 0.08539423
0000d0 da ce 70 3b 8b 7c af 3d f3 37 2d 3d 1c d3 ff 3b
       0.0036744387 0.085686766 0.042289685 0.0078071486
0000e0 d3 f8 a8 3d 32 a9 44 bc 3b 0b b5 3b 9e c8 86 bc
       0.082505845 -0.01200323 0.0055250204 -0.016453084
0000f0 aa e4 4b 3c be 06 2f 3b 85 c7 6b bd f7 2a e2 3c
       0.0124446545 0.00267069 -0.057563324 0.027608378
000100 66 20 b8 ba 31 47 9b 3d 1d 63 75 3d 39 0d b5 bd
       -0.0014047741 0.07581938 0.059908975 -0.08840413
000110 36 c8 8c bc ef d4 35 3c 0a 6b 76 3d f4 53 ea 3d
       -0.017185312 0.011098131 0.060160674 0.11441794
000120 e1 35 80 bd ac fb 75 3d e1 fc 9a 3c d3 fa 64 bd
       -0.062602766 0.060054466 0.01891941 -0.055903267
000130 b7 1d c6 3d d1 06 85 3d 27 74 30 3b 89 c4 fb 3c
       0.096736364 0.06495441 0.00269247 0.030733364
000140 b7 25 a9 bb e2 82 2c bd 1d bf 81 3b 99 93 3d bd
       -0.0051619667 -0.042117007 0.00395955 -0.04628334
000150 79 a3 b4 3d 23 ef 0c 3d be f4 9c 3d 3c 7c 78 3d
       0.088202424 0.034407746 0.07663868 0.060665354
000160 1b 1b b0 bd 32 9c 01 3d 96 3b 46 3d 86 5b a6 3d
       -0.0859892 0.0316431 0.04839667 0.081229255
000170 83 30 b0 3d bf a7 34 bc 73 ec f3 bb 24 fa a5 3d
       0.08603003 -0.011026322 -0.0074439584 0.08104351
000180 4b 9f df bc cd f3 2b 3c 7a a3 d1 bd 5e c1 61 bd
       -0.027297636 0.010495138 -0.10236259 -0.05511605
000190 3a 94 03 bd bb 08 85 3c 16 08 1c 3d 71 8f 98 bc
       -0.03212378 0.016239515 0.03809365 -0.018623086
0001a0 af 8b a2 3d c5 db 5e 3c b1 0d 9f 3d c7 b6 a8 bc
       0.07936799 0.013602202 0.07766283 -0.020594968
0001b0 43 58 65 3a dd 7f 8f 3d ad 47 51 bd 2c 6e 69 bd
       0.0008748809 0.0700681 -0.051093746 -0.056989834
0001c0 e2 2d 97 3d f4 f4 88 3c ee 2e 15 3e 60 c4 9f 3d
       0.07381798 0.016718365 0.14568684 0.078011274
0001d0 c7 fe 97 3d c6 e8 c6 3d be 97 23 3c 1d 3f b6 3d
       0.07421642 0.09712367 0.009984909 0.08898757
0001e0 23 1d 32 3b 4e 54 f9 bc 57 83 3c bd 8f 35 9b 3d
       0.0027178011 -0.030435707 -0.046023693 0.07578575
0001f0 25 b5 5a 3d 7d d0 9a bd 70 e3 53 3c 4a ce 1f 3c
       0.05339541 -0.07559297 0.012932643 0.009753773

action_model._discrete_distribution.branches.0.weight f4 [2, 128]
000000 a6 b1 c2 bc dc 6c 3e 3b 02 e4 b7 bc ba 68 25 3c
       -0.02376635 0.0029056584 -0.02244759 0.01009577
000010 29 6b 0e 3c a7 8d 96 bc 38 8a f9 3c 04 f4 ed bc
       0.008692541 -0.018378092 0.030461416 -0.02904702
000020 8a bd a1 bc e7 53 96 3c 22 1f 71 bc 18 02 dc bd
       -0.0197437 0.018350555 -0.014716895 -0.10742587
000030 33 ad e7 bb af 44 2b 3d 2c d8 19 3c c1 f6 14 be
       -0.0070702075 0.04181355 0.009389918 -0.14547254
000040 f4 6b 95 3c 6e db f8 bd 55 46 10 be 68 ca 02 3d
       0.018239953 -0.12151228 -0.1408933 0.03193131
000050 56 33 c8 3b be a2 4c bc 98 c6 6e bd af 83 a3 bd
       0.0061096353 -0.012489973 -0.058294863 -0.07984101
000060 f1 9f d7 3b 83 04 da bd 05 26 b1 bd 52 b7 14 be
       0.006580346 -0.10645392 -0.0864983 -0.14523056
000070 6f 6c a6 bd a9 39 d4 bc 90 29 09 be b7 1c a8 3c
       -0.08126151 -0.0259064 -0.13394761 0.020521505
000080 7b ba 66 be 3f c2 a8 bd 49 53 61 bd 9a 1a af bc
       -0.22532074 -0.082401745 -0.055011068 -0.02137499
000090 17 8b 9d 3c e2 67 3a bb 99 c1 5b be c0 76 5f 3c
       0.019231362 -0.0028443267 -0.2146057 0.013639152
0000a0 9d ab 6f bd eb b5 0d be 24 26 3d 38 34 75 37 bb
       -0.058513273 -0.13838927 4.5096633e-05 -0.0027993442
0000b0 b1 25 c3 39 ac 4a e0 bd 76 3f 04 bd 70 81 2a 3d
       0.0003722138 -0.109517425 -0.032287084 0.041627347
0000c0 d7 0c 5d bb c0 53 28 bd aa ce 33 bd fe 14 05 3d
       -0.0033729577 -0.041095495 -0.043898262 0.032490723
0000d0 12 ae 38 3b 62 a9 64 be 3a 1d 6b 3c 22 2c eb bd
       0.0028179926 -0.2233024 0.01435023 -0.11483027
0000e0 5c a4 06 3d 41 19 1e bd 52 cd a1 bd 2c 0b bb bc
       0.03287159 -0.038598303 -0.0790049 -0.022832476
0000f0 78 d9 d6 3b 5c 3e 6e 3b aa 12 a3 bd aa 2a 21 be
       0.006556686 0.0036353087 -0.07962544 -0.15738931
000100 1e e3 2c be 8d d2 1f be fc 83 61 3e fe 6f 11 bd
       -0.16883513 -0.15607662 0.22023004 -0.035507195
000110 68 7e e6 bb 84 aa e4 3d d4 ae a0 3d 4e f1 9a 3c
       -0.007034112 0.11165336 0.07845846 0.018913891
000120 04 51 b0 3b 63 5a 30 3b b3 46 14 bd 31 91 3a bb
       0.0053807516 0.0026909343 -0.036200237 -0.0028467888
000130 1c cc 54 bc 1c 6d 3d be d7 55 76 3c ea 35 3a bd
       -0.012988117 -0.18498653 0.015035114 -0.045461573
000140 ec b2 f7 3c 3e 8f 6d 3c c3 d7 41 bd d5 bd ce bc
       0.030236684 0.014499484 -0.047324907 -0.025237003
000150 70 e3 34 be 98 e3 21 be 43 65 0a bd aa 2c 08 be
       -0.17664886 -0.15809476 -0.033787977 -0.13298288
000160 fb ba 93 bc aa 6e 02 be 8b f2 86 bd 29 c3 5e be
       -0.018033495 -0.12737527 -0.0658923 -0.21754135
000170 66 53 44 be 73 7b a1 3b 9c 7c f6 bc 5f 19 4d be
       -0.19172439 0.0049280464 -0.030088715 -0.2002921
000180 13 f3 da ba d8 7a ef bc b2 3a a1 bb a8 b5 f2 bc
       -0.0016704522 -0.029233381 -0.004920327 -0.029627636
000190 01 09 07 bd 5b d9 8e bd 50 94 02 be d5 4b a4 ba
       -0.03296757 -0.06975051 -0.12751889 -0.0012534807
0001a0 c6 c7 71 3d a1 0f f7 bd ef f4 14 bd f5 e2 44 3d
       0.05902841 -0.12063528 -0.0363664 0.048068006
0001b0 a8 31 46 3b 0f cd 9f bd 5e 9d 2b bd 2d ec d7 bc
       0.0030242 -0.07802784 -0.041898124 -0.026357735
0001c0 fd 52 5b be 62 78 df bb 6a b9 56 3e e4 4c 39 be
       -0.21418376 -0.0068197707 0.20969167 -0.18095738
0001d0 07 a0 3e be 6d 8d eb bc 90 61 af bd b6 a3 19 3d
       -0.18615733 -0.02875396 -0.085635304 0.037509643
0001e0 85 21 99 3b 5d 27 59 3b 8c f6 ea bb 8d 2d 7d be
       0.0046731853 0.0033135035 -0.007170504 -0.24724407
0001f0 bb 14 38 bd de fa a4 bc fc 83 17 bc a9 f4 16 be
       -0.044941645 -0.020139154 -0.009247776 -0.14741768
000200 e2 45 d9 3c 4d 54 a1 bb 83 98 04 3d 0e cc 9e bc
       0.02652258 -0.0049233795 0.03237201 -0.01938441
000210 f0 94 18 bc 2f 2a e6 3c fc 18 83 bd f2 8b a9 3c
       -0.009312853 0.028096287 -0.0640125 0.020696614
000220 b4 63 b7 3c bf 65 88 bc 4f fb 58 3c 05 38 c5 3d
       0.02238641 -0.016650079 0.01324351 0.096298255
000230 bb b4 f4 3a 56 3d 27 bd ac 32 c6 3a 5b 44 19 3e
       0.0018669585 -0.04082998 0.0015121303 0.14967482
000240 01 fb 1b 3c 8c a7 0e 3e e2 d9 0e 3e ff b0 60 bd
       0.009520293 0.13931102 0.13950303 -0.054856297
000250 8e 95 a1 3c 54 bc 53 b8 31 d6 8c 3d ec 08 8e 3d
       0.019724634 -5.0481714e-05 0.06876791 0.069352955
000260 1f 15 48 bc 34 6d ca 3d af a2 ab 3d c6 95 1e 3e
       -0.012212067 0.0988411 0.08380639 0.15486822
000270 0a 29 c9 3d 7c 21 9b 3c 06 e9 16 3e 7b 36 9e bc
       0.09822281 0.018936865 0.14737329 -0.019313088
000280 c5 0d 53 3e 91 41 aa 3d 4b ac d9 3c f1 51 97 3c
       0.20610721 0.08313287 0.026571414 0.01847169
000290 92 99 55 bc 09 f0 20 3c eb e7 5c 3e 7f d8 52 bb
       -0.013037102 0.009822854 0.21572845 -0.0032172499
0002a0 b9 d5 3d 3d 27 86 0a 3e 8f fe 68 bc 90 70 ce bb
       0.0463464 0.13527738 -0.014220848 -0.0063000396
0002b0 fa d8 eb 3c 4a 5a d9 3d 47 94 1c 3d 8e dc b1 bc
       0.028789986 0.106129244 0.038227346 -0.021711614
0002c0 76 eb 36 3c ea df fb 3c d1 c1 3b 3d e3 3f 80 bd
       0.011164537 0.030746419 0.045839135 -0.062621854
0002d0 33 a5 b3 37 91 b6 54 3e ba 50 21 3b 9a 37 c4 3d
       2.141539e-05 0.20772769 0.0024614767 0.09580918
0002e0 c5 ef ca bc eb a6 16 3d e0 bb ad 3d 49 93 2e 3c
       -0.024772534 0.03678028 0.084831 0.010655233
0002f0 29 b6 4c 3a 87 b2 e2 3b 2e c4 93 3d 35 4c 36 3e
       0.00078091264 0.006918255 0.07215153 0.17802508
000300 05 08 1f 3e 86 8a 2c 3e 99 3e 5f be 5b bb 44 3d
       0.15530403 0.16849717 -0.21801223 0.04803024
000310 d2 cd 52 3c 81 f2 f5 bd 7b 8b ca bd 3c 93 7c bb
       0.012866454 -0.120091446 -0.09889885 -0.0038539907
000320 e0 9d 08 bb 8d 6a f4 bc 7d bf 0b 3d ad 71 26 3c
       -0.0020846054 -0.029835964 0.034118164 0.010158938
000330 ba 88 8e bb 1b ae 49 3e e7 0b 5d 3c 75 e3 5d 3d
       -0.004349795 0.19695322 0.013491607 0.054171998
000340 67 a0 90 bc ee 4d ac 3b 38 78 e9 3c 01 38 95 3c
       -0.01765461 0.0052583134 0.028499708 0.018215181
000350 e8 82 27 3e 44 99 11 3e af c8 c4 3c 68 38 1b 3e
       0.1635853 0.14218622 0.024021475 0.15158236
000360 91 2c 1b 3c 18 6f ec 3d 3b 7a 81 3d f2 af 52 3e
       0.009471075 0.11544627 0.06322142 0.2057493
000370 38 1b 56 3e b6 f8 8f bc 91 5e 7a 3c 3a a9 3b 3e
       0.2090882 -0.01757465 0.015281335 0.18326274
000380 5f 41 00 3c ea 8d bb 3c eb 1c 2a 3c b2 f1 08 3d
       0.007828086 0.022894818 0.010382871 0.033433624
000390 ca 9c 18 3d 4d f1 87 3d 59 bd 03 3e ea 8c ab 3c
       0.0372589 0.06637821 0.12865199 0.020941216
0003a0 bd 97 97 bd ce 25 22 3e c9 f4 2e 3d ab 3a 42 bd
       -0.07401989 0.15834734 0.042713914 -0.04741923
0003b0 61 5d 9a bb 5d d3 b6 3d 51 5f 01 3d de 21 21 3d
       -0.0047108387 0.08927033 0.03158504 0.03933894
0003c0 ba 1f 5e 3e 1a d2 0f 3c cb 19 50 be d4 41 43 3e
       0.2169179 0.008778119 -0.20322339 0.1906808
0003d0 05 f8 3f 3e 74 0e f7 3c 79 6b 8b 3d 75 10 47 bd
       0.18746956 0.030158259 0.06807608 -0.04859968
0003e0 0f 50 16 bc ca 77 e4 3b d6 22 77 3c 5b d4 81 3e
       -0.009174361 0.006972288 0.015083989 0.25357327
0003f0 45 dd 1d 3d 5e a2 68 3c dd 21 a4 3c 00 e2 27 3e
       0.038541097 0.014198868 0.020035679 0.16394806

action_model._discrete_distribution.branches.0.bias f4 [2]
000000 65 a5 a1 3c 65 a5 a1 bc
       0.019732187 -0.019732187

action_model._discrete_distribution.branches.1.weight f4 [3, 128]
000000 ef 2a 7d 3c 60 ea 6c bd d0 95 6b 3c d5 8c 9d bd
       0.015452131 -0.057840705 0.01437898 -0.07692877
000010 de 30 2b bc 83 2f c3 bc 90 9d 11 3d 04 48 1e 3b
       -0.010448663 -0.023826366 0.035550654 0.0024151811
000020 6a 18 c1 bc 38 90 72 3c 09 cf 19 3d 04 b9 21 3e
       -0.023571212 0.014804892 0.03755096 0.15793234
000030 38 c1 73 bd ce ce b9 bd 1a 5c 4b 3c 8b e7 c5 bd
       -0.05951044 -0.09072648 0.012412095 -0.09663304
000040 9e e8 62 3c 64 a8 4f 3e 1f d0 d1 bd 73 5e 98 bd
       0.013849406 0.2027908 -0.10244774 -0.0743989
000050 f2 ba 40 bc 9f 39 49 3e e8 aa c2 bd 2e bf cc 3d
       -0.011763321 0.19650887 -0.09505254 0.09997402
000060 4f ed d9 3c dc 35 9a bd 77 f6 3c 3e f8 40 d4 bd
       0.026602415 -0.07529804 0.18453394 -0.10363954
000070 d1 a8 06 3e e8 be 48 3c 70 07 c6 bd 1e 49 ee 3c
       0.13150336 0.012252547 -0.09669387 0.0290876
000080 10 62 65 bc 8e 43 cd 3d 65 8c b9 bd 90 35 37 3d
       -0.014000431 0.10022651 -0.09059981 0.044728816
000090 4c d8 a8 3c c1 53 64 3d ae c1 ba bd c1 d9 17 bc
       0.02061095 0.055743936 -0.09118973 -0.009268225
0000a0 db e2 95 bd a8 e7 b1 bd 03 3d 51 bc cc 88 fb 3b
       -0.0731866 -0.08686763 -0.012770894 0.0076762196
0000b0 4d 8b 24 3c 68 16 30 3e f6 3d d0 3b 49 21 3f 3e
       0.0100429775 0.17196047 0.0063550426 0.18665041
0000c0 56 14 90 3e 8a 35 ca bc cd 20 c0 bc fc 98 b9 bd
       0.28140515 -0.024683733 -0.02345314 -0.090623826
0000d0 c9 e7 81 bb 93 6d 82 bd 68 ef 1c bd c8 9a 25 bd
       -0.0039643985 -0.06368556 -0.038314253 -0.040430814
0000e0 bb 0b 7a bc db 36 9a bb 82 9c dd bd 5c 48 7f 3c
       -0.015261586 -0.0047062463 -0.10820867 0.015581217
0000f0 1c a0 e0 bc fe 75 1b bc e0 52 5c 3c 21 2c 1f bc
       -0.027420096 -0.009488581 0.013447493 -0.009715111
000100 16 57 b9 bd 2b fa d4 bd bd a0 df bc dd e3 7a 3d
       -0.090498134 -0.10399278 -0.027298326 0.061252464
000110 40 07 46 3c 52 a4 a7 bd 1b ec a5 bd 49 6b bb bd
       0.0120866895 -0.081856385 -0.08101674 -0.091513224
000120 c6 db 2f 3b 1c d8 73 3b a3 21 b5 bb c4 2c ac bc
       0.0026833876 0.0037207669 -0.0055276914 -0.02101744
000130 c8 a5 39 3c 71 31 a9 bd 28 2c 9a 3c 9c f2 04 be
       0.011331029 -0.08261383 0.018819883 -0.12983173
000140 5b 8d 2d 3d 4f 34 ce 3c 3f 6c 32 ba 0b 61 fa 3b
       0.042371135 0.025171427 -0.0006806291 0.007640963
000150 42 c0 0a 3e 95 72 d0 bd 10 e9 70 bc 33 1f fb 3d
       0.13549903 -0.10178105 -0.014704004 0.1226181
000160 94 55 78 ba 61 a3 ae bd 81 b6 48 bd 6b a8 ae bd
       -0.00094732014 -0.08527256 -0.049002174 -0.08528217
000170 d2 8c ff 3d a7 30 27 3c ae f0 60 3d 9f 89 76 3c
       0.12478031 0.010204471 0.05491703 0.01504746
000180 1e 99 8b 3c 71 00 fb ba 1a 68 c9 3a c7 67 82 bc
       0.017040785 -0.0019149912 0.0015366108 -0.015918626
000190 aa 85 0d 3c 93 ab fc bd 80 42 d6 bd 47 ce 52 3c
       0.008637825 -0.12337413 -0.104619026 0.012866563
0001a0 47 7f 9c 3b 13 16 cb bd a1 60 b4 3c cd 81 36 3c
       0.004775915 -0.0991632 0.022018733 0.011139345
0001b0 36 be c2 3c 04 46 47 3d 5d ad 0a 3d 53 09 ee 3b
       0.02377234 0.048650756 0.03385674 0.007264295
0001c0 7a b7 d3 bd 62 f1 9b 3c 57 c4 61 be ac b2 2f 3e
       -0.1033773 0.019035999 -0.22047554 0.17158002
0001d0 65 9a c6 bd 57 fd 71 bd b7 b6 be bd 76 1a 71 3e
       -0.09697417 -0.059079494 -0.09312194 0.2354525
0001e0 4d cd 27 3d 5d eb 81 3c ee 5b 5d 3c fe 05 64 bd
       0.040967274 0.0158593 0.013510687 -0.055669777
0001f0 27 8f 6c bd 05 f3 15 3c 1b 3b b9 3b 24 36 ea bd
       -0.05775371 0.009152179 0.005652798 -0.11436108
000200 59 e2 80 bc fd 54 64 be 79 f4 7b 3d c6 19 5b be
       -0.015732931 -0.22298045 0.061512444 -0.2139655
000210 99 e7 08 be 16 77 af 3c da ef da be 89 44 e4 bc
       -0.13369597 0.02141909 -0.42761117 -0.027864711
000220 08 90 09 bd 95 b3 c8 3c c0 f1 c5 3d 68 a1 be 3c
       -0.033584625 0.024499694 0.09665251 0.023270324
000230 d5 f9 43 be 6e 30 3c be 56 c8 13 bc e9 57 6b 3e
       -0.19138272 -0.1837785 -0.009019932 0.22982754
000240 43 cb 97 bc 5a 98 1f 3d ab d6 40 3e b0 e0 27 be
       -0.01852954 0.038963653 0.1883189 -0.16394305
000250 aa c0 b1 bc 3d 66 fd 3d ac ef 6c be f9 3c a3 3d
       -0.021698315 0.12373016 -0.23138303 0.07970614
000260 e4 a8 34 bd af 9e 1d 3e c8 e6 90 3d 79 09 1b 3e
       -0.04410638 0.15392564 0.07075268 0.15140332
000270 03 c3 c9 3d dc 5f 22 3d 87 51 7b 3e 07 6a 45 3d
       0.09851649 0.0396422 0.24542819 0.04819682
000280 76 f1 07 3e 84 5f f7 3d 95 2e 18 3e b4 c8 6f 3d
       0.13275704 0.12078765 0.1486152 0.058541015
000290 83 57 ad bc 02 54 af 3d 13 54 27 3e c1 f1 a0 bc
       -0.021159893 0.08560945 0.16340666 -0.019646527
0002a0 7b 71 6d be 70 62 47 3e ab 74 4c bc 91 b6 dd bc
       -0.2318782 0.19471145 -0.012478988 -0.027064594
0002b0 a0 1b e6 bb d4 3c 41 3e 52 14 1e 3d 04 63 39 3e
       -0.007022336 0.1887086 0.038593598 0.18104178
0002c0 e5 4a 01 3e aa ee 15 bd 37 73 b3 bd 1f 03 01 be
       0.12626226 -0.03660456 -0.0876221 -0.12598847
0002d0 d7 20 14 bc 2e d8 2f 3e f5 14 13 bb 77 df 52 3e
       -0.009041033 0.1717231 -0.0022442911 0.20593058
0002e0 c9 df 17 be 61 8c 81 bc 85 01 3c 3e 4f 6b 86 ba
       -0.14831461 -0.015814008 0.18359955 -0.0010255369
0002f0 c7 96 27 bc 7e 7e 76 3b f8 75 2f 37 8e f2 41 3e
       -0.010228819 0.0037612016 1.045828e-05 0.18940184
000300 3f 9e 4d 3e 51 fb 6d 3e 59 76 f7 3b 04 1c e3 3d
       0.20079897 0.23240401 0.00755195 0.11089328
000310 51 cf 08 bd 9a 67 ce 3d 2c 3d 26 be d2 6c 6e be
       -0.033400837 0.10078354 -0.16234273 -0.23283699
000320 ce bc 96 3d 08 57 bd bc a3 ec 1f 3e 61 f9 ce 3d
       0.073602304 -0.023112789 0.15617613 0.10106159
000330 06 a8 f4 bc 69 09 43 3e 22 30 db bc cf ed 1e 3e
       -0.029865276 0.19046558 -0.02675635 0.15520404
000340 3d 04 0a bd 79 4a 03 3c 44 e0 74 3d aa c1 17 3d
       -0.03369545 0.008013361 0.05978419 0.037049927
000350 d6 16 70 3d 5e cb 52 3e 0d 24 2f be bb 53 e2 3d
       0.058615528 0.20585391 -0.17103596 0.110511266
000360 96 d9 68 3d 52 00 85 3e b5 66 51 3e 09 a5 4e 3e
       0.05684813 0.25976807 0.20449336 0.20180143
000370 8c 88 ae 3d 3e 90 5a bc 03 71 09 3c 9a f1 d5 3d
       0.08522138 -0.013340054 0.0083887605 0.104464725
000380 d7 cb 14 bb 91 c5 fb 3b 02 33 a4 3c ea 33 5c 3c
       -0.0022704506 0.007683464 0.020043854 0.013440112
000390 68 4c 2a ba b2 07 37 3d 53 80 ad 3d 7f 71 23 ba
       -0.0006496371 0.044685073 0.084717415 -0.0006234869
0003a0 9d d1 d0 be 8c d5 43 3e e4 76 5b 3e 3f 4b 9d 3d
       -0.40784922 0.1912443 0.21432072 0.07680368
0003b0 01 c4 69 bc fa 36 27 3e f5 3e 4c 3d 2e ea 87 3d
       -0.014267922 0.16329566 0.049864728 0.06636463
0003c0 7f 64 38 3e 64 98 fa bc 3d df 09 be 65 e7 1f 3d
       0.18007086 -0.030590244 -0.13464065 0.039039034
0003d0 d2 40 42 3e 5f 40 16 be dc 7c 1d 3e bc c4 bc 3d
       0.1897004 -0.14672993 0.15379661 0.092172116
0003e0 89 b7 59 bc 06 db cb bb 08 c4 fa 3c d9 6b 41 3e
       -0.013288387 -0.006221178 0.030611053 0.18888797
0003f0 b3 44 74 bd 83 5f 20 3d b0 d4 4b bb a8 ce 7a 3e
       -0.05963583 0.039153587 -0.0031102113 0.24492896

action_model._discrete_distribution.branches.1.bias f4 [3]
000000 23 29 34 3b aa 8d 0e be 2e 70 fc 3c
       0.002749034 -0.13921228 0.03081521
