results/3/Test3/Drive.onnx (onnx, 159959 bytes, 9 tensors)

discrete_act_size_vector f4 [1, 2]
00000000: 0000 0040 0000 4040
2.0 3.0

network_body._body_endoder.seq_layers.0.weight f4 [128, 171]
00000000: bacd 513d 0e15 873d ab6b 8d3d 15d3 a9bd
00000010: 635f a13d 5c6c e5bb dbb6 02be 4845 893d
00000020: 8a10 b6bc ddfa feba 40d7 88bd 1aac 3e3d
00000030: dbd5 3e3c 6258 883e b5c4 5f3b d07d ac3b
00000040: 4875 783c e0e7 05bb f949 cabd 64eb c83c
00000050: 1466 1c3c 14f9 a23d eabc 74bd e3cf 2fbc
00000060: 5dc3 ddbd 1a44 5ebd 9f23 f1bd 5397 babd
00000070: 08fd e1bc b21a bc3d 401c dfbd 0bdc dbbc
00000080: c9bf 7f3d bdc8 d63d 90d7 b33d 44c4 d53d
00000090: 078b d83d 0e0f 363e 2c68 1abe 23e1 ce3d
000000a0: 1d37 eebc 4da8 b13d 42f9 ddbd e959 e8bb
000000b0: 4ad3 0fbe dace ea3d 6c88 a2bd c179 2a3e
000000c0: a41b d83d 8df0 9f3d a511 de3d 7215 373d
000000d0: 7df5 1a3e 369e 40bd e0b1 033e bb53 c4bd
000000e0: 79c5 f7bd 66b9 95bb 8af3 903c ed61 083d
000000f0: c14d b03d c7e6 61bd c1eb bebd 1677 033d
00000100: 66f9 9dbd b7c2 953d a7d7 443d c2ab 633c
00000110: b633 febc bbac da3d 4b20 03be 6702 153e
00000120: aa49 fdbd 6bc9 95bd 3e9c fcbc 1885 6e3d
00000130: 7583 4dbc 6def b13d e8aa d33d bbe8 853d
00000140: 257c 90bd b8b7 f0bd 432f ab3d 9f41 c93d
00000150: 444b 773c a68b 903b 144f bd3d 3481 023e
00000160: e2ec 923d c24f bd3d 4761 16bd dd48 193e
00000170: c959 74bd b5d4 b43d a325 083e 4e9c e43d
00000180: d71e 30bd 9e85 83bd 7735 a83b da5b 263d
00000190: 9955 c8bc 9a5e 8e3c 843a 163e 5f32 d8bd
000001a0: 41c2 a63d 28d6 98bd 7cf7 0d3d ab6d 5e3d
000001b0: 61db b1bc f71e b53d deef bdbd e29e 073d
000001c0: ce30 9b3d a67e 67bd 6894 333d 4276 87bd
000001d0: c3e0 d23d 949f 063b bbc2 183d 7160 573d
000001e0: 2bca 35be 9e90 eabd 2572 afbc 1664 fbbd
000001f0: 7670 093d 4deb 91bd 685f fdbc 08c4 ed3d
00000200: 8a9f 84bd 7227 073c 35b4 153e 3083 db3c
00000210: 38b0 bfbb c4ea 80bd 2f51 f1bc 8afa 3cbd
00000220: 20cb dfbc c91a b23c ac82 2dbd 9874 7abd
00000230: b525 94bc 5eab 09be 11e1 023e 82ad 823d
00000240: 0c53 dfbd ef00 83bd 5454 ca3c 6f55 4dbd
00000250: adf6 74bd c10d a6bd 963d 823c dbe8 14bc
00000260: 2d6f 2ebd fb0f 063e 5717 fabd 310f f03d
00000270: 8323 f9bc fe39 7c3d d3a6 86bc c31d 03bd
00000280: fb3d 13be 876d a53d 9ad5 b7bd 1b50 c53d
00000290: 9a7d b8bc 30ba 283d bafc b13c f1e4 b43d
000002a0: 4c52 b93d 0fe0 1a3d 168a a3bc fe86 343e
000002b0: f8fc 52bd 0811 c53d f28b afbd 8252 7abc
000002c0: a9ba 563c 889c aebc 5eb5 8bbd bb0e c53d
000002d0: 486c 2ebb ef63 f53c 4c07 bc3d 1c95 213d
000002e0: d400 b0bd 8a00 d5bc cb39 8dbd 1d30 43bd
000002f0: ce45 6c3c 8a2f e7bd e914 32bd b0e0 25bd
00000300: 5d0f edba ab5b 76bd 6f20 80ba cebd 45bc
00000310: 7026 99bd 7129 723c 2250 5fba 229f 1a3d
00000320: 4aa7 77bd fee6 b63b 8f03 273d 1e50 87bd
00000330: 35f9 213d 8114 bf3d 0125 943d 504f c93d
00000340: 7856 e5bc 94fd b0bd 5ee4 cb3c 3bb8 9f3e
00000350: fada c73d ee11 9dbc 3530 ef3d aa5b 1cbb
00000360: 90fb 0abd 15c0 2b3d ea2b 4fbc 23a3 013d
00000370: 85ea f83c c678 043e 1baa ff3c 56fd 793d
00000380: c7f4 613d 29a3 c3bd b518 4bbd 2939 353e
00000390: 7e8b 883d 3c6c c4bd 2b0e 07be 06e9 283c
000003a0: 4092 633d d5a0 9dbd de2e 453b be69 783d
000003b0: b920 83bd 62a8 8ebd 58ac 7dbc 98b3 853c
000003c0: c737 9ebd 47bb 893c 445c 273d ccc6 01be
000003d0: c38b 4e3c 9001 9e3d 1259 ef3a 9dbc 163e
000003e0: be10 45bd e81d 4d3b c78b a8bc 148b 993d
000003f0: a1ea adbd 0120 a03c 19ad 1fbc cf33 883a
0.051221587 0.06595813 0.06905302 -0.08292214 0.07879522 -0.007001443 -0.12765066 0.067026675
-0.022224683 -0.0019453425 -0.06681681 0.046550848 0.011647667 0.2662993 0.0034144346 0.0052640215
0.015164681 -0.0020432398 -0.098773904 0.024526305 0.009545822 0.07957664 -0.059750475 -0.010730716
-0.10828278 -0.054264165 -0.11774372 -0.09110894 -0.027586475 0.09184779 -0.1089406 -0.026838323
0.06243876 0.104875065 0.0878135 0.10437825 0.10573392 0.1777918 -0.15078801 0.10101535
-0.029079014 0.08674679 -0.10838558 -0.0070907963 -0.14045444 0.11465235 -0.07936177 0.16648008
0.10552147 0.07809553 0.10843209 0.044698186 0.15132709 -0.04702588 0.12860823 -0.09586283
-0.12098212 -0.0045692204 0.017694253 0.033296514 0.086085804 -0.055151727 -0.0932231 0.03209599
-0.077135846 0.073125295 0.048057225 0.013895931 -0.031030517 0.10677477 -0.12805288 0.14551698
-0.12367566 -0.07313808 -0.03083622 0.058232397 -0.012543549 0.08688245 0.10335332 0.065385304
-0.07054929 -0.117537916 0.08358624 0.09826969 0.015093628 0.0044111786 0.092435986 0.127446
0.07174088 0.09243728 -0.036713865 0.14969201 -0.05965594 0.08829633 0.13295607 0.11162625
-0.04299816 -0.0642197 0.0051333266 0.04061494 -0.024454879 0.017379094 0.1467076 -0.105564825
0.0814252 -0.07462722 0.034659848 0.054303806 -0.021711053 0.08843797 -0.09274267 0.033110507
0.07577668 -0.056517266 0.043842703 -0.06614353 0.10296776 0.0020541893 0.037295084 0.052582208
-0.17752902 -0.11453365 -0.021416733 -0.12274949 0.033554517 -0.07124958 -0.030929282 0.116096556
-0.06475742 0.008249151 0.14619525 0.026795954 -0.0058498643 -0.06294778 -0.029457657 -0.04613737
-0.027318537 0.021741288 -0.042360947 -0.06114635 -0.018084386 -0.13444278 0.12781169 0.0638075
-0.10904512 -0.063966624 0.024698414 -0.050130304 -0.05980556 -0.08108092 0.015898507 -0.00908872
-0.042586494 0.13092034 -0.12211483 0.117216475 -0.030412441 0.061578743 -0.01643697 -0.032010805
-0.14379112 0.08077531 -0.08976288 0.096344195 -0.022520829 0.041193187 0.021726955 0.088327296
0.090489 0.037811335 -0.019963305 0.1762962 -0.05151078 0.09622389 -0.08571614 -0.01527846
0.013106027 -0.021314874 -0.068217024 0.0962195 -0.0026614834 0.029954879 0.09181079 0.039448842
-0.08593908 -0.026001234 -0.06895789 -0.047653306 0.01442094 -0.11288364 -0.043476973 -0.04049748
-0.0018086244 -0.060146015 -0.0009775291 -0.012069179 -0.074780345 0.014780388 -0.00085187156 0.037749417
-0.060462274 0.0055817356 0.040774878 -0.06607078 0.039544303 0.09330083 0.072336204 0.09829581
-0.027995333 -0.08642116 0.024889167 0.31195244 0.09758563 -0.019173589 0.11679117 -0.0023858347
-0.033931315 0.04193123 -0.012644747 0.03164972 0.030385265 0.12936696 0.031209042 0.061032616
0.05516508 -0.09552605 -0.04958411 0.17697586 0.06667231 -0.095909566 -0.13188998 0.010309463
0.055559397 -0.07696692 0.003008775 0.06064772 -0.06402726 -0.0696571 -0.0154829845 0.016320989
-0.077254824 0.016812934 0.040859476 -0.12673491 0.012606564 0.07715142 0.0018260798 0.14720388
-0.04811167 0.0031298343 -0.020574464 0.0749723 -0.084920175 0.01954651 -0.00974586 0.0010391417

network_body._body_endoder.seq_layers.0.bias f4 [128]
00000000: 0000 0000 0000 0000 0000 0000 0000 0000
00000010: 0000 0000 0000 0000 0000 0000 0000 0000
00000020: 0000 0000 0000 0000 0000 0000 0000 0000
00000030: 0000 0000 0000 0000 0000 0000 0000 0000
00000040: 0000 0000 0000 0000 0000 0000 0000 0000
00000050: 0000 0000 0000 0000 0000 0000 0000 0000
00000060: 0000 0000 0000 0000 0000 0000 0000 0000
00000070: 0000 0000 0000 0000 0000 0000 0000 0000
00000080: 0000 0000 0000 0000 0000 0000 0000 0000
00000090: 0000 0000 0000 0000 0000 0000 0000 0000
000000a0: 0000 0000 0000 0000 0000 0000 0000 0000
000000b0: 0000 0000 0000 0000 0000 0000 0000 0000
000000c0: 0000 0000 0000 0000 0000 0000 0000 0000
000000d0: 0000 0000 0000 0000 0000 0000 0000 0000
000000e0: 0000 0000 0000 0000 0000 0000 0000 0000
000000f0: 0000 0000 0000 0000 0000 0000 0000 0000
00000100: 0000 0000 0000 0000 0000 0000 0000 0000
00000110: 0000 0000 0000 0000 0000 0000 0000 0000
00000120: 0000 0000 0000 0000 0000 0000 0000 0000
00000130: 0000 0000 0000 0000 0000 0000 0000 0000
00000140: 0000 0000 0000 0000 0000 0000 0000 0000
00000150: 0000 0000 0000 0000 0000 0000 0000 0000
00000160: 0000 0000 0000 0000 0000 0000 0000 0000
00000170: 0000 0000 0000 0000 0000 0000 0000 0000
00000180: 0000 0000 0000 0000 0000 0000 0000 0000
00000190: 0000 0000 0000 0000 0000 0000 0000 0000
000001a0: 0000 0000 0000 0000 0000 0000 0000 0000
000001b0: 0000 0000 0000 0000 0000 0000 0000 0000
000001c0: 0000 0000 0000 0000 0000 0000 0000 0000
000001d0: 0000 0000 0000 0000 0000 0000 0000 0000
000001e0: 0000 0000 0000 0000 0000 0000 0000 0000
000001f0: 0000 0000 0000 0000 0000 0000 0000 0000
0.0 0.0 0.0 0.0 0.0 0.0 0.0 0.0
0.0 0.0 0.0 0.0 0.0 0.0 0.0 0.0
0.0 0.0 0.0 0.0 0.0 0.0 0.0 0.0
0.0 0.0 0.0 0.0 0.0 0.0 0.0 0.0
0.0 0.0 0.0 0.0 0.0 0.0 0.0 0.0
0.0 0.0 0.0 0.0 0.0 0.0 0.0 0.0
0.0 0.0 0.0 0.0 0.0 0.0 0.0 0.0
0.0 0.0 0.0 0.0 0.0 0.0 0.0 0.0
0.0 0.0 0.0 0.0 0.0 0.0 0.0 0.0
0.0 0.0 0.0 0.0 0.0 0.0 0.0 0.0
0.0 0.0 0.0 0.0 0.0 0.0 0.0 0.0
0.0 0.0 0.0 0.0 0.0 0.0 0.0 0.0
0.0 0.0 0.0 0.0 0.0 0.0 0.0 0.0
0.0 0.0 0.0 0.0 0.0 0.0 0.0 0.0
0.0 0.0 0.0 0.0 0.0 0.0 0.0 0.0
0.0 0.0 0.0 0.0 0.0 0.0 0.0 0.0

network_body._body_endoder.seq_layers.2.weight f4 [128, 128]
00000000: d98d a93d b27a 04be 9ee9 2cbe 45b5 3d3c
00000010: 040e 203e 373b ca3d df5b d43c 7d7e 93bd
00000020: c64e 80bd c2b7 f4bd 390b 3ebd 287b 53bc
00000030: 6681 b03d 7a08 433c f01f 16be af49 b13c
00000040: 8895 d2bd dc1f 17be 44ac afbd 9572 c13d
00000050: 182c b0bd 899d 9b3d 6443 de3d b127 25bd
00000060: f8df 2a3e f502 19bd 251b 073e aa45 c93d
00000070: b444 463d e038 173c 8276 f4bd 3af2 2c3b
00000080: 6679 8cbd b563 bb3d b8a8 bf3c 6b93 c63d
00000090: d8b5 1ebe f94d 723c 6323 073d 617d 9dbd
000000a0: 9cc4 d13c c260 f43d 29e5 69bd 03f5 da3d
000000b0: 004a c1bd 70a6 893d 9d20 93bd 0b12 3abe
000000c0: a0fe 4dbd 15cd b6bc 0422 a1bd c1ba f6bc
000000d0: 360e ebbb 6fd1 0a3e e9ab 933d b4ed e03d
000000e0: b3e5 cd3b 25dd 1b3d fd58 413e 79f2 90bd
000000f0: 879b d9bd 8dbe 88bd ca16 3c3d f082 ae3c
00000100: 4aa6 f0bc b966 a23d 0180 52bd 57b2 64be
00000110: b9bd 9f3d 3f1d 9f3c 72b4 8abd 376e c6bd
00000120: df38 4d3d 5b63 06bd 69b5 193d aad8 25bd
00000130: ebd4 07bd b042 20bd be3d 9abc b1ce 493e
00000140: 0d95 7bbc e90a b13d b0c3 5e3e ac4d 733e
00000150: d208 2abe 37f4 ad3c ee8d db3d b3aa 5c3b
00000160: fe43 30be 0aa5 f53d d13f 35be d031 ba3d
00000170: 2a6a 353d 11eb 1dbc fd81 c33d 1181 d93d
00000180: 6560 dfbd c6d6 2b3d c46a 24be 9cae 1d3e
00000190: 164b 5cbd 8f70 d63d a53d 9dbd 348e ff3d
000001a0: ffe9 72bc 7ee7 1f3e 9ae1 4b3c ca35 0a3e
000001b0: 56b7 41bd 5f21 86bc 5474 f23c e1c8 0bbb
000001c0: a7d6 d63c 1f45 53bd 2006 7dbd a69d e1bd
000001d0: 6181 97bc 5a70 a13d d593 d23d cf2a 263d
000001e0: 625c dfbd 42b7 b4bd ca29 aa3c 64e6 4abd
000001f0: 9e2b 003e f543 c33d 6585 003e c434 963d
00000200: a3f7 cbbd 3f2c 263d c1bc 503d 80b2 9bbc
00000210: a06c c9bd 1184 6e3c 8c1a 6dba f0c2 8abd
00000220: c96a d0bd 049f 58bd aa9b c03a b35c 3c3d
00000230: fc0f 3a3e cb41 1ebe 2e67 79be fe21 3e3d
00000240: 465f 0e3d df3c b7bc 2049 3c3e 3578 cebd
00000250: b42b 483b 11bd 91bc 766f c73c dcbc 213c
00000260: e726 a6bd 9377 1c3c ce34 9fbd 196f 043d
00000270: 9d3c f4bd 87da da3c 12d9 843a 00f3 fcbc
00000280: 7cc7 8abd 5357 fabc 3eed e7bd 6c7a a9bc
00000290: 5e67 d1bd abcc f0bc 473c 6ebe 3818 9f39
000002a0: a568 ed3d 8fd0 02bd 51fe debd 569e babd
000002b0: 09d1 ef3d aa77 6e3e 68e0 efbd d51d b83d
000002c0: 2d67 87bd 0061 f83c 5125 3dbd 8b02 d43d
000002d0: 0dda e73c ec91 54bd 5210 8ebd 2018 153e
000002e0: 8f6b 513d aaba 5c3d 3601 1d3e c09e cd3d
000002f0: 976c 90bd 0208 8cbd 4793 a03d f5d7 aebc
00000300: f827 f63d 842a 023d 304a c2bd 4394 05bd
00000310: 6297 983d 887f 8a3d c26a 153d 2101 4c3d
00000320: d42f 86bc ca72 32bd 6a64 6cbd 5dee e2bc
00000330: ae34 aabd 61a0 1abe 0547 37be 8ac4 e73c
00000340: c2e2 46be 21e8 6b3c fd2c 38be a9ff 0abe
00000350: 5183 b43c cff5 32bc d921 383d cbd8 adbc
00000360: cd04 813d a1b7 43be cb5e a7bd f908 823b
00000370: a073 6e3d ea80 3a3d 1e95 98bd 9821 633d
00000380: 42bd 253d d1df 333e 107f 2cbe 8d33 a73d
00000390: 37f4 d9bd 164c 883c c693 d93a a9a9 d4bc
000003a0: 8cdf e93d 6246 02bd 0d84 85bd 14b1 ff3d
000003b0: 3217 b83c e4ac 693d f2a9 4e3d 1f14 11bd
000003c0: b4f9 4d3e 1585 dabb 1056 833c d82a c8bb
000003d0: 00e6 273e d27a 1bbd ce6b cd3c eb12 9c3d
000003e0: 0db5 483d c080 1abe 7318 cebc 34d7 91bd
000003f0: 2d32 ca3d e716 de3d b245 8c3d 9776 ddbc
0.082790084 -0.1293743 -0.16885993 0.011578863 0.15630347 0.098745756 0.025922714 -0.0720186
-0.06265025 -0.119491115 -0.04639742 -0.012907781 0.08618431 0.011903876 -0.1466062 0.02164158
-0.10282427 -0.14758247 -0.08577779 0.09445683 -0.0860216 0.07598407 0.108526975 -0.040321056
0.16687 -0.037356336 0.13193949 0.098277405 0.048405364 0.009229869 -0.11936666 0.0026389495
-0.068590924 0.09149877 0.023395881 0.096960865 -0.15499055 0.014789098 0.03299273 -0.0768993
0.025606446 0.119325176 -0.05710331 0.106912635 -0.094379425 0.067211986 -0.07183955 -0.18170945
-0.050291657 -0.022314588 -0.07867816 -0.030118348 -0.007173325 0.13556455 0.07210524 0.10982838
0.006283486 0.038052697 0.18881603 -0.07077498 -0.106253676 -0.0667697 0.04592017 0.02130267
-0.029376168 0.07929749 -0.051391605 -0.22333656 0.077998586 0.019423125 -0.067726985 -0.096889906
0.050103065 -0.032809597 0.03752652 -0.04048983 -0.03316204 -0.0391261 -0.01882827 0.19707753
-0.015355361 0.08644659 0.21754336 0.23760098 -0.16604927 0.021234615 0.1072043 0.003367108
-0.17213437 0.11994369 -0.17700125 0.09091532 0.0442907 -0.009638564 0.09546278 0.106203206
-0.10907058 0.04195287 -0.16056353 0.1539864 -0.053782545 0.104706876 -0.076777734 0.12478295
-0.014826297 0.15615651 0.012443924 0.13497081 -0.047293983 -0.016373334 0.029596485 -0.002132945
0.026225401 -0.05157959 -0.06177342 -0.11016397 -0.01849431 0.078827575 0.10282103 0.04056817
-0.109062925 -0.08824016 0.02077188 -0.049536124 0.12516639 0.09534446 0.12550886 0.07334283
-0.09959342 0.04056954 0.05096126 -0.019006014 -0.09835172 0.014557854 -0.00090447883 -0.067754626
-0.10176618 -0.052886024 0.0014694829 0.045986842 0.1817016 -0.15454786 -0.24355766 0.046419136
0.03475883 -0.022367893 0.1838727 -0.100815214 0.0030543627 -0.01779035 0.02434514 0.009871688
-0.08112889 0.009549993 -0.077737436 0.032332513 -0.119256236 0.02671553 0.0010135493 -0.03087759
-0.0677633 -0.030559218 -0.11324547 -0.020688258 -0.10224794 -0.029394468 -0.23265181 0.00030344888
0.11592225 -0.03193718 -0.10888351 -0.091122314 0.11709792 0.23287836 -0.11712724 0.08990065
-0.06611476 0.03031969 -0.046178166 0.103520475 0.028302217 -0.051896974 -0.069367066 0.14559984
0.051127966 0.053888954 0.15332493 0.10040045 -0.07051962 -0.06837465 0.07840591 -0.02134321
0.12019342 0.031778827 -0.094868064 -0.032612097 0.07450749 0.06762606 0.036478765 0.049805764
-0.016380228 -0.043566503 -0.05771295 -0.027701551 -0.08310829 -0.15100242 -0.17898186 0.02829196
-0.19422439 0.014398606 -0.17985912 -0.13574089 0.022035273 -0.010922863 0.044954155 -0.021221539
0.06299744 -0.19113018 -0.08172377 0.003968355 0.058215737 0.0455331 -0.07450317 0.05545196
0.040463693 0.17565848 -0.16845345 0.081641294 -0.106422834 0.016637843 0.0016599826 -0.025959807
0.11419591 -0.031805404 -0.06519327 0.12484947 0.022471998 0.057049647 0.05045504 -0.03541958
0.20114785 -0.0066686966 0.016032249 -0.006108623 0.16396332 -0.037958927 0.02507582 0.07620796
0.04900079 -0.15088177 -0.025158143 -0.07121125 0.098728515 0.10844212 0.06849231 -0.027034087

network_body._body_endoder.seq_layers.2.bias f4 [128]
00000000: 0000 0000 0000 0000 0000 0000 0000 0000
00000010: 0000 0000 0000 0000 0000 0000 0000 0000
00000020: 0000 0000 0000 0000 0000 0000 0000 0000
00000030: 0000 0000 0000 0000 0000 0000 0000 0000
00000040: 0000 0000 0000 0000 0000 0000 0000 0000
00000050: 0000 0000 0000 0000 0000 0000 0000 0000
00000060: 0000 0000 0000 0000 0000 0000 0000 0000
00000070: 0000 0000 0000 0000 0000 0000 0000 0000
00000080: 0000 0000 0000 0000 0000 0000 0000 0000
00000090: 0000 0000 0000 0000 0000 0000 0000 0000
000000a0: 0000 0000 0000 0000 0000 0000 0000 0000
000000b0: 0000 0000 0000 0000 0000 0000 0000 0000
000000c0: 0000 0000 0000 0000 0000 0000 0000 0000
000000d0: 0000 0000 0000 0000 0000 0000 0000 0000
000000e0: 0000 0000 0000 0000 0000 0000 0000 0000
000000f0: 0000 0000 0000 0000 0000 0000 0000 0000
00000100: 0000 0000 0000 0000 0000 0000 0000 0000
00000110: 0000 0000 0000 0000 0000 0000 0000 0000
00000120: 0000 0000 0000 0000 0000 0000 0000 0000
00000130: 0000 0000 0000 0000 0000 0000 0000 0000
00000140: 0000 0000 0000 0000 0000 0000 0000 0000
00000150: 0000 0000 0000 0000 0000 0000 0000 0000
00000160: 0000 0000 0000 0000 0000 0000 0000 0000
00000170: 0000 0000 0000 0000 0000 0000 0000 0000
00000180: 0000 0000 0000 0000 0000 0000 0000 0000
00000190: 0000 0000 0000 0000 0000 0000 0000 0000
000001a0: 0000 0000 0000 0000 0000 0000 0000 0000
000001b0: 0000 0000 0000 0000 0000 0000 0000 0000
000001c0: 0000 0000 0000 0000 0000 0000 0000 0000
000001d0: 0000 0000 0000 0000 0000 0000 0000 0000
000001e0: 0000 0000 0000 0000 0000 0000 0000 0000
000001f0: 0000 0000 0000 0000 0000 0000 0000 0000
0.0 0.0 0.0 0.0 0.0 0.0 0.0 0.0
0.0 0.0 0.0 0.0 0.0 0.0 0.0 0.0
0.0 0.0 0.0 0.0 0.0 0.0 0.0 0.0
0.0 0.0 0.0 0.0 0.0 0.0 0.0 0.0
0.0 0.0 0.0 0.0 0.0 0.0 0.0 0.0
0.0 0.0 0.0 0.0 0.0 0.0 0.0 0.0
0.0 0.0 0.0 0.0 0.0 0.0 0.0 0.0
0.0 0.0 0.0 0.0 0.0 0.0 0.0 0.0
0.0 0.0 0.0 0.0 0.0 0.0 0.0 0.0
0.0 0.0 0.0 0.0 0.0 0.0 0.0 0.0
0.0 0.0 0.0 0.0 0.0 0.0 0.0 0.0
0.0 0.0 0.0 0.0 0.0 0.0 0.0 0.0
0.0 0.0 0.0 0.0 0.0 0.0 0.0 0.0
0.0 0.0 0.0 0.0 0.0 0.0 0.0 0.0
0.0 0.0 0.0 0.0 0.0 0.0 0.0 0.0
0.0 0.0 0.0 0.0 0.0 0.0 0.0 0.0

action_model._discrete_distribution.branches.0.weight f4 [2, 128]
00000000: 3d92 11bb 5fc9 ef3a b3cc 603b 219b 92bc
00000010: bf3b 373a 88e6 38ba e10f 953b cfc4 13bc
00000020: fc2d 87bc ff04 693a 015a 463b db5a 2dbb
00000030: 5b4a d33b 0863 e33b 8b13 5a3b 4301 533c
00000040: faac c5ba f0d7 493a a255 67bc 4855 263b
00000050: 905a ea3b b5a4 7d3b 0774 70bb 4b15 3139
00000060: db86 8cbb 2f53 c53c 8324 873b 6f8e 5c3b
00000070: a209 513c 2a3f 5dbc 254e 003b e7c5 7e3c
00000080: e3ad 1c3c b2dd 573c a4da 053c 33de 7eba
00000090: bd7f b7b9 6b19 ca3b 6a5b 8aba 45e2 923a
000000a0: 9578 973a 8a6b 3b3b 0049 b63b c799 193b
000000b0: b729 6bbc 23d3 07bc 05ce b0bb 8d96 27bb
000000c0: 1730 623c 9ff5 a03a 5d0e ed39 c347 8fb8
000000d0: 8d70 b03c 0f12 723b 2fb2 6cbb d2ff 183a
000000e0: caa1 193c d621 1b3a 5d23 56bc e835 6abc
000000f0: f79d 7dbb 6a40 4c3a 0bea 633b 4f05 63bc
00000100: 2100 82bc 13df bd3b 0f04 66bb fb93 09bc
00000110: ebed 6bbc 5db4 1c3c cfe3 27bb 80cb feba
00000120: 2485 01bc cb8e ebbb 7ffb 92bb 5762 3dbc
00000130: 8e4f 19bc cb0a 02bb af27 aa3b 8743 e13b
00000140: 3be8 3a3b b627 05bc e399 28ba d7d9 5d3b
00000150: 171c a33b 59a5 27bc 6b25 963c 180e 233c
00000160: 5a57 633b 6bd2 6f3b 2d62 323c 1359 74bb
00000170: 730a b0bb f04a 5dbc 47e6 193c 27d1 5ebc
00000180: 15bd e63b 47a3 f7bb 9734 793c 13d7 7239
00000190: 3eb8 823b f8bb 803c 65db 783b 0ced 923b
000001a0: 7bcc 193a 88c9 193b ea74 933c 1d65 ffbb
000001b0: 8533 febb e7d8 713c b519 77bb 2a80 623c
000001c0: 3b17 0b3c a389 48bb 6ebe a0bb c739 af3a
000001d0: bf55 c13a 2b05 533c 2757 f63a 9b2d 1a3b
000001e0: a724 bbbb e77c 043c b07d b6ba 1b58 d93b
000001f0: 95e6 01ba dd11 4f3a 303f 163c 958a 113c
00000200: 659a ddbb f062 863c b1fe 3fbc 5d18 ec3b
00000210: 5001 2b3b 2f92 573a 6b25 44bc ea92 8b3c
00000220: 3740 23bc a71c 4ebc d0e2 773b ea8f bc3b
00000230: 2287 113c 4fbb dd39 a304 7339 7ea1 3dbc
00000240: a70f 743b 3194 0bbc 69dc 2a3a e320 f9bb
00000250: a79d 773c 134d 99bb 86da 9bba 9fc5 b63b
00000260: 4aef ecba d3dc 4abc 2b19 c23b 7c34 b03c
00000270: 6206 34bb f2a6 f13b e75c d7bb d753 69bc
00000280: c773 27bc 07f9 46ba 5381 59bb 704c 59bb
00000290: 1d0f f83b cf25 853b 665f 8cba 55b2 55bc
000002a0: fa30 84bc 8f8a c83a fb52 1cbb d3f2 66bc
000002b0: ae09 baba 80bb c13b 22d1 f23b c096 993b
000002c0: ea63 ceba 100f 3ebc 0720 083b c357 063c
000002d0: a27d 85bc 0c1a 2abc 0564 743b f2c5 133b
000002e0: 1ba3 69bb 7ad0 8dba 8014 cf3a c343 e73b
000002f0: 5744 a43b 57fa 2f3c ada4 86ba c3f8 cabb
00000300: 5758 693c e207 933b cd65 59bb 6dd1 bd3b
00000310: 323c 6abb 57b1 8a3c 7dd8 643a adf5 1bbb
00000320: ff62 923a 65a5 d5ba e73e c4ba 7fb9 8cbb
00000330: d099 76bb b401 32bc 4d5c fc3b 27a7 e83b
00000340: cf01 323b af53 62bb 3e93 833c 4d1c 00bc
00000350: 70fd 623b 73cd 81bc 60a5 0bbc 56f8 853c
00000360: 777a 823b fa6a e6bb 9a6f 5dbb b9f9 9dbb
00000370: c8a4 9b3b 4b18 a3bc b3c3 63bc 710e 91bb
00000380: e67b c23b d961 8fbb 57ac 5e3c 2fc4 0dbc
00000390: 2ff6 2bbb afe1 aebc 6ab9 3abc dbcd 8fbb
000003a0: 3882 66bb e8c5 c03a c539 e33b 7428 8f3c
000003b0: da71 d33b ad63 70bc 2c5e 2bbb beac 8c3a
000003c0: 0787 78bc b016 1d3c 8fcd 1e3c e88e 81bb
000003d0: 30cf 13bc 5757 8e3c d397 ecba 23b9 6ebc
000003e0: 9891 fbbb 835d abbc 748c a93a eb91 933b
000003f0: 1f8f ba3a ff5d 06bb 8dfb 383b 6a22 a03b
-0.002221241 0.0018294266 0.0034301698 -0.017896237 0.0006989799 -0.0007053395 0.004549012 -0.009019091
-0.01650142 0.0008888989 0.003026605 -0.002645186 0.006448073 0.0069392957 0.0033275809 0.012878719
-0.0015081458 0.00076997187 -0.014119538 0.0025380421 0.007151909 0.003870291 -0.0036690251 0.00016887968
-0.004288537 0.024087517 0.0041242256 0.0033654233 0.012758644 -0.013503829 0.0019577828 0.015550113
0.009562942 0.013175415 0.008169804 -0.00097224413 -0.00034999652 0.006167581 -0.0010555808 0.001120635
0.0011556322 0.0028598034 0.0055629015 0.0023437606 -0.014353207 -0.008290085 -0.005395653 -0.0025571913
0.013805411 0.0012280232 0.00045214864 -6.832138e-05 0.021538043 0.0036937033 -0.0036116948 0.000583646
0.009376952 0.0005917823 -0.013069955 -0.014295079 -0.003869889 0.0007791581 0.0034776952 -0.013856246
-0.015869202 0.005794415 -0.0035097634 -0.008397098 -0.014399986 0.009564486 -0.0025617962 -0.001943931
-0.007905278 -0.007188653 -0.004485547 -0.011559091 -0.009357346 -0.001984286 0.005192719 0.006874505
0.0028519768 -0.008127144 -0.00064316223 0.0033851766 0.004977714 -0.010232293 0.01832839 0.009952091
0.0034689517 0.0036593925 0.010887665 -0.0037284538 -0.0053723394 -0.013506636 0.009393281 -0.0135996705
0.0070415833 -0.007557306 0.015210292 0.0002315904 0.0039892485 0.01571463 0.0037972566 0.0044838246
0.0005866957 0.002346607 0.018000085 -0.007794036 -0.0077576065 0.014761186 -0.0037704532 0.013824502
0.008489425 -0.0030599616 -0.0049055135 0.001336866 0.0014750286 0.01287965 0.0018794284 0.0023525718
-0.0057111564 0.00808642 -0.0013922956 0.0066328174 -0.0004955319 0.0007899085 0.0091703385 0.008883138
-0.00676279 0.016404599 -0.011718438 0.0072050528 0.0026093312 0.0008223382 -0.011971812 0.017037828
-0.0099640405 -0.012580073 0.00378244 0.0057544606 0.008882316 0.0004229196 0.00023176013 -0.011574147
0.0037240775 -0.008519218 0.0006517829 -0.0076027974 0.015113271 -0.0046783774 -0.0011890687 0.0055777575
-0.0018076685 -0.01238175 0.0059234104 0.021509402 -0.0027469625 0.0073746378 -0.006572354 -0.01424118
-0.010220475 -0.00075902086 -0.0033188656 -0.0033157133 0.007570161 0.004063345 -0.0010709583 -0.013043006
-0.016136635 0.0015300083 -0.002385317 -0.01409598 -0.0014193559 0.0059122443 0.0074101845 0.0046871603
-0.001574633 -0.011600271 0.0020771043 0.008199635 -0.016295258 -0.010382187 0.0037291062 0.0022548405
-0.0035650197 -0.0010819577 0.0015798956 0.0070576384 0.0050130296 0.010740838 -0.0010272466 -0.0061942055
0.014242253 0.0044870237 -0.003317225 0.0057927878 -0.0035741446 0.016930265 0.0008729769 -0.0023797557
0.0011168419 -0.0016299902 -0.001497236 -0.004294574 -0.00376283 -0.010864664 0.007701433 0.0071000042
0.0027161723 -0.0034534743 0.016061421 -0.007819247 0.0034635924 -0.015845036 -0.008523315 0.016353767
0.003981884 -0.0070317956 -0.0033788444 -0.004821029 0.004749868 -0.019909045 -0.013901639 -0.0044267704
0.00593518 -0.004375678 0.013590894 -0.008652731 -0.0026239266 -0.021347849 -0.011396745 -0.0043885536
-0.0035172831 0.0014707418 0.006934377 0.017475344 0.006452781 -0.014672202 -0.002614866 0.0010732634
-0.015168912 0.009587929 0.009692564 -0.0039538033 -0.009021565 0.017375631 -0.0018050618 -0.014570507
-0.0076772682 -0.020918613 0.0012935535 0.0045034788 0.0014233327 -0.0020502803 0.0028226108 0.004886915

action_model._discrete_distribution.branches.0.bias f4 [2]
00000000: 0000 0000 0000 0000
0.0 0.0

action_model._discrete_distribution.branches.1.weight f4 [3, 128]
00000000: 22b9 81bb 207b d63b 001c eebb 92fc 753c
00000010: 17ff 8ebb 2c32 28bc 25a0 d9ba 65ab e7ba
00000020: 5fc0 303a 9789 f33b 08fb 803b 22fd 133c
00000030: 0979 a5ba cae2 f3ba 6095 fb3a 8c54 b2bb
00000040: 6297 5abc 3b4b 803c 338b 193c f8c2 08bc
00000050: 355a c73c 8026 103c 7a20 48bb a3b1 a93b
00000060: 051d 043a f3bd 45bc 4542 713b a59d e4bb
00000070: 1516 793c af8f 363b 306f b0bb 17a5 6ebc
00000080: 88e1 db3b 352c 273b 3d70 49bc 5eb9 a73b
00000090: e777 8dba c5f5 e03a 0789 f938 354e 0bbb
000000a0: 1f7d a43b 87c4 e43b 9d18 dcbb fb9e 15bb
000000b0: 5713 883b 27e3 cc3b 5e51 093c f31a 51bb
000000c0: 9a3b 5cbc a4ec 3b3c fbd4 4dbc 9a5f e13b
000000d0: bd7a 1139 3561 9cbb 941b a8ba f8af 153b
000000e0: d517 d5bc 3f7f c0bb 950e 583a fea5 373c
000000f0: 592f 293b d69e 353c ef3a 2cbc 0da4 6bbc
00000100: 9467 14bc 2e97 173c 7f89 19bc 1e4a b83b
00000110: 193d 353c 31e1 bbbb 97d9 80bb 049a 203c
00000120: 4880 cf3b 8508 e63b 17b8 cfbb 7e92 83bc
00000130: 7300 c0bb e736 753c e91e 073a dd28 223c
00000140: 3825 b8bb 1147 c1bb f043 743c 4a0f eb3a
00000150: e2f8 daba 3dc8 333b 9880 89ba 0f1e 48bc
00000160: cb68 75ba 6c25 c8bb 5907 17bb 3b49 c1bb
00000170: 2b36 09bc c977 0bbc 2b78 35bc 9040 d5b9
00000180: 6b83 4c3c 314a 1c3c 000b 633c 0fc9 1c3c
00000190: 8ece 00bb c7f8 8e3c 7334 12bc 17d0 6b3a
000001a0: 7583 643c 1cff 01bb eae5 6d3c 6017 e63b
000001b0: 35f9 563c 03f5 6bbc 940f 01bc d91b 3dbc
000001c0: a363 77bc 0b3f 893c 4ee7 10bc 681d aabb
000001d0: 6138 c0bb d067 0bbc 277c 153b b7e4 713b
000001e0: 8ef6 8dbb a300 a23c 3fe1 3cbb b0fa 59b8
000001f0: 5b8f d43b 4881 673c d345 bcba 2bf1 deba
00000200: a85a a2ba 77e8 8839 6ccf 25bc 226f f2bb
00000210: 63f8 723b ab8d 7bb9 8161 123b 9fc0 403b
00000220: 539e 78bb 2dfa 49bb c3b6 3ebb bb2b 17ba
00000230: ab0a 193b 7f71 1d3c 78a7 393c 32f5 943c
00000240: fb9f 713c b3db 65bc c792 0e3c 72d8 cfbb
00000250: d096 c038 eb69 96ba 1741 a83c 7fb1 e53b
00000260: f3ce d4bb 5c1a bdbb f23b 73bc cf28 e7b9
00000270: d5e3 84bc 43dd d83b 824a 143a 18d9 883b
00000280: 2a69 3c3c ddc3 eb3b dad8 933b edbb b63c
00000290: 8965 9cbb 5f07 6a3a 0ce9 bc3a 009a 39bc
000002a0: 1f7a 7e3b 6b9a 7c3c adae 6f3c f069 8f3b
000002b0: ab9a 8fbc 3fe2 833a 884b d93a 6e34 1a3c
000002c0: 82d9 f73b 2365 fdbb b38b 243c c133 443b
000002d0: df58 083c 3bf6 e63b 3f79 13bc 8b6a 0bba
000002e0: c79d 0e3c 426f 7bbc f3a5 e93b 8b5c 003a
000002f0: 611f 073c 3201 74bb 350d af3a 465b a9bb
00000300: 77fa 08bc aa0b 353b 7b1a e33b 211a 893b
00000310: 82ba 733b 2b67 50bc cf8d 57bc c1cf 1dbc
00000320: e010 a33c 1fad cb3b 4eca 91ba c328 9d3c
00000330: f95e 8d3b e471 31bc 4b2a 9d3b b1f0 3bbc
00000340: a2c5 6cbb fe38 193a dd3c 6dbc 1e36 383b
00000350: 4f21 fdba 7ed2 083b 1d34 4ab9 334e 3cbb
00000360: e3e0 9dba 0f3f 94bb cf21 8f3b f1f3 21bc
00000370: cb96 fd3b 039d 6abc a7bc cebb 98d9 14bb
00000380: c5ac cd3c 1a6d 67bc afc0 b23b 861f 0b3c
00000390: feeb c6bc ea1a 35bc 3b8c 05bc 0284 5c3c
000003a0: ff11 d53b 00df 75bb 3b5c 143a 3688 823c
000003b0: 6bcb 06bc 08e1 07bb 528e 4d3b 1ff4 cebb
000003c0: ebfb fd3b 85cb 773b c408 c33b 67f7 333c
000003d0: 1afb 8bbc 3def f1bb 5bf9 523b 28c4 523a
000003e0: 87b9 233c f598 0b3c ac67 143b 3763 b4bb
000003f0: f0ff d2bb 174e 3bbb efb7 89bc 34e1 bb3b
-0.003958837 0.0065454394 -0.0072665215 0.015013831 -0.004363905 -0.010265868 -0.0016603513 -0.0017674981
0.0006742533 0.0074321735 0.0039361753 0.0090325195 -0.0012624572 -0.0018607017 0.0019194297 -0.0054422077
-0.013341757 0.015660873 0.009371567 -0.008347265 0.024335006 0.008798242 -0.0030536936 0.0051786467
0.00050397246 -0.012069213 0.0036813181 -0.0069768005 0.015203019 0.0027856638 -0.0053843483 -0.014565728
0.006710235 0.0025508527 -0.012294826 0.005118533 -0.001079318 0.0017163089 0.000118987686 -0.0021256332
0.0050197984 0.0069814357 -0.0067168013 -0.0022830355 0.004152696 0.0062526646 0.008381216 -0.0031906932
-0.0134419445 0.011469994 -0.0125629855 0.0068778517 0.00013874001 -0.00477233 -0.0012825602 0.0022840481
-0.02601234 -0.005874544 0.0008241919 0.011209009 0.0025815575 0.011085233 -0.010512098 -0.0143823745
-0.009057898 0.009252353 -0.0093711605 0.00562407 0.01106193 -0.005733632 -0.0039321887 0.009802345
0.006332431 0.0070200586 -0.006339084 -0.016061064 -0.0058594286 0.014966703 0.0005154447 0.009897438
-0.005619671 -0.0058983644 0.014908776 0.0017933634 -0.0016706253 0.0027432584 -0.0010490594 -0.012214198
-0.00093616237 -0.0061079767 -0.002304515 -0.0058986223 -0.008374731 -0.008512446 -0.011076014 -0.0004067463
0.012482504 0.009539173 0.013857603 0.0095694205 -0.0019654366 0.01745261 -0.008923638 0.00089955464
0.013947357 -0.0019835895 0.014520148 0.0070218295 0.013120939 -0.014401677 -0.007877249 -0.011542284
-0.015099439 0.016753694 -0.00884421 -0.005191494 -0.005866096 -0.008508638 0.0022809596 0.0036910006
-0.00433237 0.019775694 -0.002882078 -5.1970303e-05 0.006486816 0.014129944 -0.0014364071 -0.001700913
-0.0012386637 0.0002611314 -0.010120254 -0.007398502 0.003707432 -0.00023990001 0.002233595 0.0029411686
-0.0037936165 -0.0030819282 -0.0029100634 -0.0005766709 0.0023352306 0.009609579 0.011331432 0.018183324
0.014747615 -0.014029431 0.008701987 -0.006342941 9.1833645e-05 -0.0011475658 0.02053885 0.0070096846
-0.006494397 -0.0057709645 -0.014845835 -0.00044090158 -0.01622192 0.0066181733 0.00056568545 0.00417627
0.011499682 0.0071949796 0.0045119347 0.022306407 -0.004772846 0.000892749 0.0014412715 -0.01132822
0.0038830114 0.0154176755 0.014629048 0.0043766424 -0.017529806 0.0010061933 0.0016578296 0.009411914
0.0075637707 -0.0077330037 0.0100430725 0.0029938074 0.00832197 0.007048396 -0.009001075 -0.00053183053
0.008704609 -0.01534635 0.0071303784 0.00048966025 0.008247227 -0.0037232158 0.0013355376 -0.0051683513
-0.008360497 0.002762536 0.006930647 0.004184023 0.0037190025 -0.01271991 -0.013156368 -0.009632052
0.019905508 0.006215706 -0.0011122914 0.019184476 0.0043143 -0.010830376 0.0047963015 -0.0114709595
-0.003612854 0.00058449793 -0.014479843 0.0028108428 -0.0019312295 0.0020877416 -0.00019283635 -0.0028733134
-0.0012045171 -0.0045241187 0.004368044 -0.00988482 0.007738923 -0.014319661 -0.00630911 -0.0022712704
0.025106797 -0.014125133 0.0054550986 0.0084914025 -0.024282452 -0.01105378 -0.008151109 0.0134592075
0.0065023894 -0.0037516952 0.00056594954 0.015934091 -0.00822721 -0.0020733494 0.0031365347 -0.0063157226
0.007750978 0.0037810516 0.0059519727 0.010984278 -0.017087508 -0.0073832558 0.0032192084 0.0008040094
0.009992964 0.0085203545 0.00226448 -0.0055049914 -0.0064392015 -0.002858048 -0.01681134 0.0057336334

action_model._discrete_distribution.branches.1.bias f4 [3]
00000000: 0000 0000 0000 0000 0000 0000
0.0 0.0 0.0
