results/Test5-1/Drive/checkpoint.pt (torch, 326542 bytes, 20 tensors)

discrete_act_size_vector f4 [1, 2]
0	0x40000000	2.0
1	0x40400000	3.0

network_body._body_endoder.seq_layers.0.weight f4 [128, 70]
0	0x3d2bec75	0.04197355
1	0xbd0018d4	-0.031273678
2	0xbe809385	-0.25112548
3	0x3db49ae3	0.08818605
4	0xbcec3762	-0.028835002
5	0x3c5a2796	0.013315102
6	0xbddbafa9	-0.10726864
7	0x3cd3775a	0.025813747
8	0xbcc69ddb	-0.024245193
9	0x3e31c789	0.17361273
10	0x3e48c909	0.19607939
11	0x3d65bf02	0.056090362
12	0xbd558d38	-0.05213663
13	0xbdbb29a5	-0.091388024
14	0x3c9a502d	0.018837059
15	0x3d90c576	0.07068913
16	0x3e09e1e1	0.13465072
17	0xbe82b581	-0.25529101
18	0x3beb0be8	0.00717305
19	0x3e112943	0.14175896
20	0x3db8e436	0.09027903
21	0xbe08c6b4	-0.13357049
22	0xbe1000e6	-0.14062843
23	0x3dd1c7d0	0.10243189
24	0x3c46cabd	0.0121332975
25	0x3d16a8c9	0.03678206
26	0xbdcb51e2	-0.09927727
27	0x3e080265	0.13282163
28	0xbd3c9381	-0.04603911
29	0x3c3de494	0.011590142
30	0x3e06255d	0.1310019
31	0x3e188d05	0.14897545
32	0xbe42cf67	-0.1902443
33	0xbc53b431	-0.012921379
34	0xbdc31493	-0.095254086
35	0x3e0b9c20	0.13633776
36	0xbdffc82d	-0.124893524
37	0x3e60f540	0.21968555
38	0x3d2474c5	0.040150423
39	0x3dda26ed	0.10651956
40	0x3cfbf16a	0.030754764
41	0x3d839dfa	0.06426616
42	0xbd14b16d	-0.03630202
43	0xbd44da72	-0.04805989
44	0xbbe8f898	-0.007109713
45	0x3c0b80ba	0.0085145775
46	0x3e2e7f6d	0.17040797
47	0x3c132f86	0.008983498
48	0xbce6f5b2	-0.028193329
49	0x3a5d4b9e	0.0008441749
50	0xbdae03a3	-0.084967874
51	0x3d90c522	0.0706885
52	0xbe4d83fd	-0.20069881
53	0xbdca5934	-0.098802954
54	0xbd65a484	-0.056065097
55	0x3c589606	0.013219362
56	0xbe5f9a2e	-0.21836159
57	0x3d1641ac	0.036683723
58	0xbd71bc6b	-0.05901758
59	0x3e5b5487	0.21418963
60	0xbd06aef0	-0.032881677
61	0x3dda7a51	0.10667861
62	0x3e07df2d	0.13268729
63	0xbd762b92	-0.060100146
64	0x3d2c1636	0.04201337
65	0x3c47f6ef	0.01220487
66	0xbbe9382d	-0.0071172924
67	0xbde90054	-0.11377016
68	0x3ac120d8	0.001473452
69	0xbcf3d6c0	-0.029765487
70	0x3dfc2112	0.12310995
71	0x3db96d29	0.09054024
72	0x3ddc3c67	0.10753708
73	0x3ce7e13f	0.028305648
74	0x3d732c03	0.059368145
75	0x3dc26239	0.09491391
76	0xbe7ff052	-0.24994019
77	0xbe0a8081	-0.13525583
78	0xbdcfdb6d	-0.10149274
79	0xbc953810	-0.01821521
80	0xbd9a7ee1	-0.075437315
81	0xbc39fd87	-0.01135195
82	0x3d01dae0	0.031702876
83	0x3cb1e295	0.021714488
84	0xbd5873d3	-0.052844834
85	0x3e122ed9	0.14275683
86	0x3ce47541	0.027887942
87	0x3d879e0e	0.066219434
88	0xbe2f46bc	-0.17116827
89	0xbd249c0a	-0.040187873
90	0x3e909e50	0.28245783
91	0x3db17904	0.0866566
92	0xbc5b5914	-0.013387937
93	0x3df87a5c	0.12132713
94	0x3e03bed9	0.12865771
95	0x3d331a6c	0.04372637
96	0x3cdf515a	0.027260471
97	0xbe0c19b1	-0.13681675
98	0xbd031537	-0.032002654
99	0xbdeec7e2	-0.11659218
100	0xbd5c626d	-0.053804804
101	0xbe476a6b	-0.19474189
102	0x3de2b576	0.11069767
103	0x3d320c68	0.043468863
104	0x3df0a2a9	0.11749775
105	0x3d0f7583	0.035024177
106	0x3c35b66a	0.011090854
107	0x3dda9f21	0.10674883
108	0x3bef3949	0.00730053
109	0xbe2d3de5	-0.16918142
110	0x3d3be716	0.045874678
111	0xbdac0fd2	-0.08401455
112	0x3e26825b	0.16260664
113	0xbdb41057	-0.08792179
114	0xbd82a697	-0.06379431
115	0x3dcf55fb	0.10123821
116	0xb9267b4b	-0.00015876924
117	0xbdab160e	-0.08353816
118	0xbe16d7c7	-0.1473075
119	0xbdc55f4f	-0.09637319
120	0x3e3ad200	0.18244171
121	0x3e3accdd	0.18242212
122	0xbe0e421d	-0.13892408
123	0xbe6a2c93	-0.22868566
124	0xbcd2a890	-0.025715142
125	0xbd85abf9	-0.06526942
126	0x3cfac1b8	0.03060995
127	0x3d8da62a	0.06916459
128	0x3c913c21	0.017728867
129	0xbdd92841	-0.10603381
130	0xbde3d643	-0.111248516
131	0x3d70c13c	0.058778033
132	0x3e170b68	0.14750445
133	0x3e0a79e2	0.13523057
134	0xbdd2c0e6	-0.10290699
135	0xbd809f8d	-0.06280432
136	0x3d761822	0.06008161
137	0x3cc99109	0.024605291
138	0xbe09b9f8	-0.13449848
139	0xbd25c2f8	-0.04046914
140	0xbdc60e75	-0.09670726
141	0x3c831b99	0.01600437
142	0x3d08b5ad	0.033376385
143	0x3d99f9fe	0.07518385
144	0x3d96a21e	0.0735514
145	0x3b91cc71	0.00444942
146	0xbce0b5f6	-0.027430516
147	0x3e49ca4c	0.19706076
148	0x3e22f551	0.15913893
149	0xbe516902	-0.20450214
150	0x3c77b5cc	0.015119027
151	0x3da52034	0.08062783
152	0x3d514834	0.05109425
153	0x3d3af786	0.045646213
154	0xbd45361f	-0.048147317
155	0xbdb40c05	-0.08791355
156	0x3d2fe11d	0.042939294
157	0xbcf98855	-0.030460516
158	0x3d2b7ea4	0.04186882
159	0xbe45380f	-0.19259666
160	0x3dd1183d	0.10209701
161	0x3c472189	0.0121539915
162	0x3e61c8ba	0.22049227
163	0xbe1a008e	-0.15039274
164	0xbbe8d3c6	-0.0071053235
165	0x3d95364a	0.072857454
166	0x3e468f06	0.19390497
167	0xbab41a9d	-0.0013740842
168	0xbde2bc18	-0.11071032
169	0x3c634900	0.013872385
170	0x3d52ee0a	0.051496543
171	0xbc8a6b1b	-0.016896775
172	0xbda868d4	-0.082231194
173	0xbc14fd5c	-0.009093609
174	0xbb87265a	-0.004124445
175	0xbbefcf18	-0.0073183887
176	0x3bcd66f9	0.006268379
177	0x3dd2b25f	0.10287928
178	0x3e39ac3f	0.18132113
179	0x3d4bf374	0.049792722
180	0xbdba0795	-0.090834774
181	0xbe2313b9	-0.15925492
182	0x3dde7d29	0.10863716
183	0x3dcc0791	0.09962381
184	0xbdfeea7b	-0.12447067
185	0x3cfacc31	0.030614944
186	0x3e380676	0.17971215
187	0xbc7caddd	-0.015422312
188	0x3dc9a73a	0.09846349
189	0x3c793d6a	0.015212396
190	0x3e3278b9	0.17428865
191	0xbd22878e	-0.039680056
192	0xbd8f9309	-0.070104666
193	0x3c22cc6d	0.009936434
194	0xbdf6be94	-0.12048069
195	0xbdd10f1e	-0.102079615
196	0xbda5dfc8	-0.080993235
197	0x3c110472	0.0088511575
198	0x3ccb2e40	0.024802327
199	0xbda4c4f7	-0.080453806
200	0x3c84d7c0	0.016216159
201	0x3dd43a25	0.10362653
202	0x3b5675e7	0.0032724084
203	0xbe13173d	-0.14364333
204	0x3dde6308	0.108587325
205	0x3af066b3	0.0018341154
206	0x3e05e8dd	0.13077112
207	0xbe33973d	-0.17538162
208	0x3da8358e	0.0821334
209	0x3e3dde5c	0.18541855
210	0xbd1c1e67	-0.03811493
211	0x3e53a658	0.20668924
212	0x3d6a4339	0.057193015
213	0x3e28df36	0.16491398
214	0x3da926f7	0.08259385
215	0xbe947c9d	-0.29001322
216	0xbdf6cad8	-0.12050408
217	0x3d5cb2ca	0.053881444
218	0x3d1c9d47	0.03823593
219	0xbc13f98c	-0.009031665
220	0xbce576e3	-0.028010791
221	0x3cd8ed27	0.02648027
222	0x3e248c1c	0.16069072
223	0x3e259f9d	0.16174169
224	0x3d7be149	0.061494146
225	0x3c92de7e	0.017928358
226	0xbd85c7c2	-0.065322414
227	0xbdb12af6	-0.08650772
228	0xbd85fe0b	-0.065425955
229	0x3dafa1dd	0.08575795
230	0xbc1ab608	-0.009442814
231	0x3d391f38	0.04519579
232	0xbb8705b5	-0.0041205534
233	0x3bcc42e6	0.006233561
234	0x3e4b3510	0.1984446
235	0xbd6f3fab	-0.058410328
236	0xbd8deb66	-0.06929664
237	0xbe297719	-0.16549338
238	0xbd1b12fc	-0.0378599
239	0x3d6f28c8	0.0583885
240	0x3df208f0	0.11818111
241	0xbb37e44d	-0.0028059662
242	0x3da3c657	0.07996815
243	0x3d6bd9a9	0.057580624
244	0xbd1ac131	-0.037781898
245	0xbe835c83	-0.25656518
246	0x3e4b2ba7	0.19840871
247	0x3d9eeced	0.07760034
248	0x3daae883	0.08345129
249	0x3df89e5f	0.12139582
250	0xbd99f89a	-0.0751812
251	0xbdcbdb59	-0.099539466
252	0xbc85717e	-0.016289469
253	0xbde2e943	-0.110796474
254	0x3d71e4ef	0.05905622
255	0x3e3642c0	0.177989

network_body._body_endoder.seq_layers.0.bias f4 [128]
0	0x00000000	0.0
1	0x00000000	0.0
2	0x00000000	0.0
3	0x00000000	0.0
4	0x00000000	0.0
5	0x00000000	0.0
6	0x00000000	0.0
7	0x00000000	0.0
8	0x00000000	0.0
9	0x00000000	0.0
10	0x00000000	0.0
11	0x00000000	0.0
12	0x00000000	0.0
13	0x00000000	0.0
14	0x00000000	0.0
15	0x00000000	0.0
16	0x00000000	0.0
17	0x00000000	0.0
18	0x00000000	0.0
19	0x00000000	0.0
20	0x00000000	0.0
21	0x00000000	0.0
22	0x00000000	0.0
23	0x00000000	0.0
24	0x00000000	0.0
25	0x00000000	0.0
26	0x00000000	0.0
27	0x00000000	0.0
28	0x00000000	0.0
29	0x00000000	0.0
30	0x00000000	0.0
31	0x00000000	0.0
32	0x00000000	0.0
33	0x00000000	0.0
34	0x00000000	0.0
35	0x00000000	0.0
36	0x00000000	0.0
37	0x00000000	0.0
38	0x00000000	0.0
39	0x00000000	0.0
40	0x00000000	0.0
41	0x00000000	0.0
42	0x00000000	0.0
43	0x00000000	0.0
44	0x00000000	0.0
45	0x00000000	0.0
46	0x00000000	0.0
47	0x00000000	0.0
48	0x00000000	0.0
49	0x00000000	0.0
50	0x00000000	0.0
51	0x00000000	0.0
52	0x00000000	0.0
53	0x00000000	0.0
54	0x00000000	0.0
55	0x00000000	0.0
56	0x00000000	0.0
57	0x00000000	0.0
58	0x00000000	0.0
59	0x00000000	0.0
60	0x00000000	0.0
61	0x00000000	0.0
62	0x00000000	0.0
63	0x00000000	0.0
64	0x00000000	0.0
65	0x00000000	0.0
66	0x00000000	0.0
67	0x00000000	0.0
68	0x00000000	0.0
69	0x00000000	0.0
70	0x00000000	0.0
71	0x00000000	0.0
72	0x00000000	0.0
73	0x00000000	0.0
74	0x00000000	0.0
75	0x00000000	0.0
76	0x00000000	0.0
77	0x00000000	0.0
78	0x00000000	0.0
79	0x00000000	0.0
80	0x00000000	0.0
81	0x00000000	0.0
82	0x00000000	0.0
83	0x00000000	0.0
84	0x00000000	0.0
85	0x00000000	0.0
86	0x00000000	0.0
87	0x00000000	0.0
88	0x00000000	0.0
89	0x00000000	0.0
90	0x00000000	0.0
91	0x00000000	0.0
92	0x00000000	0.0
93	0x00000000	0.0
94	0x00000000	0.0
95	0x00000000	0.0
96	0x00000000	0.0
97	0x00000000	0.0
98	0x00000000	0.0
99	0x00000000	0.0
100	0x00000000	0.0
101	0x00000000	0.0
102	0x00000000	0.0
103	0x00000000	0.0
104	0x00000000	0.0
105	0x00000000	0.0
106	0x00000000	0.0
107	0x00000000	0.0
108	0x00000000	0.0
109	0x00000000	0.0
110	0x00000000	0.0
111	0x00000000	0.0
112	0x00000000	0.0
113	0x00000000	0.0
114	0x00000000	0.0
115	0x00000000	0.0
116	0x00000000	0.0
117	0x00000000	0.0
118	0x00000000	0.0
119	0x00000000	0.0
120	0x00000000	0.0
121	0x00000000	0.0
122	0x00000000	0.0
123	0x00000000	0.0
124	0x00000000	0.0
125	0x00000000	0.0
126	0x00000000	0.0
127	0x00000000	0.0

network_body._body_endoder.seq_layers.2.weight f4 [128, 128]
0	0x3e160df8	0.14653766
1	0xbd5d9b94	-0.05410345
2	0xbd1b2850	-0.037880242
3	0x3d65eb6a	0.05613271
4	0x3d7238a9	0.059136067
5	0x3d564fce	0.0523222
6	0x3c3dc349	0.011582204
7	0xbd33a959	-0.043862674
8	0xbddb7fe8	-0.107177556
9	0x3dda617e	0.106631264
10	0x3e5a8792	0.21340778
11	0xbd0c092e	-0.034188442
12	0xbd499ae2	-0.049219973
13	0x3e04a239	0.12952508
14	0xbdcca0a3	-0.099915765
15	0x3e727bff	0.23680113
16	0xbbbb6603	-0.005718948
17	0xbd8e71c0	-0.0695529
18	0xbda78baa	-0.08180936
19	0xbda950c2	-0.082673565
20	0xbd8ab22f	-0.06772267
21	0x3cb6a91a	0.02229743
22	0x3de215c8	0.11039311
23	0xbdc80633	-0.097668074
24	0x3e1cd391	0.15315081
25	0xbc7f9e40	-0.015601695
26	0x3e01203c	0.12609953
27	0x3c86d524	0.016459055
28	0xbd34d2f6	-0.0441465
29	0x3dd87425	0.10569028
30	0xbcf1f9da	-0.029538084
31	0xbd62bda9	-0.055356655
32	0xbc94921c	-0.018136077
33	0x3dbcc264	0.092167646
34	0x3de7894d	0.11305485
35	0xbddf246d	-0.108956195
36	0x3e4b693d	0.19864364
37	0xbd0f8ab4	-0.035044387
38	0xbcf8fb00	-0.030393124
39	0xbcf530b2	-0.029930446
40	0xbc1dc5cf	-0.009629681
41	0xbd02401d	-0.031799424
42	0xbcbb6fe0	-0.022880495
43	0x3d5ce980	0.05393362
44	0x3cf7fd09	0.030272024
45	0x3d03580e	0.032066397
46	0xbd840ceb	-0.064477764
47	0xbd93f270	-0.07223976
48	0xbd5fe5d2	-0.054662533
49	0xbe3baa45	-0.18326671
50	0x3de557f8	0.11198419
51	0x3e6ab944	0.22922236
52	0x3c228d48	0.009921379
53	0xbd29ea5f	-0.04148328
54	0xbd697ca8	-0.057003647
55	0xbccd707e	-0.025078055
56	0x3d304f44	0.043044344
57	0x3e050327	0.12989484
58	0xbc16262d	-0.009164375
59	0xbe145790	-0.14486527
60	0x3d8027d6	0.06257598
61	0x3d587153	0.05284245
62	0xbc32910f	-0.0108988425
63	0xbe1a43bc	-0.15064901
64	0xbd3b09e7	-0.04566374
65	0x3df80841	0.12110949
66	0xbd20be35	-0.039243896
67	0xbde278cd	-0.11058197
68	0xbd8a6da7	-0.06759196
69	0x3c3863fb	0.011254306
70	0xbd013d4f	-0.03155261
71	0x3d2b3d63	0.04180659
72	0xbcd2a975	-0.025715569
73	0xbe44d213	-0.19220762
74	0xbc0d0727	-0.008607662
75	0x3cbd0a41	0.023076179
76	0xbd7016ac	-0.05861537
77	0x3dc90cbd	0.09816883
78	0xbd42bcc6	-0.04754331
79	0x3e25c2fe	0.16187665
80	0xbdee6194	-0.11639705
81	0xbca52740	-0.020160317
82	0x3d97d8cb	0.07414397
83	0x3d32788c	0.043571994
84	0xbd0e456f	-0.034734186
85	0x3ceda634	0.029009916
86	0x3e0b74cf	0.13618778
87	0xbde441a4	-0.111453325
88	0xbe6a7b11	-0.22898509
89	0x3deb35b3	0.11484852
90	0xbc264af1	-0.010149703
91	0x3d38909d	0.04505979
92	0x3d4a3d18	0.04937467
93	0x3ba3c40d	0.0049977363
94	0xbd4ab9ae	-0.049493484
95	0x3d8b96f0	0.068158984
96	0xbd60a69a	-0.054846384
97	0xbdb7cc44	-0.089745075
98	0xbdd70a91	-0.10500062
99	0xbb130e06	-0.0022438779
100	0xbd9b3f81	-0.07580472
101	0xbc2072bd	-0.009792981
102	0xbd4cd1b2	-0.05000467
103	0x3cb134ae	0.021631565
104	0x3e6bf6c3	0.23043351
105	0xbe0eb451	-0.13935973
106	0xbd02050a	-0.031743087
107	0xbd24bd70	-0.040219724
108	0x3d12130d	0.0356627
109	0xbcf2e48d	-0.029649997
110	0x3c8e15b2	0.01734433
111	0x3de00b1d	0.1093962
112	0x3a90d924	0.0011051041
113	0x3d4e4237	0.050356116
114	0xbdf9d6dd	-0.12199185
115	0x3c04540a	0.008076677
116	0x3d25ba29	0.04046074
117	0x3d86d90b	0.065843664
118	0xbd3c092d	-0.04590719
119	0x3dc30c06	0.09523778
120	0x3daa580b	0.08317574
121	0xbe1fe0a5	-0.15613039
122	0xbd94994b	-0.07255801
123	0xbda538d3	-0.08067479
124	0xbcd879b5	-0.026425222
125	0xbe3a62a4	-0.18201691
126	0x3e768c99	0.24077071
127	0x3c028aa7	0.007967628
128	0xbcbd2d8b	-0.023093006
129	0x3d6b9461	0.057514552
130	0xbb978f9f	-0.0046252753
131	0x3dc612be	0.096715435
132	0xbdec2ba7	-0.115317635
133	0x3bf5dd12	0.0075031603
134	0x3e38fbe0	0.18064833
135	0x3d26d2ec	0.040728495
136	0xbbda1e40	-0.006656438
137	0x3d6fbc26	0.05852904
138	0x3c184658	0.009294115
139	0x3c713685	0.014722471
140	0xbd448035	-0.04797383
141	0x3bdc1010	0.006715782
142	0xbd8bfd28	-0.06835395
143	0xbd17d5e3	-0.037069213
144	0xbd88dc27	-0.06682616
145	0xbc16f47d	-0.009213564
146	0x3c078ada	0.008272851
147	0xbbe79ded	-0.0070683868
148	0x3dc497ec	0.09599289
149	0xbe261357	-0.16218315
150	0x3d921cbd	0.07134388
151	0xbd119b10	-0.03554827
152	0xbe134fb9	-0.1438588
153	0xbbd35222	-0.006449
154	0x3d5b7fad	0.053588558
155	0x3e4b2ca4	0.19841248
156	0x3d2b21a7	0.04178014
157	0xbbe75fc0	-0.007060975
158	0xbd8f0fd2	-0.06985439
159	0x3a02855d	0.0004978979
160	0xbd9ac881	-0.07557774
161	0xbdffcde9	-0.12490446
162	0xbdc496d7	-0.09599083
163	0x3db800f0	0.08984554
164	0x3d81cf67	0.06338387
165	0xbd922c7f	-0.07137393
166	0x3d18a46f	0.03726619
167	0x3c7a24e2	0.015267583
168	0x3d849128	0.06472999
169	0xbcdc1416	-0.026865046
170	0x3d78d7a0	0.06075251
171	0x3e713086	0.23553666
172	0xbd1cd644	-0.038290277
173	0x3cde51d2	0.027138624
174	0x3d502b38	0.050822467
175	0x3dd2e7f6	0.10298149
176	0x3d503fd4	0.05084212
177	0x3e0e0e37	0.1387261
178	0x3db61847	0.08891349
179	0x3d66ff35	0.05639573
180	0x3d76e442	0.060276277
181	0x3cc09480	0.02350831
182	0x3d8f826f	0.070073
183	0x3c8a2fd8	0.016868517
184	0x3c2af936	0.010435393
185	0x3db69ac7	0.0891624
186	0x3dd2c536	0.10291521
187	0xbd47c4f0	-0.0487718
188	0xbd012f34	-0.031539157
189	0xbc391604	-0.011296753
190	0xbc7228de	-0.014780251
191	0x3d1bb3de	0.03801333
192	0x3c88ba98	0.016690537
193	0x3da59335	0.08084718
194	0xbd80ea18	-0.0629465
195	0x3e099da7	0.13439046
196	0x3cc39b5e	0.023877796
197	0xbd8b3d41	-0.06798793
198	0xbd7b2e36	-0.061323367
199	0x3dacae60	0.08431697
200	0x3d7828f2	0.060585923
201	0x3b390b6a	0.0028235563
202	0xbe0874c1	-0.13325788
203	0x3c89810d	0.016785169
204	0xbddf544a	-0.10904749
205	0xbc92d2c6	-0.01792277
206	0x3da388ee	0.07985102
207	0xbdb5c617	-0.08875673
208	0xbc752010	-0.014961258
209	0x3dc0a16b	0.09405788
210	0xbd5abe5d	-0.0534042
211	0x3dde0589	0.108408995
212	0xbd43c125	-0.04779162
213	0x3c9783bf	0.018495439
214	0x3dd98fa0	0.106230974
215	0x3caf1729	0.021373348
216	0x3d22895e	0.039681785
217	0xbca8f145	-0.020622859
218	0x3ccd8248	0.025086537
219	0xbd792fd3	-0.060836624
220	0xbd38f592	-0.04515607
221	0x3d03ef34	0.032210544
222	0x3cca5c22	0.024702135
223	0xbd8e82c8	-0.06958538
224	0xbe32d41a	-0.17463723
225	0xbe1dd726	-0.15414104
226	0xbe24a6df	-0.16079281
227	0xbd6600e4	-0.056153193
228	0x3c8a04bc	0.01684796
229	0xbd0868cd	-0.03330307
230	0x3e62b356	0.22138724
231	0xbbe95993	-0.007121274
232	0x3cf714b6	0.030161243
233	0xbd46ab83	-0.04850341
234	0x3cb4e07e	0.022079702
235	0xbdb4a227	-0.088199906
236	0xbdfa997c	-0.12236306
237	0x3d140d0c	0.036145255
238	0x3cc52464	0.024065204
239	0xbe89c36e	-0.26906914
240	0xbb80a413	-0.003925809
241	0x3b101e3b	0.0021990675
242	0x3c228360	0.009919018
243	0x3cf5f114	0.030022182
244	0x3db6ec2f	0.08931767
245	0xbe6fe1a2	-0.23425916
246	0x3d9232b2	0.071385756
247	0x3e5cdf1e	0.21569487
248	0x3d2d240a	0.042270698
249	0xbe1774db	-0.1479067
250	0x3a401084	0.000732668
251	0x3c98853e	0.018618222
252	0x3c71b611	0.014752881
253	0x3e0f5ee8	0.14001048
254	0xbd5499f7	-0.051904645
255	0x3e103aa5	0.14084871

network_body._body_endoder.seq_layers.2.bias f4 [128]
0	0x00000000	0.0
1	0x00000000	0.0
2	0x00000000	0.0
3	0x00000000	0.0
4	0x00000000	0.0
5	0x00000000	0.0
6	0x00000000	0.0
7	0x00000000	0.0
8	0x00000000	0.0
9	0x00000000	0.0
10	0x00000000	0.0
11	0x00000000	0.0
12	0x00000000	0.0
13	0x00000000	0.0
14	0x00000000	0.0
15	0x00000000	0.0
16	0x00000000	0.0
17	0x00000000	0.0
18	0x00000000	0.0
19	0x00000000	0.0
20	0x00000000	0.0
21	0x00000000	0.0
22	0x00000000	0.0
23	0x00000000	0.0
24	0x00000000	0.0
25	0x00000000	0.0
26	0x00000000	0.0
27	0x00000000	0.0
28	0x00000000	0.0
29	0x00000000	0.0
30	0x00000000	0.0
31	0x00000000	0.0
32	0x00000000	0.0
33	0x00000000	0.0
34	0x00000000	0.0
35	0x00000000	0.0
36	0x00000000	0.0
37	0x00000000	0.0
38	0x00000000	0.0
39	0x00000000	0.0
40	0x00000000	0.0
41	0x00000000	0.0
42	0x00000000	0.0
43	0x00000000	0.0
44	0x00000000	0.0
45	0x00000000	0.0
46	0x00000000	0.0
47	0x00000000	0.0
48	0x00000000	0.0
49	0x00000000	0.0
50	0x00000000	0.0
51	0x00000000	0.0
52	0x00000000	0.0
53	0x00000000	0.0
54	0x00000000	0.0
55	0x00000000	0.0
56	0x00000000	0.0
57	0x00000000	0.0
58	0x00000000	0.0
59	0x00000000	0.0
60	0x00000000	0.0
61	0x00000000	0.0
62	0x00000000	0.0
63	0x00000000	0.0
64	0x00000000	0.0
65	0x00000000	0.0
66	0x00000000	0.0
67	0x00000000	0.0
68	0x00000000	0.0
69	0x00000000	0.0
70	0x00000000	0.0
71	0x00000000	0.0
72	0x00000000	0.0
73	0x00000000	0.0
74	0x00000000	0.0
75	0x00000000	0.0
76	0x00000000	0.0
77	0x00000000	0.0
78	0x00000000	0.0
79	0x00000000	0.0
80	0x00000000	0.0
81	0x00000000	0.0
82	0x00000000	0.0
83	0x00000000	0.0
84	0x00000000	0.0
85	0x00000000	0.0
86	0x00000000	0.0
87	0x00000000	0.0
88	0x00000000	0.0
89	0x00000000	0.0
90	0x00000000	0.0
91	0x00000000	0.0
92	0x00000000	0.0
93	0x00000000	0.0
94	0x00000000	0.0
95	0x00000000	0.0
96	0x00000000	0.0
97	0x00000000	0.0
98	0x00000000	0.0
99	0x00000000	0.0
100	0x00000000	0.0
101	0x00000000	0.0
102	0x00000000	0.0
103	0x00000000	0.0
104	0x00000000	0.0
105	0x00000000	0.0
106	0x00000000	0.0
107	0x00000000	0.0
108	0x00000000	0.0
109	0x00000000	0.0
110	0x00000000	0.0
111	0x00000000	0.0
112	0x00000000	0.0
113	0x00000000	0.0
114	0x00000000	0.0
115	0x00000000	0.0
116	0x00000000	0.0
117	0x00000000	0.0
118	0x00000000	0.0
119	0x00000000	0.0
120	0x00000000	0.0
121	0x00000000	0.0
122	0x00000000	0.0
123	0x00000000	0.0
124	0x00000000	0.0
125	0x00000000	0.0
126	0x00000000	0.0
127	0x00000000	0.0

action_model._discrete_distribution.branches.0.weight f4 [2, 128]
0	0xbc051f84	-0.00812519
1	0xbc9521e1	-0.018204631
2	0x3bc6d027	0.006067294
3	0xbba30e67	-0.004976082
4	0xbbc412c7	-0.0059836837
5	0x3b3998be	0.0028319801
6	0x3aa3c422	0.0012494365
7	0x3c2ace43	0.010425153
8	0x3c2b9a46	0.010473793
9	0xb9859033	-0.00025475174
10	0x3c0f2313	0.00873639
11	0xbcb3d62a	-0.021952707
12	0xbbed2a53	-0.0072377115
13	0xbaa3d9b8	-0.0012500798
14	0x3bcb1f1b	0.0061987764
15	0xbbc84bc8	-0.0061125495
16	0x3bf7ab43	0.007558258
17	0xbc3ba673	-0.011453259
18	0x3b670a23	0.0035253845
19	0x3bcf3e58	0.0063245706
20	0xbbb3ea1c	-0.0054905545
21	0x3bbcc399	0.0057606217
22	0x3b69b40d	0.0035660297
23	0x3c069120	0.008213311
24	0xb9d7e043	-0.00041175084
25	0x3c671c3f	0.0141058555
26	0xbbec779b	-0.0072164065
27	0xbc5dbaba	-0.013533289
28	0x3c98a430	0.018632978
29	0x3c1009af	0.008791371
30	0x3c1ef62a	0.009702245
31	0xb996a088	-0.00028729835
32	0xbb892eef	-0.004186503
33	0xbc3a99e5	-0.01138923
34	0xbc41b6b2	-0.011823343
35	0xbad7210f	-0.001641305
36	0xbc04b042	-0.008098664
37	0xbb43fccb	-0.0029905315
38	0xba7cd58d	-0.00096448587
39	0x3c6b3c03	0.01435757
40	0x3bf5dfed	0.0075035007
41	0xbc9ac423	-0.018892353
42	0xbc0e2331	-0.0086753825
43	0x3c310477	0.010804287
44	0xbac77dcf	-0.0015219989
45	0x3974325b	0.00023288412
46	0xbbc8c96a	-0.006127526
47	0xbba01513	-0.0048853247
48	0x3b803f72	0.0039138133
49	0x3b452fb7	0.0030088255
50	0x3be4bfc7	0.0069808695
51	0x3ba42198	0.0050088875
52	0xbb5085dd	-0.003181807
53	0xbca7ded3	-0.020491993
54	0xbab8a188	-0.0014086226
55	0xbc278b80	-0.0102261305
56	0x367e5f22	3.7904324e-06
57	0xbb77c29d	-0.0037805208
58	0xbbc053e6	-0.0058693765
59	0xbb94fb93	-0.0045465915
60	0xbc843154	-0.016136803
61	0x3bbe36d5	0.0058048763
62	0xbc4486c6	-0.011995023
63	0x3c201e06	0.009772783
64	0xbc2a8b53	-0.010409194
65	0xbc2e35aa	-0.010632912
66	0x3c92bec3	0.017913228
67	0x3c293042	0.010326447
68	0x397819b2	0.00023660695
69	0x3c3e4973	0.011614191
70	0xbba1558e	-0.004923529
71	0x3b1cf5a3	0.0023950122
72	0xbc717743	-0.014737907
73	0x3b3bb45f	0.0028641445
74	0x3c83aa76	0.016072493
75	0x3c20fc0f	0.00982572
76	0xbc09896a	-0.0083945785
77	0xba7abc93	-0.0009564843
78	0xbbb66d52	-0.005567231
79	0xba3f86b6	-0.0007306145
80	0x3b42f260	0.0029746518
81	0xbb732783	-0.0037102408
82	0xbc19160d	-0.009343636
83	0x3a2a4bae	0.00064962625
84	0xbc1a1df3	-0.0094065545
85	0xbb772943	-0.0037713803
86	0x39158a47	0.0001426126
87	0x3bd13737	0.006384756
88	0xb956348f	-0.0002042821
89	0x3acd02a7	0.0015641049
90	0x3b01b5f5	0.0019792293
91	0x3b3dee96	0.002898132
92	0xbb14bbfb	-0.0022695053
93	0xbafdfa3d	-0.0019376945
94	0xbb689fcd	-0.003549564
95	0x3c419295	0.011814733
96	0xba7029dd	-0.00091615116
97	0x3ae9b75a	0.0017831132
98	0x3b0cd911	0.0021491686
99	0xbcbf0a88	-0.023320451
100	0xbb894500	-0.0041891336
101	0x3b6a654d	0.0035765946
102	0xbba37f7a	-0.0049895616
103	0xbb60a525	-0.0034278121
104	0x3b99011c	0.0046693217
105	0xbc554707	-0.0130174225
106	0xbc72aa93	-0.014811176
107	0x38991e4a	7.30125e-05
108	0xbb4784da	-0.0030444176
109	0xbb644280	-0.0034829676
110	0xbbdb3915	-0.0066901543
111	0xba74cbeb	-0.00093382475
112	0xbc71c440	-0.014756262
113	0xbc183f72	-0.00929247
114	0xbba9c205	-0.0051805996
115	0xbb1ed5d9	-0.002423635
116	0xbc4f6560	-0.012658447
117	0xbb4d3750	-0.0031313486
118	0x3bc139ab	0.005896767
119	0x3962e278	0.00021637406
120	0xbbef98a7	-0.0073118987
121	0x3b291428	0.0025799368
122	0x3c408b04	0.011751894
123	0x3b8cdd41	0.0042988365
124	0x3c6086e2	0.013704034
125	0x3bf35a12	0.0074265087
126	0x3bbc7984	0.0057517905
127	0x3c80ac1f	0.015707074
128	0x3ab753eb	0.0013986801
129	0xbc34f906	-0.0110457
130	0x3b9f0ce0	0.0048538297
131	0xbc24e8d7	-0.010065279
132	0xbc0b3715	-0.008497019
133	0x3ab7413b	0.0013981232
134	0xba66f287	-0.0008809943
135	0x3ca8cb8b	0.02060487
136	0xbb43bfc6	-0.0029868945
137	0x3ba9a493	0.0051770895
138	0xbbdd4c83	-0.0067535057
139	0xbc9cb211	-0.019127877
140	0x3c6a1807	0.014287955
141	0x3b19adfa	0.0023449645
142	0xbc8fbe52	-0.017546806
143	0xbbfebe3d	-0.007774143
144	0x3b81a9d3	0.003957012
145	0xbca7aba2	-0.020467583
146	0x3c4bed4b	0.012446712
147	0xbc681a02	-0.014166357
148	0x3b965504	0.0045877714
149	0x3bbca894	0.0057574008
150	0xbb43b96c	-0.0029865159
151	0xbc864093	-0.016388213
152	0x3bed63d7	0.007244568
153	0x3c18538f	0.009297266
154	0xbad44fb0	-0.0016198065
155	0xbb0cb350	-0.0021469183
156	0xba4fcb40	-0.000792671
157	0x3c1e6deb	0.009669761
158	0x3b35457f	0.002765983
159	0xbbc563a6	-0.006023842
160	0xbc672b5d	-0.01410946
161	0x3aed5cab	0.0018109282
162	0xbc43f8d1	-0.011961178
163	0x3b8a03d7	0.0042118835
164	0x3ba88393	0.005142638
165	0x37c583e0	2.354564e-05
166	0x3be5aad8	0.0070088916
167	0xbc83467f	-0.016024826
168	0x3c1379aa	0.009001175
169	0xbbbf6bff	-0.0058417316
170	0x3c18deb5	0.009330441
171	0x3c76fc98	0.0150748715
172	0x3a8403d7	0.0010071945
173	0xba6b509f	-0.0008976552
174	0xbc3c4958	-0.011492096
175	0x3bc957a6	0.0061444817
176	0xb9c3b489	-0.00037327808
177	0x3bde9823	0.0067930385
178	0xbc05001f	-0.008117705
179	0x384e6ff3	4.9218488e-05
180	0x3c1dabef	0.009623512
181	0x3c052995	0.00812759
182	0x3b5c474b	0.003361183
183	0xbbf84198	-0.0075761788
184	0xbc4ffdcf	-0.01269479
185	0xbb76eee7	-0.0037679018
186	0xbc1a0dcb	-0.009402703
187	0x3c6474d3	0.013943869
188	0xbae2e83f	-0.0017311646
189	0xbc0d270b	-0.008615266
190	0x3a6b6077	0.0008978913
191	0x3c16fa65	0.009214972
192	0x390fe23d	0.00013721823
193	0xba9741af	-0.0011539961
194	0x3bcdcba8	0.006280381
195	0x3b171983	0.0023055978
196	0xbc11331c	-0.008862283
197	0xb9f4d0fa	-0.00046695006
198	0x3c6924d0	0.014229968
199	0x3c642332	0.013924407
200	0xbc1364ff	-0.008996247
201	0xbc4500e7	-0.012024141
202	0x3b966b4c	0.0045904275
203	0x3ca359e7	0.01994033
204	0x3b98c3cb	0.004662012
205	0x3c2c9055	0.010532458
206	0xbb9761e3	-0.0046198233
207	0x3bba797a	0.0056907507
208	0xbc7611c3	-0.015018883
209	0x3c203e24	0.0097804405
210	0xbc1c73e5	-0.009549116
211	0x3c73d753	0.01488288
212	0x3ca03484	0.019556291
213	0x3c078569	0.008271554
214	0x3c780df0	0.015140042
215	0xbbcc6493	-0.0062375753
216	0xbbfd7762	-0.007735179
217	0x3bbc6067	0.0057487967
218	0x3c1a9fc7	0.009437508
219	0x3bfa4d73	0.007638627
220	0x3c4527c4	0.012033407
221	0x3bdda5b8	0.00676414
222	0x3b5164b8	0.0031950902
223	0x3baf8954	0.005356947
224	0x3a1fb464	0.0006092249
225	0x3b3c32a3	0.0028716705
226	0xbb842762	-0.004033015
227	0xbb214011	-0.0024604837
228	0xbc4e12ef	-0.012577756
229	0xbbdba6bf	-0.0067032273
230	0xbaf56aa3	-0.0018723797
231	0xbbcf2d38	-0.006322529
232	0x3c50542a	0.012715379
233	0xbabb6123	-0.0014295917
234	0x3b049e2b	0.0020235877
235	0x3c127ee7	0.008941389
236	0xbc4c2fd8	-0.012462579
237	0x3c4780d7	0.012176714
238	0xbbb660da	-0.005565745
239	0xbb7bbb5d	-0.0038411238
240	0xbab585d7	-0.0013849091
241	0xbbcba709	-0.0062149805
242	0x3c319a8d	0.01084007
243	0xbc2721e7	-0.010200954
244	0x3c57e0cd	0.013176155
245	0x3b7ee7a7	0.00388954
246	0x3ae4345f	0.0017410627
247	0xbbb1b047	-0.005422625
248	0x3b8114fd	0.0039392696
249	0x3bda2072	0.0066567
250	0xbc0854cd	-0.008320999
251	0xbc035b5b	-0.008017386
252	0x3c1d8b88	0.009615786
253	0xbc2c2c11	-0.010508553
254	0x3b390f9c	0.0028238064
255	0x3aade192	0.0013266078

action_model._discrete_distribution.branches.0.bias f4 [2]
0	0x00000000	0.0
1	0x00000000	0.0

action_model._discrete_distribution.branches.1.weight f4 [3, 128]
0	0x3c43346e	0.011914356
1	0xbb97814c	-0.0046235677
2	0xbbc852e6	-0.006113398
3	0xb8c20a8b	-9.252605e-05
4	0x3bda6347	0.006664667
5	0x3c4eb85d	0.012617198
6	0x3b576112	0.0032864255
7	0xbb8e01c7	-0.004333708
8	0xbc3d9497	-0.011571071
9	0xbbe77612	-0.0070636356
10	0x3bc7112c	0.006075045
11	0xb9383948	-0.00017568946
12	0x3be82240	0.007084161
13	0xb98f4aed	-0.0002733091
14	0xbb954cd6	-0.0045562787
15	0xbbf8ccdb	-0.00759278
16	0x3c3dcd6f	0.011584624
17	0x3bc88924	0.006119864
18	0x3c35e60f	0.0111022135
19	0xbc3bf8b0	-0.011472866
20	0xbbd856ab	-0.0066021285
21	0x3b7960e8	0.0038052145
22	0x3ba19a67	0.0049317363
23	0x3badcfbf	0.0053043063
24	0x3c9c2843	0.019062167
25	0x3bf36255	0.0074274936
26	0xbc1ab8ad	-0.009443444
27	0xbbdc5238	-0.0067236684
28	0x3bd2fe33	0.0064389943
29	0x3c27be8b	0.0102383
30	0xba6c52b8	-0.00090150116
31	0x38021f41	3.1023523e-05
32	0xbc6c535f	-0.014424174
33	0xba5d1e25	-0.0008434973
34	0xba039b65	-0.0005020409
35	0x3c100646	0.008790558
36	0x3b3fdb1b	0.0029274884
37	0x3b4685af	0.0030292084
38	0xbbe85628	-0.0070903488
39	0xbb0318ff	-0.0020003913
40	0xbc617eef	-0.0137631735
41	0x3bf3828d	0.0074313344
42	0x3b322cab	0.0027187269
43	0x3aaab79d	0.0013024692
44	0x3b0acd3a	0.0021179453
45	0x3acb0d3e	0.0015491617
46	0xbb6cef1d	-0.0036153265
47	0xbb53824a	-0.0032273703
48	0x3bff4a9b	0.007790876
49	0xbc5ebb4f	-0.013594463
50	0x3c278050	0.010223463
51	0x3b8f46f3	0.0043724715
52	0x3c94e47a	0.018175352
53	0xbc44d45d	-0.012013522
54	0x3c732e10	0.014842525
55	0xba77a832	-0.00094473653
56	0xb9d90af3	-0.00041397623
57	0x3b41a2bc	0.002954646
58	0xbc311423	-0.010808024
59	0x3ca3e486	0.02000643
60	0xbbc6ab31	-0.006062888
61	0x3b8e6bdf	0.0043463553
62	0x3c1830da	0.009288991
63	0x39bb17a3	0.0003568503
64	0x39799dd2	0.00023805283
65	0xbc3dee03	-0.011592391
66	0xbc544cb0	-0.012957737
67	0xbbc59556	-0.006029765
68	0xbb1f001c	-0.002426154
69	0x37fa82db	2.9863257e-05
70	0x3c29f17b	0.010372515
71	0xbaaf4211	-0.001337113
72	0x3ba26167	0.004955459
73	0xb9d77f65	-0.00041102912
74	0xba562ac5	-0.00081698253
75	0x3a9f755d	0.0012165714
76	0x3b79c997	0.0038114542
77	0x3cd4ef48	0.025993004
78	0x3a7d82df	0.00096706854
79	0xbbc913ec	-0.006136408
80	0xbc1fb197	-0.009746931
81	0x3a469e43	0.00075766834
82	0x3c687dd3	0.014190155
83	0x3c50ee8a	0.012752185
84	0x3bd38d7b	0.006456075
85	0x3c1b5ad0	0.009482101
86	0x3b57a8da	0.003290704
87	0xbaedf2b2	-0.0018153994
88	0xba4c20e3	-0.0007786883
89	0x3a80eb62	0.0009835775
90	0x39f2a707	0.00046282282
91	0xbc07c05d	-0.008285609
92	0xbb3f506b	-0.002919222
93	0xbbf7aad2	-0.007558205
94	0x3a26b6e8	0.00063596526
95	0xbaae8f73	-0.0013317898
96	0xbc320714	-0.010865945
97	0x3bd9cac2	0.006646485
98	0xbbc7f9a9	-0.00610276
99	0xb9e9204f	-0.00044465295
100	0x3c8ef082	0.017448667
101	0x3c3754ef	0.011189683
102	0x3c500608	0.01269675
103	0x3c925bb6	0.017865997
104	0xbcd06315	-0.025437871
105	0xbbd5c798	-0.0065240376
106	0xbbf5c9bf	-0.0075008566
107	0xbaa7fb0b	-0.0012815906
108	0xbc865d38	-0.016401872
109	0x3bf6ecc7	0.0075355503
110	0xbca59a94	-0.02021531
111	0x3c307434	0.0107698925
112	0x3c23217a	0.009956712
113	0x3c858e0f	0.01630309
114	0xbb8dd016	-0.0043277843
115	0x3be0ca60	0.0068600625
116	0x3cc6f9ad	0.024288977
117	0x3a838b67	0.0010036052
118	0xbb96ab47	-0.0045980546
119	0x3c3fd65d	0.011708823
120	0x3acbc2ca	0.0015545723
121	0xbae83663	-0.0017716404
122	0xbbc2dec7	-0.0059469673
123	0xbc69324d	-0.014233184
124	0x3c55313b	0.013012226
125	0x3b57220b	0.0032826688
126	0xbaa72b37	-0.0012753968
127	0x3b219957	0.0024658048
128	0xbb548d0d	-0.0032432706
129	0x3bbd7740	0.005782038
130	0xbc296567	-0.010339118
131	0xbc5e4e62	-0.013568493
132	0x3a54e177	0.0008120755
133	0x3b36af04	0.0027875314
134	0xb98d45da	-0.0002694566
135	0xbc08febd	-0.008361516
136	0xbbd53615	-0.006506691
137	0x3b474933	0.003040862
138	0x3c0fc63e	0.008775292
139	0x3bb44897	0.0055018174
140	0xbc99455c	-0.018709831
141	0x3aa5dec8	0.0012654895
142	0x3b44e0cb	0.0030041214
143	0xba256949	-0.0006309939
144	0xbc0d7682	-0.0086342115
145	0xbbb58795	-0.0055398443
146	0x3b3b0bba	0.0028540925
147	0xbbb7331a	-0.0055908086
148	0x3c499c2b	0.0123053
149	0xbc6bcea2	-0.014392527
150	0xbac75b0f	-0.0015209633
151	0xbb0033b9	-0.001956208
152	0x3b499dd0	0.003076423
153	0xbbdb0a9a	-0.0066846134
154	0x3af24e35	0.0018486442
155	0xbc88c71f	-0.01669651
156	0xbbafd613	-0.005366096
157	0x3bbb01b0	0.0057069883
158	0xbcabc1df	-0.020966468
159	0x3c76b623	0.015058073
160	0x3bd82d23	0.0065971776
161	0x3ae535e5	0.0017487375
162	0x3b78f092	0.0037985188
163	0x3b3db48f	0.0028946733
164	0xbc61a060	-0.013771147
165	0xbb805eaa	-0.003917535
166	0xbb1ffda0	-0.0024412647
167	0x3ad97c2a	0.001659279
168	0x3c5a41aa	0.01332132
169	0x3aaec064	0.0013332483
170	0xbb6d4767	-0.003620589
171	0x3c1908b7	0.009340457
172	0xbc3d1eb9	-0.011542969
173	0xbc53a2c3	-0.012917223
174	0xbbc15063	-0.0058994754
175	0xbbe1a9c2	-0.006886692
176	0xbbee61e8	-0.007274855
177	0x3bcbd87a	0.0062208744
178	0x3bc6db95	0.0060686567
179	0xbbada923	-0.0052997037
180	0xbaf2a4bd	-0.0018512231
181	0x3b2dd8bb	0.0026526887
182	0xbc83bc7a	-0.016081084
183	0xbc873cc4	-0.016508467
184	0xbca0cf08	-0.01962997
185	0x3b54f8ea	0.0032496997
186	0xbbe89cc5	-0.0070987665
187	0x3c88d2cc	0.016702078
188	0xbcbffe0d	-0.02343657
189	0x3c3a3392	0.011364834
190	0x3b5e65b5	0.0033935134
191	0xbc1aa207	-0.009438044
192	0x3c84ecd4	0.01622621
193	0xbbd8d0d5	-0.0066166916
194	0x3c02a675	0.007974257
195	0xbc431f40	-0.011909306
196	0xbbe25d15	-0.006908069
197	0x3c5b6a08	0.013391979
198	0x3b0aac93	0.002115999
199	0xba027bb3	-0.0004977539
200	0xbb2be7dd	-0.002623073
201	0xbb047c2e	-0.0020215618
202	0x3c5bf852	0.013425903
203	0xbb702372	-0.003664222
204	0x3bc27226	0.0059340177
205	0x39873529	0.00025788814
206	0x3a692905	0.0008894357
207	0xbc43d759	-0.011953198
208	0x3a174ce7	0.0005771652
209	0x3b22d79a	0.0024847747
210	0xbc21528d	-0.009846342
211	0xbc7b5173	-0.015339243
212	0xbc01b368	-0.007916309
213	0xbc459857	-0.012060246
214	0x3c07a4bd	0.008279023
215	0xbc79feba	-0.015258485
216	0x3c6e72e8	0.014553763
217	0xbb056969	-0.0020357019
218	0x3b974315	0.004616151
219	0xbc181187	-0.009281523
220	0x39bc0692	0.0003586305
221	0x3c2bf7ce	0.010496093
222	0x3ac60b38	0.0015109545
223	0xbbb64534	-0.005562449
224	0x3a233613	0.0006226014
225	0xbc1ad541	-0.009450258
226	0xbb1e2a07	-0.0024133937
227	0x3a9af147	0.0011821174
228	0x3be17358	0.006880205
229	0xbbc2d8d4	-0.005946258
230	0x3c333a59	0.010939204
231	0x3baec7f5	0.0053338953
232	0x3c951c12	0.018201862
233	0xbc8bac5d	-0.017049963
234	0xbb97d59e	-0.0046336195
235	0x3b37fe0b	0.0028075005
236	0xbb86769f	-0.004103496
237	0x3bd60485	0.0065313005
238	0xbc2ff8e1	-0.01074049
239	0xbbd7789a	-0.006575656
240	0x3b2d1e11	0.0026415626
241	0xbc1f78d7	-0.0097334
242	0x3b8b0b78	0.0042433105
243	0xbb918d13	-0.004441866
244	0x3b00bdcc	0.0019644378
245	0x3cbef883	0.023311859
246	0x3c10a9d3	0.008829552
247	0xbbf5636b	-0.007488658
248	0x3b2e6450	0.0026610084
249	0xbb8fe812	-0.0043916786
250	0x3b9cdcab	0.004787048
251	0xbb843b7a	-0.0040354105
252	0xbb76199d	-0.0037551888
253	0xbc6cba17	-0.014448664
254	0x3c2eadb0	0.0106615275
255	0xbc553d0f	-0.013015046

action_model._discrete_distribution.branches.1.bias f4 [3]
0	0x00000000	0.0
1	0x00000000	0.0
2	0x00000000	0.0

network_body._body_endoder.seq_layers.0.weight f4 [128, 70]
0	0xbda8d5ab	-0.08243879
1	0xbd3d8cc9	-0.04627684
2	0x3b379e49	0.002801793
3	0xbe360950	-0.1777699
4	0x3ded04c8	0.115731776
5	0xbe6b9218	-0.23004949
6	0xbda9ebbd	-0.08296917
7	0x3d1dff45	0.038573522
8	0xbdb008c2	-0.085954204
9	0x3db3aaa0	0.087727785
10	0x3cd28e89	0.025702732
11	0x3a608b14	0.0008565646
12	0x3d62140a	0.055194892
13	0xbe14f234	-0.14545518
14	0x3d0dea02	0.034646995
15	0xbe53c19b	-0.20679323
16	0xbd64332f	-0.055712875
17	0x3dc65c55	0.0968558
18	0x3df67490	0.12033951
19	0xbd9d772f	-0.07688748
20	0xbd92b727	-0.0716384
21	0xbaef414b	-0.0018253712
22	0xbca11cb0	-0.019667
23	0xbdd6afac	-0.104827255
24	0xbd3abcf5	-0.04559036
25	0x3ce263e9	0.027635531
26	0x3ea9f5f2	0.33195454
27	0x3da06e2f	0.07833516
28	0xbcc39508	-0.023874775
29	0x3e151b7f	0.1456127
30	0x3c3c0510	0.011475816
31	0xbc29a8c9	-0.010355183
32	0xbe168234	-0.14698106
33	0x3e046921	0.12930728
34	0x3df9f70a	0.12205322
35	0xbdd98914	-0.10621849
36	0xbe39b66a	-0.18135992
37	0xbdb67e90	-0.08910859
38	0xbc85654e	-0.016283657
39	0x3daab717	0.08335703
40	0x3d3be3f1	0.04587168
41	0x3d9bb31d	0.076025225
42	0xbd7d77fc	-0.061882004
43	0xbdc4f458	-0.09616917
44	0xbd4db32f	-0.05021971
45	0xbd484548	-0.048894197
46	0x3e0c5341	0.13703634
47	0x3cc8470b	0.024447938
48	0x3d994efd	0.07485769
49	0x3c93a7b0	0.018024296
50	0x3d3da7f0	0.046302736
51	0xbe35c10b	-0.17749421
52	0xbdb49b58	-0.08818692
53	0xbd9c1958	-0.076220214
54	0x3e36e4e7	0.17860757
55	0x3d7d53b0	0.06184739
56	0x3dc4b140	0.0960412
57	0x3d1b0b79	0.037852738
58	0xbe49851c	-0.19679683
59	0xbd22d6d3	-0.039755654
60	0x3e44b53a	0.19209757
61	0x3dcedfd0	0.101012826
62	0xbc3d2647	-0.011544771
63	0x3c260101	0.010132075
64	0xbe36ec4d	-0.17863579
65	0x3d187488	0.037220508
66	0x3e288582	0.16457179
67	0xbd2772ad	-0.040880848
68	0x3c6fda47	0.014639444
69	0x3c784773	0.015153754
70	0x3c8058ac	0.015667282
71	0x3dca058c	0.09864339
72	0xbe130134	-0.14355928
73	0x3e23b47b	0.15986817
74	0x3defc817	0.11708086
75	0xbe1ffc26	-0.15623531
76	0xbd439777	-0.04775187
77	0x3d429999	0.047509763
78	0x3d92692b	0.071489654
79	0xbe12bf9f	-0.1433091
80	0x3d852536	0.06501238
81	0xbdc70473	-0.097176455
82	0x3d83476a	0.064101055
83	0x3e53fd49	0.2070209
84	0xbe7f6c71	-0.24943711
85	0x3dd8b986	0.10582261
86	0xbc9c54e0	-0.01908344
87	0x3d5c9a31	0.053857986
88	0x3dc2bb82	0.095084205
89	0x3d3a901b	0.045547586
90	0x3e1851e2	0.14874986
91	0xbc08be91	-0.008346216
92	0xbdba10ef	-0.09085261
93	0xbd1d3b7d	-0.03838681
94	0x3e53d406	0.2068635
95	0x3d37498e	0.04474788
96	0x3cf9ca7f	0.030492065
97	0xbdd9c50b	-0.10633286
98	0xbd53ab29	-0.051676903
99	0x3e27968a	0.1636602
100	0x3c8eb76a	0.017421443
101	0x3d36cffe	0.04463195
102	0xbcba8f3e	-0.022773381
103	0x3d969415	0.07352463
104	0x3c1f3f61	0.009719701
105	0x3d16a508	0.03677848
106	0x3e7a1302	0.24421313
107	0xbd8663a4	-0.06561974
108	0xbe1683e9	-0.14698757
109	0x3d854c74	0.06508723
110	0xbe9260ff	-0.28589627
111	0xbb7c2e90	-0.0038479902
112	0x3d053cfc	0.032528862
113	0x3cd53f81	0.026031258
114	0xbd0bf5af	-0.03416985
115	0x3e189c57	0.14903389
116	0x3c47c7bb	0.012193616
117	0xbde0b0f5	-0.10971252
118	0x3eb51a5a	0.35371667
119	0xbd8a7d4b	-0.06762179
120	0xbdd3952e	-0.10331188
121	0x3e8b2589	0.27177075
122	0xbd7c42bf	-0.06158709
123	0xbdabbaae	-0.08385216
124	0xbceeb30c	-0.02913811
125	0xbd724a8e	-0.059153132
126	0x3df66676	0.120312616
127	0x3e57447e	0.21022221
128	0x3b82e082	0.0039940486
129	0xbd98a17f	-0.07452678
130	0xbd9540a0	-0.07287717
131	0x3df58710	0.11988652
132	0x3e1ea2fb	0.1549186
133	0x3c303a50	0.01075609
134	0x3caab15c	0.020836525
135	0x3e73cdc8	0.23808968
136	0x3caf1b27	0.021375252
137	0xbd8d0e8f	-0.068875425
138	0x3dbb0628	0.091320336
139	0xbe574412	-0.2102206
140	0xbc76e05e	-0.015068142
141	0x3db4f61f	0.088360064
142	0xbe28a29f	-0.16468285
143	0xbe39836d	-0.18116541
144	0x3d649983	0.055810463
145	0xbd254831	-0.04035205
146	0x3df53120	0.119722605
147	0x3e30d4e5	0.17268713
148	0x3d2974ae	0.04137104
149	0xbc397414	-0.011319179
150	0xbdfd3a16	-0.12364595
151	0xbe1fe6d7	-0.15615402
152	0xbdd99b65	-0.10625342
153	0xbe458822	-0.19290212
154	0x3e805311	0.25063375
155	0x3dc4d25f	0.096104376
156	0x3e124845	0.14285381
157	0x3d45dddb	0.04830728
158	0x3e0d2f3b	0.13787548
159	0x3e760eaf	0.24029039
160	0x3e67aa10	0.22623467
161	0xbe05b650	-0.13057828
162	0xbe0d7918	-0.13815725
163	0xbe449d20	-0.19200563
164	0xbe11b56f	-0.14229368
165	0x3bed9c1a	0.007251275
166	0x3dff21ed	0.12457643
167	0xbe0ca817	-0.13735996
168	0x3c75b360	0.01499638
169	0xbe34de1b	-0.17662852
170	0x3e65f6ec	0.22457474
171	0xbddb4f3d	-0.10708473
172	0xbc90af6f	-0.017661778
173	0xbc713998	-0.014723204
174	0x3cf5a0da	0.029983927
175	0xbd8af065	-0.06784133
176	0x3e113ea9	0.14184059
177	0xbda9b242	-0.08285953
178	0xbe2d6bef	-0.16935705
179	0xbd8533e6	-0.065040395
180	0x3d560262	0.052248366
181	0xbb98e49a	-0.0046659233
182	0x3da9f841	0.08299304
183	0x3d02e8c6	0.03196027
184	0xbd329ef0	-0.043608606
185	0xbe26de63	-0.16295771
186	0x3e98dc09	0.29855374
187	0xbe530931	-0.20608975
188	0xbcde63d5	-0.027147213
189	0xbc3c7ec2	-0.011504831
190	0x3d342a00	0.043985367
191	0xbe43e16b	-0.19128959
192	0xbc44a4f1	-0.012002216
193	0x3e070837	0.13186727
194	0x3e1f6df7	0.15569292
195	0xbdf94564	-0.12171438
196	0x3cc64a66	0.024205398
197	0xbcad7325	-0.02117307
198	0x3d8d0a22	0.06886698
199	0xbdf6e3d9	-0.12055177
200	0x3df370f4	0.118867785
201	0x3dc97eab	0.09838613
202	0x3dd69937	0.10478442
203	0x3d106a0b	0.03525738
204	0x3d884fe7	0.06655865
205	0xbe09d901	-0.13461687
206	0xbe0d6399	-0.13807525
207	0x3ddb748b	0.10715588
208	0x39a15d20	0.00030777697
209	0xbe8abe92	-0.2709852
210	0x3e144e44	0.14482981
211	0x3d803fb6	0.06262152
212	0x3d539e9b	0.05166493
213	0x3c6e8b74	0.014559615
214	0x3c585d0a	0.013205776
215	0x3d0f7376	0.03502222
216	0xbdfb8c33	-0.122826
217	0xbcb7b245	-0.022423873
218	0x3dc8f16b	0.09811672
219	0xbdbf8e8e	-0.09353362
220	0x3da0b95e	0.07847856
221	0xbe129365	-0.14314039
222	0x3e09485c	0.13406509
223	0x3d846f4b	0.0646654
224	0xbe11e4f9	-0.14247502
225	0xbdfa82e7	-0.12231999
226	0xbe054901	-0.1301613
227	0xbe03f122	-0.12884954
228	0x3ca531f9	0.02016543
229	0x3ce6f1e5	0.028191516
230	0x3e71c50a	0.2361032
231	0x3cd77398	0.026300237
232	0xbd826003	-0.06365969
233	0xbcbb057e	-0.022829767
234	0xbc2201d9	-0.009888136
235	0x3cd55f21	0.026046338
236	0x3e488a34	0.1958397
237	0xbdce2775	-0.100661196
238	0x3cb4a8e6	0.022053193
239	0xbd9acef7	-0.07559007
240	0xbd5a51fe	-0.05330085
241	0xbe1e737a	-0.15473738
242	0xbc89cb4b	-0.01682057
243	0x3d66df9d	0.056365598
244	0xbd1b2387	-0.03787568
245	0x3d17bf27	0.03704753
246	0xbe063b64	-0.13108593
247	0xba701df7	-0.00091597385
248	0xbc9dd9ae	-0.019268837
249	0x3e0ffa27	0.1406027
250	0xbc84445e	-0.016145881
251	0x3a285617	0.000642152
252	0x3d640d42	0.055676706
253	0xbe290ba5	-0.16508348
254	0x3de4d045	0.11172537
255	0x3e06314b	0.13104741

network_body._body_endoder.seq_layers.0.bias f4 [128]
0	0x00000000	0.0
1	0x00000000	0.0
2	0x00000000	0.0
3	0x00000000	0.0
4	0x00000000	0.0
5	0x00000000	0.0
6	0x00000000	0.0
7	0x00000000	0.0
8	0x00000000	0.0
9	0x00000000	0.0
10	0x00000000	0.0
11	0x00000000	0.0
12	0x00000000	0.0
13	0x00000000	0.0
14	0x00000000	0.0
15	0x00000000	0.0
16	0x00000000	0.0
17	0x00000000	0.0
18	0x00000000	0.0
19	0x00000000	0.0
20	0x00000000	0.0
21	0x00000000	0.0
22	0x00000000	0.0
23	0x00000000	0.0
24	0x00000000	0.0
25	0x00000000	0.0
26	0x00000000	0.0
27	0x00000000	0.0
28	0x00000000	0.0
29	0x00000000	0.0
30	0x00000000	0.0
31	0x00000000	0.0
32	0x00000000	0.0
33	0x00000000	0.0
34	0x00000000	0.0
35	0x00000000	0.0
36	0x00000000	0.0
37	0x00000000	0.0
38	0x00000000	0.0
39	0x00000000	0.0
40	0x00000000	0.0
41	0x00000000	0.0
42	0x00000000	0.0
43	0x00000000	0.0
44	0x00000000	0.0
45	0x00000000	0.0
46	0x00000000	0.0
47	0x00000000	0.0
48	0x00000000	0.0
49	0x00000000	0.0
50	0x00000000	0.0
51	0x00000000	0.0
52	0x00000000	0.0
53	0x00000000	0.0
54	0x00000000	0.0
55	0x00000000	0.0
56	0x00000000	0.0
57	0x00000000	0.0
58	0x00000000	0.0
59	0x00000000	0.0
60	0x00000000	0.0
61	0x00000000	0.0
62	0x00000000	0.0
63	0x00000000	0.0
64	0x00000000	0.0
65	0x00000000	0.0
66	0x00000000	0.0
67	0x00000000	0.0
68	0x00000000	0.0
69	0x00000000	0.0
70	0x00000000	0.0
71	0x00000000	0.0
72	0x00000000	0.0
73	0x00000000	0.0
74	0x00000000	0.0
75	0x00000000	0.0
76	0x00000000	0.0
77	0x00000000	0.0
78	0x00000000	0.0
79	0x00000000	0.0
80	0x00000000	0.0
81	0x00000000	0.0
82	0x00000000	0.0
83	0x00000000	0.0
84	0x00000000	0.0
85	0x00000000	0.0
86	0x00000000	0.0
87	0x00000000	0.0
88	0x00000000	0.0
89	0x00000000	0.0
90	0x00000000	0.0
91	0x00000000	0.0
92	0x00000000	0.0
93	0x00000000	0.0
94	0x00000000	0.0
95	0x00000000	0.0
96	0x00000000	0.0
97	0x00000000	0.0
98	0x00000000	0.0
99	0x00000000	0.0
100	0x00000000	0.0
101	0x00000000	0.0
102	0x00000000	0.0
103	0x00000000	0.0
104	0x00000000	0.0
105	0x00000000	0.0
106	0x00000000	0.0
107	0x00000000	0.0
108	0x00000000	0.0
109	0x00000000	0.0
110	0x00000000	0.0
111	0x00000000	0.0
112	0x00000000	0.0
113	0x00000000	0.0
114	0x00000000	0.0
115	0x00000000	0.0
116	0x00000000	0.0
117	0x00000000	0.0
118	0x00000000	0.0
119	0x00000000	0.0
120	0x00000000	0.0
121	0x00000000	0.0
122	0x00000000	0.0
123	0x00000000	0.0
124	0x00000000	0.0
125	0x00000000	0.0
126	0x00000000	0.0
127	0x00000000	0.0

network_body._body_endoder.seq_layers.2.weight f4 [128, 128]
0	0x3b6e0b97	0.0036322826
1	0xbddec9df	-0.108783476
2	0x3d60a931	0.054848853
3	0x3e1a4ba0	0.15067911
4	0x3da4e229	0.08050949
5	0x3d8d9f9c	0.06915209
6	0xbcd64fc3	-0.02616108
7	0xbd82b041	-0.06381274
8	0x3da1b97e	0.07896708
9	0x3df05db1	0.1173662
10	0x3d53ad10	0.051678717
11	0xbda127c6	-0.07868914
12	0xbd89d5cf	-0.06730234
13	0xbdcc9d8d	-0.09990988
14	0xbe5b9f74	-0.21447545
15	0x3d437ebc	0.047728285
16	0xbdee4dcb	-0.116359316
17	0x3b2cdc2b	0.0026376348
18	0x3d2e2aa2	0.042521127
19	0x3dbe9ef6	0.09307663
20	0x3b7c0a6d	0.0038458363
21	0x3e55279e	0.20815894
22	0x3d718cb8	0.05897209
23	0x3d3ff9c4	0.046869054
24	0xbcaa3816	-0.020778697
25	0xbd9e3355	-0.077246346
26	0xbd31dd26	-0.043423794
27	0xbc8b2fdc	-0.016990595
28	0x3e365fe8	0.17810023
29	0xbd03db8c	-0.032191798
30	0x3c3fadfa	0.011699194
31	0x3dad3815	0.084579624
32	0x3cd1cc14	0.025610007
33	0x3d8dba01	0.06920243
34	0x3e39c636	0.18142018
35	0x3dc8323f	0.09775209
36	0x3e02b967	0.12766038
37	0xbd7497f6	-0.059715234
38	0xbcde32fe	-0.027123924
39	0x3d384f6f	0.04499763
40	0xbd99f698	-0.07517737
41	0xbdd6e5f8	-0.10493082
42	0x3cb066d7	0.021533413
43	0xbcb00c1c	-0.02149015
44	0x3d840d44	0.06447843
45	0x3d8893c2	0.066688076
46	0x3ce4a90a	0.027912635
47	0x3b56d37d	0.0032779865
48	0xbd48b2bf	-0.04899859
49	0xbd8a2dc3	-0.067470096
50	0xbcc5e658	-0.024157688
51	0xbd39e4f4	-0.045384362
52	0x3d994f7f	0.07485866
53	0xbdd66d2c	-0.10470042
54	0x3c0b034d	0.008484674
55	0xbd0d1f81	-0.034453873
56	0xbc866247	-0.016404284
57	0xbda72dae	-0.081630096
58	0xbd3a8cb0	-0.045544326
59	0xbd02e387	-0.03195527
60	0x3cd4077a	0.025882471
61	0xbd2fd8aa	-0.042931236
62	0x3e2b2a17	0.16715275
63	0xbd813dc3	-0.06310608
64	0x3c2514f4	0.010075796
65	0x3e23235c	0.15931457
66	0xbda89275	-0.082310595
67	0x3cb4155f	0.021982847
68	0xbc75f19b	-0.0150112165
69	0x3de4a8ef	0.11165034
70	0xbdcf6288	-0.10126215
71	0xbe3a3f19	-0.18188132
72	0x3d25441d	0.04034816
73	0xbc29b8b3	-0.010358977
74	0xbd8fac14	-0.07015243
75	0xbdf89761	-0.12138248
76	0xbd75294e	-0.059853844
77	0x3e384efb	0.17998879
78	0xbdf4c19b	-0.1195099
79	0xbe264946	-0.16238889
80	0x3c85710f	0.016289262
81	0x3e1a15e1	0.15047409
82	0xbdacb01b	-0.08432027
83	0x3d9fa626	0.07795362
84	0x3d86c242	0.065800205
85	0xbd47ea6f	-0.048807558
86	0xbd11760e	-0.035512976
87	0xbcdb8ba7	-0.02679999
88	0x3da34d11	0.079736836
89	0xbdd4ca46	-0.10390143
90	0x3d5eb5a2	0.054372437
91	0x3e1511ef	0.14557622
92	0xbde6a0a3	-0.11261108
93	0xbbc6f2c5	-0.006071421
94	0xbca6f62a	-0.020381052
95	0x3dc1bda9	0.09460003
96	0x3cd69b43	0.026197081
97	0xbc8793dd	-0.016549999
98	0x3c2192e6	0.0098616835
99	0x3ca9c7d6	0.020725172
100	0xbd079858	-0.03310427
101	0xbe3067ad	-0.17227049
102	0x3d804483	0.062630676
103	0xbc916076	-0.017746191
104	0xbd3115ef	-0.043233808
105	0xbda1c181	-0.07898236
106	0x3d7389b1	0.059457485
107	0xbe3b4f00	-0.18291855
108	0xbdaa8d36	-0.08327715
109	0x3cd1f345	0.025628695
110	0x3cdb0bf0	0.02673909
111	0xbd210225	-0.039308686
112	0x3d753b2f	0.059870895
113	0x3ad5fd8b	0.0016326172
114	0x3b9e366a	0.004828264
115	0xbd97208e	-0.07379256
116	0xbe1e6a9d	-0.15470357
117	0xbb9835df	-0.004645094
118	0x3e0a5b1a	0.13511315
119	0xbc060927	-0.008180893
120	0xbc72849d	-0.014802125
121	0xbdea9424	-0.11454037
122	0xbd49634e	-0.04916697
123	0xbd13d85e	-0.036095016
124	0xbdebd78a	-0.1151572
125	0x3dc1d331	0.0946411
126	0x3d0e969a	0.034811594
127	0x3d442f2a	0.04789654
128	0xbd8ca67b	-0.06867691
129	0xbba3796c	-0.00498884
130	0x3d8cfcdf	0.06884169
131	0xbcb96add	-0.022633964
132	0xbcb74be4	-0.022375055
133	0xbdb5da78	-0.0887956
134	0x3bc62a31	0.00604751
135	0x3e13e07f	0.14441107
136	0x3e21772e	0.1576812
137	0x3c817647	0.01580347
138	0x3bcbc054	0.0062179957
139	0xbda53f18	-0.08068675
140	0xba45ae3c	-0.00075409166
141	0x3c4a63da	0.012352908
142	0x3cbc18b5	0.022961
143	0x3cd81b24	0.02638013
144	0xbd15e177	-0.036591973
145	0xbdad9a6c	-0.08476719
146	0x3e1d3db4	0.15355569
147	0xbdb45791	-0.088057645
148	0xbdd2e5a0	-0.10297704
149	0xbe4e7ea9	-0.20165505
150	0x3e0f9402	0.14021304
151	0xbd7fec36	-0.062481128
152	0xbd52bb63	-0.051448237
153	0xbd96ef1d	-0.07369826
154	0x3b8855b1	0.004160606
155	0xbe061682	-0.13094524
156	0x3e01089d	0.12600942
157	0x3e0a9d5e	0.13536593
158	0xbdb3036c	-0.08740887
159	0xbd7c701a	-0.061630346
160	0xbc61bc72	-0.013777839
161	0x3de5119b	0.111849986
162	0xbd268845	-0.0406573
163	0xbde3f957	-0.11131542
164	0xbd5f1c61	-0.054470424
165	0x3ced6b35	0.028981784
166	0x3cd22078	0.025650248
167	0xbe14afdf	-0.14520214
168	0x3c8bec92	0.017080579
169	0xbd736818	-0.059425443
170	0x3c8b6ace	0.017018702
171	0x3d8e538d	0.0694953
172	0xbd1ac125	-0.037781853
173	0xbd955d49	-0.07293183
174	0xbb1e72ac	-0.0024177236
175	0x3d471674	0.048605397
176	0x3d5040a5	0.0508429
177	0x3d83e9d8	0.064410865
178	0xbc896d81	-0.016775848
179	0xbe2a2884	-0.16617018
180	0xbe0209f1	-0.12699105
181	0xbd99d132	-0.07510604
182	0x3deb9bd1	0.11504329
183	0xbd4bbb81	-0.049739365
184	0xbd22b4d7	-0.039723244
185	0xbc905974	-0.01762078
186	0xbd1efd2f	-0.038815673
187	0x3d854578	0.06507391
188	0x3ca8adec	0.020590745
189	0xbe1d0c99	-0.15336837
190	0x3d1608ff	0.036629673
191	0x3d5fb66f	0.05461734
192	0x3d44f239	0.048082564
193	0xbbe41b26	-0.006961244
194	0xbcc2d0e2	-0.023781244
195	0xbdc8f167	-0.09811669
196	0xbbcc6041	-0.0062370603
197	0x3de9749a	0.11399193
198	0xbe3b5de4	-0.18297535
199	0x3e060689	0.1308843
200	0x3c08906c	0.008335214
201	0xbdc45e2e	-0.09588276
202	0x3dafdf66	0.08587532
203	0x3dda6dec	0.10665497
204	0x3d399926	0.04531207
205	0xbd210bf8	-0.039318055
206	0x3e0d1ec7	0.13781272
207	0x3e555c4b	0.20835988
208	0x3988d506	0.00026098656
209	0xbc79afc9	-0.015239664
210	0x3e16d62b	0.14730136
211	0xbdcd4b8a	-0.100241736
212	0x3d492a99	0.04911289
213	0xbe141788	-0.14462101
214	0xbc6d02e2	-0.014466019
215	0x3d362b88	0.04447511
216	0x3dcfc65c	0.10145256
217	0x3ddf1870	0.10893333
218	0x3d583384	0.052783504
219	0x3d2466d4	0.040137127
220	0xbd87b880	-0.066269875
221	0xbd424f1e	-0.047438733
222	0x3d58acc6	0.052899145
223	0xbe015261	-0.12629081
224	0xbc3788b1	-0.011202023
225	0x3d9eebfd	0.07759855
226	0xbb3f3ca3	-0.002918043
227	0xbb300071	-0.0026855732
228	0x39f90ecc	0.00047504005
229	0x3df25936	0.11833422
230	0xbc720c0f	-0.014773383
231	0xbd22880d	-0.03968053
232	0x3d9d5ab6	0.07683317
233	0x3d29ef1a	0.04148779
234	0xbcb9ba21	-0.022671761
235	0x3c1655be	0.009175716
236	0x3d56ff17	0.052489366
237	0xbd835cf3	-0.06414213
238	0xbde16351	-0.11005271
239	0xbc2900c4	-0.010315124
240	0xbc708624	-0.014680419
241	0xbdb6df1f	-0.08929276
242	0x3bb94a6e	0.0056546247
243	0xbcea94db	-0.028635433
244	0x3d834fe6	0.06411724
245	0xbd6d5203	-0.05793954
246	0xbdb37ad9	-0.08763666
247	0x3e0ce5a5	0.13759477
248	0x3d6bddeb	0.057584684
249	0x3e1a76d7	0.15084396
250	0x3d586986	0.05283501
251	0xbe4c97d3	-0.19979791
252	0xbc162996	-0.009165188
253	0xbd91780a	-0.07102974
254	0xbcc0595e	-0.023480114
255	0x3d96749d	0.07346461
