results/old/Test00003/Drive/Drive-120058.onnx (onnx, 87763 bytes, 9 tensors)

discrete_act_size_vector f4 [1, 2]
0	0x40000000	2.0
1	0x40400000	3.0

network_body._body_endoder.seq_layers.0.weight f4 [128, 30]
0	0xbcbcd86c	-0.023052417
1	0xbeae7a75	-0.34077802
2	0xbeb2569e	-0.3483171
3	0xbe59a06b	-0.21252601
4	0x3d95556a	0.07291682
5	0x3e308754	0.17239124
6	0xbf5c6cb5	-0.86103374
7	0x3e3aa7a2	0.1822801
8	0xbe8ff02d	-0.28112927
9	0x3e3e3e2c	0.18578404
10	0x3e845485	0.25845733
11	0x3ee087a0	0.43853474
12	0x3e8281a1	0.25489524
13	0x3e7ea0c4	0.24866015
14	0xbefd7cf8	-0.49509406
15	0xbea8b466	-0.32950133
16	0x3e31ada8	0.17351401
17	0x3ea9e8f9	0.33185557
18	0x3e1cb723	0.15304236
19	0x3f27102e	0.65259063
20	0x3d6e0ec5	0.058119554
21	0x3e8dce71	0.27696565
22	0xbf06b156	-0.52614343
23	0xbea28017	-0.3173835
24	0x3e0807bd	0.13284202
25	0x3de3c726	0.11121969
26	0x3c346a8b	0.01101173
27	0x3f487bf1	0.7831412
28	0x3db3ef75	0.08785907
29	0xbd72ab60	-0.059245467
30	0xbd522c92	-0.051312037
31	0xbe9599e2	-0.29218966
32	0xbd5e28ed	-0.05423825
33	0xbe37b7b4	-0.17941171
34	0x3daab519	0.08335323
35	0x3e928fe8	0.28625417
36	0xbe9c0fb2	-0.30480725
37	0x3d8b5fa0	0.068053484
38	0xbe8321a8	-0.25611615
39	0x3f305bc6	0.68890035
40	0x3f072744	0.5279429
41	0xbe7477e1	-0.23873855
42	0x3ea4564a	0.32097083
43	0xbf02f575	-0.5115579
44	0x3d5cb370	0.053882062
45	0x3eed6b53	0.46370944
46	0xbebbd4a7	-0.36685678
47	0x3e55add8	0.20867097
48	0x3e3c5519	0.18391837
49	0xbf3b77f3	-0.73229903
50	0xbe0b4676	-0.13601097
51	0xbe20ff3c	-0.15722364
52	0x3e0a41ad	0.13501616
53	0x3f1e56f3	0.61851424
54	0xbeca7d1f	-0.39548585
55	0x3aefb270	0.0018287431
56	0x3e126457	0.14296089
57	0xbf544302	-0.82914746
58	0xbeb18e7d	-0.34679022
59	0x3d81b36d	0.06333051
60	0xbf1e6c27	-0.6188378
61	0xbf02f815	-0.51159793
62	0x3eb6d460	0.35708904
63	0xbe56e7d4	-0.20986873
64	0xbda8d980	-0.0824461
65	0xbe966366	-0.2937271
66	0x3e9d921d	0.30775538
67	0xbef9e7cb	-0.48809657
68	0x3dc48de9	0.0959738
69	0xbe55c2c4	-0.20875078
70	0x3d226c01	0.03965378
71	0xbd94e6d8	-0.072705925
72	0xbe1ad1d1	-0.15119101
73	0xbe0394a1	-0.12849666
74	0x3d2b8dd3	0.0418833
75	0xbe72e5cb	-0.23720472
76	0x3d8ddab3	0.06926479
77	0xbf05c2bd	-0.5225027
78	0xbd5fca29	-0.054636154
79	0x3f17d5eb	0.5931079
80	0xbe06b41c	-0.13154644
81	0x3e910c58	0.2832973
82	0xbdecdeaf	-0.11565911
83	0xbedf408c	-0.43603933
84	0x3e095abb	0.13413517
85	0xbe4973b3	-0.19673042
86	0xbdce26dc	-0.100660056
87	0x3e8a8516	0.27054662
88	0x3ded6c3d	0.115929104
89	0x3d59e282	0.05319453
90	0x3e15f28f	0.1464331
91	0xbec106a1	-0.3770037
92	0xbdc72e6e	-0.09725653
93	0x3e5a8e9d	0.21343465
94	0xbc92775f	-0.017879186
95	0x3ea7b316	0.3275382
96	0x3e0786d9	0.13235034
97	0x3f0361a8	0.51320887
98	0x3d52ea88	0.051493198
99	0x3e258334	0.16163331
100	0xbdb5af35	-0.08871309
101	0xbb921ec0	-0.004459232
102	0xbebbe57f	-0.3669853
103	0x3dc44cbe	0.0958495
104	0x3f1a1130	0.60182476
105	0x3ed2264a	0.41044837
106	0x3ea304d5	0.31839624
107	0xbe3db935	-0.18527682
108	0x3d6de97b	0.058083992
109	0xbdf715ba	-0.12064691
110	0x3e771d7c	0.24132341
111	0xbe267665	-0.16256101
112	0x3f0ad955	0.5423787
113	0x3ecf2b3f	0.40462682
114	0xbe478204	-0.19483191
115	0x3e3abee3	0.1823688
116	0xbbb5b739	-0.0055455235
117	0x3e088292	0.13331059
118	0xbee0a44b	-0.43875346
119	0xbd265899	-0.040611837
120	0x3dfebcbf	0.12438344
121	0xbd545a26	-0.051843785
122	0xbede7be5	-0.434539
123	0x3f261071	0.6486884
124	0x3e229836	0.15878376
125	0xbea1481f	-0.31500337
126	0x3e15a54e	0.1461384
127	0x3f10160a	0.5628363
128	0xbf029a06	-0.5101627
129	0x3f464b32	0.7745849
130	0xbd2f858f	-0.04285198
131	0x3ec94863	0.3931304
132	0xbdf8c8ac	-0.1214765
133	0x3ea95ef5	0.3308026
134	0x3e9f654a	0.31131965
135	0x3e1cbe7e	0.15307042
136	0x3cdfed03	0.027334696
137	0xbdce03d0	-0.10059321
138	0x3d035a16	0.032068335
139	0x3df29482	0.11844732
140	0x3f2811a5	0.65651923
141	0xbe16ac2f	-0.1471412
142	0x3ec29a76	0.3800847
143	0x3efa7290	0.4891553
144	0x3da31885	0.07963661
145	0x3dd20d1b	0.10256406
146	0x3e0b0c71	0.13578965
147	0x3f153d35	0.5829652
148	0xbd61eb9b	-0.05515633
149	0xbd55a606	-0.052160285
150	0xbe284f09	-0.164364
151	0x3cdb79e1	0.026791515
152	0xbea79565	-0.32731166
153	0x3e9c7e27	0.30564997
154	0xbc240873	-0.01001178
155	0xbcf10f63	-0.029426282
156	0x3dfb1071	0.12258995
157	0x3e9efc63	0.3105193
158	0xbe8e24a2	-0.27762324
159	0xbe9581a7	-0.2920048
160	0x3caeed27	0.021353317
161	0x3ea8dca9	0.3298085
162	0xbe0a1367	-0.13483964
163	0xbaba6c76	-0.0014222998
164	0x3f127f44	0.5722544
165	0x3e984128	0.2973721
166	0x3e82f9a7	0.25581095
167	0xbdcc4ca7	-0.09975558
168	0x3e294193	0.16528921
169	0xbebbb8d2	-0.36664444
170	0x3e80cbcb	0.25155482
171	0xbd085701	-0.0332861
172	0x3c1f828f	0.009735717
173	0x3ec42082	0.38306051
174	0x3e37b3e1	0.17939712
175	0xbb1e827f	-0.0024186668
176	0x3e091a53	0.13388948
177	0xbf1365b5	-0.5757707
178	0xbe1fdf1d	-0.15612455
179	0xbd1cb1c8	-0.038255483
180	0x3e099e08	0.1343919
181	0xbed7a43e	-0.42117494
182	0x3ea0a4ea	0.3137582
183	0xbee4d99c	-0.44697273
184	0x3d0a4302	0.03375531
185	0xbeebbb91	-0.4604154
186	0xbd4777f1	-0.04869837
187	0xbe7e29ba	-0.24820605
188	0xbe501ea3	-0.20324187
189	0x3f0df50e	0.5545205
190	0xbe21da5f	-0.15805958
191	0x3eb2d55a	0.349284
192	0xbec9bbc0	-0.39401054
193	0xbda05488	-0.07828623
194	0xbe75f3be	-0.24018762
195	0xbf391f81	-0.72313696
196	0xbe1e9c89	-0.15489401
197	0x3d0f49ec	0.034982607
198	0x3e82c061	0.25537398
199	0x3ee41a84	0.4455148
200	0x3e08b1c2	0.13349059
201	0x3bcfec4f	0.006345309
202	0x3d8a9b5a	0.06767912
203	0xbee57418	-0.44815135
204	0x3dec7fb8	0.11547798
205	0xbe679780	-0.22616386
206	0xbe6029bd	-0.21890922
207	0x3f47fd7d	0.7812117
208	0x3deb81a3	0.114993356
209	0x3d5e504b	0.054275792
210	0x3ea2122f	0.31654498
211	0x3df2e927	0.118608765
212	0x3e5dda58	0.21665323
213	0x3ea95ba8	0.3307774
214	0x3eacfa7f	0.33784863
215	0xbf15319e	-0.58278835
216	0x3e1c2562	0.15248635
217	0x3eb1b2ae	0.34706634
218	0xbd9e455b	-0.07728072
219	0xbd08d44f	-0.0334056
220	0xbe3dec96	-0.18547282
221	0x3e957636	0.2919175
222	0x3f085032	0.5324737
223	0xbe9e9064	-0.30969536
224	0x3e023e93	0.12719183
225	0x3e1ad607	0.15120707
226	0x3f05f593	0.5232784
227	0x3e469bbf	0.1939535
228	0xbe5f6786	-0.21816835
229	0x3cde2959	0.027119325
230	0xbd5e0e45	-0.054212827
231	0x3e48c3b4	0.19605905
232	0x3dccfce1	0.1000917
233	0xbd30159c	-0.04298936
234	0x3de354af	0.111001365
235	0x3eab55a5	0.3346378
236	0xbe93516d	-0.2877306
237	0x3d9ee3fd	0.07758329
238	0x3e4bd6e8	0.19906199
239	0xbed7b2fb	-0.4212874
240	0x3e87fa3e	0.26558107
241	0xbecf3f9b	-0.40478215
242	0xbdb6d8ba	-0.08928056
243	0xbead71c0	-0.33875847
244	0x3d988194	0.0744659
245	0xbe6ca83b	-0.2311105
246	0x3eeabfb3	0.4584938
247	0x3c907d54	0.017637886
248	0x3e8e3064	0.27771294
249	0xbecb7f9f	-0.39745805
250	0xbe3f1165	-0.18658979
251	0xbe9736b0	-0.2953391
252	0x3d5f221f	0.0544759
253	0xbee4332b	-0.44570288
254	0xbd54cd99	-0.051953886
255	0x3e822a73	0.2542301

network_body._body_endoder.seq_layers.0.bias f4 [128]
0	0x3d843a74	0.064564615
1	0xbd11f9cb	-0.03563861
2	0xbd9cc2b7	-0.076543264
3	0x3e21c59e	0.15798041
4	0x3df7225c	0.120671004
5	0x3d0b4aa7	0.03400674
6	0xbd7f6600	-0.062353134
7	0x3e1105cf	0.14162372
8	0x3da14241	0.07873965
9	0x3d04a74b	0.032386106
10	0x3dda5d8a	0.106623724
11	0x3dfa77f7	0.12229913
12	0xbd90c197	-0.07068174
13	0x3d1b70c0	0.037949324
14	0x3d77fba3	0.060542714
15	0x3d97c2ca	0.074102
16	0x3c3118b6	0.010809114
17	0x3da211e8	0.079135716
18	0xbbd3aac4	-0.006459566
19	0xbddd5062	-0.108063474
20	0x3e020011	0.12695338
21	0x3d11449b	0.035465818
22	0xbd585a6e	-0.052820615
23	0x3df791f2	0.12088384
24	0xbce14058	-0.027496502
25	0x3ceaf5bc	0.028681628
26	0x3d6117c6	0.054954313
27	0x3dbeef55	0.09322993
28	0x3e25c9f0	0.16190314
29	0x3dc57be4	0.09642771
30	0x3e0595da	0.13045445
31	0x3d4d94b2	0.050190635
32	0x3e116d76	0.14201912
33	0xbd00273b	-0.031287413
34	0x3d36c1ca	0.044618405
35	0xbdf9dc5b	-0.122002326
36	0x3d4acadc	0.049509868
37	0x3d0ff756	0.035147987
38	0x3d3a0400	0.04541397
39	0x3e041218	0.12897527
40	0xbb79934b	-0.0038082178
41	0x3bc448b3	0.0059901117
42	0xbdf7a610	-0.12092221
43	0xbdeb0364	-0.11475256
44	0xbdc1a41d	-0.0945513
45	0xbe13af99	-0.14422454
46	0x3ce15559	0.027506517
47	0x3d557096	0.052109323
48	0x3c91dc1a	0.017805148
49	0x3cdd02fa	0.026978958
50	0x3cee865a	0.029116798
51	0x3de6b653	0.11265244
52	0x3c6902d4	0.014221866
53	0xbba89514	-0.0051447246
54	0x3df1cbbc	0.118064374
55	0xbd74b1a9	-0.059739742
56	0x3d9377d8	0.07200593
57	0x3dc54fab	0.09634336
58	0xbb86a33b	-0.004108814
59	0x3dff2488	0.1245814
60	0xbdf16064	-0.11785963
61	0x3df09b5c	0.117483824
62	0xbdbe9aca	-0.093068674
63	0x3b2d70d0	0.0026464947
64	0x3d497328	0.049182087
65	0x3d5f30f1	0.054490034
66	0x3de56332	0.11200561
67	0x3e164e38	0.14678276
68	0x3ac9da3a	0.001540012
69	0x3d2fd324	0.04292597
70	0xbdd3bd61	-0.103388555
71	0x3dd7e49b	0.1054165
72	0xbc149ef2	-0.009071099
73	0x3de3134a	0.110876635
74	0x3da1aa27	0.07893782
75	0x3d1ad81d	0.037803758
76	0xba666894	-0.0008789387
77	0x3e101307	0.14069758
78	0xbd611fed	-0.054962087
79	0xbe165ced	-0.14683886
80	0xbd910bcd	-0.07082329
81	0x3dcfecc2	0.1015258
82	0xbda2c7bd	-0.07948253
83	0x3d8aeb7d	0.06783197
84	0x3dab671f	0.08369278
85	0x3c96c298	0.018403336
86	0x3d9ab957	0.07554882
87	0x3dc2ff6b	0.09521373
88	0x3ddaa102	0.10675241
89	0x3e1a5c42	0.15074256
90	0xbdf1fa0e	-0.11815272
91	0x3ded0689	0.11573512
92	0xbd41837b	-0.04724453
93	0x3d3bab93	0.045817923
94	0x3d0bd7ba	0.03414128
95	0x3d185f35	0.03720017
96	0x3b8cc51d	0.0042959587
97	0x3e175b7a	0.1478099
98	0x3d6ef446	0.058338426
99	0x3d5d77c2	0.054069288
100	0xbd860c09	-0.06545264
101	0x3dfd9ce0	0.12383437
102	0x3c15f03c	0.009151515
103	0x3deb310d	0.11483965
104	0x3abf1896	0.0014579471
105	0xbe0008a3	-0.12503295
106	0x3e73468d	0.23757382
107	0x3db99132	0.09060897
108	0x3d490ff4	0.04908748
109	0x3e01e98b	0.12686746
110	0xbc35a0a1	-0.01108566
111	0x3da82bf2	0.08211507
112	0x3dc71be4	0.097221166
113	0xbda7ea83	-0.081990264
114	0xbdb2d0e5	-0.0873125
115	0x3d85047a	0.064949945
116	0x3c8d0f9d	0.017219359
117	0xbd0c1289	-0.034197364
118	0x3d6da132	0.058015056
119	0xbdbb12db	-0.09134456
120	0x3e11e2c1	0.14246656
121	0x3cc604d5	0.024172226
122	0xbdc4e5cb	-0.09614142
123	0x3dfce855	0.12349001
124	0xbda16401	-0.07880402
125	0x3da4029a	0.08008309
126	0x3c3092c7	0.010777182
127	0x3d929c0e	0.07158671

network_body._body_endoder.seq_layers.2.weight f4 [128, 128]
0	0x3e303453	0.1720746
1	0xbd7dbeb8	-0.06194946
2	0x3dfc925a	0.12332602
3	0x3dc74c2b	0.09731325
4	0xbd39dfb8	-0.04537937
5	0xbd488835	-0.048958022
6	0xbd48429a	-0.04889164
7	0x3e7a812f	0.24463342
8	0xbddab5bf	-0.106791966
9	0x3d97aa9d	0.07405589
10	0x3c92b6ba	0.017909396
11	0x3c90b874	0.01766608
12	0x3e15dbaf	0.14634584
13	0x3e106f57	0.14104973
14	0x3d54b006	0.05192568
15	0x3bc3b7ad	0.0059728236
16	0x3c62a3c5	0.013832991
17	0x3dbf896b	0.09352382
18	0x3de3b024	0.111175805
19	0x3d09c1eb	0.0336322
20	0xbde97130	-0.11398542
21	0xbcedac68	-0.029012874
22	0x3cfdc321	0.030976834
23	0x3e39612e	0.18103477
24	0x3d923476	0.071389124
25	0x3e2e2c27	0.1700903
26	0xbd46562c	-0.048422024
27	0xbd765d73	-0.060147714
28	0xbd03a01c	-0.032135114
29	0x3de401bf	0.111331455
30	0x3e072141	0.13196279
31	0xbd0a7824	-0.03380598
32	0xbd82e257	-0.06390827
33	0x3c64d703	0.013967278
34	0xbdb34873	-0.08754053
35	0xbbb804ed	-0.0056158216
36	0xbd12c11f	-0.035828706
37	0x3d1af2e8	0.03782931
38	0x3d8c6a82	0.06856252
39	0x3d89171a	0.066938594
40	0x3dabf935	0.08397142
41	0x3cf03e9e	0.029326733
42	0x3c3a1f97	0.011360071
43	0xbd927f44	-0.0715318
44	0x3da51683	0.080609344
45	0xbd978331	-0.0739807
46	0xbda4bdac	-0.080439895
47	0x3e01eb88	0.12687504
48	0x3d48f96b	0.04906599
49	0x3e9e45f4	0.30912745
50	0xbe0d3d6f	-0.13792966
51	0x3dd94939	0.10609669
52	0x3e96b4c0	0.29434776
53	0xbcfead9f	-0.031088648
54	0x3e460c00	0.19340515
55	0x3bd49061	0.006486938
56	0xbbda8448	-0.006668601
57	0xbc277158	-0.010219894
58	0x3df853b6	0.121253416
59	0xbd13a8d1	-0.036049668
60	0xbd1172a0	-0.035509706
61	0x3d8c7a20	0.06859231
62	0xbc95a268	-0.018265918
63	0x3ddef10a	0.10885818
64	0x3d9ad199	0.07559509
65	0x3e6d975b	0.23202269
66	0x3e6ba9d7	0.23014008
67	0x3e1821df	0.14856671
68	0xbc6611cb	-0.014042328
69	0x3d929026	0.071564004
70	0xbd73760b	-0.059438746
71	0xbdb651e1	-0.08902336
72	0x3c878166	0.016541194
73	0x3e0dc72b	0.13845508
74	0xbd8d8a6a	-0.06911166
75	0x3cb1f9ea	0.021725614
76	0x3d8a7dd5	0.06762282
77	0xbd98bc48	-0.07457787
78	0x3d1888a0	0.03723967
79	0xbdd55a5a	-0.10417624
80	0x3d5384b0	0.051640213
81	0x3dcaea0b	0.099079214
82	0x3cf6a670	0.03010866
83	0xbd86ce43	-0.0658231
84	0x3e69e188	0.2283994
85	0x3d82dceb	0.06389793
86	0x3dea1be7	0.11431103
87	0x3e2780a4	0.16357666
88	0xbe2afb3e	-0.16697404
89	0x3ad8e667	0.0016548157
90	0x3e029165	0.12750776
91	0x3e7d7bcb	0.24754255
92	0xbd94eb85	-0.07271484
93	0xbda78d53	-0.08181252
94	0x3d0abbb5	0.033870418
95	0xbd0ba1b4	-0.03408976
96	0xbd7b489e	-0.06134855
97	0x3e643308	0.22285092
98	0xbdc70d9f	-0.09719395
99	0xbe26356d	-0.16231318
100	0x3da9584b	0.08268794
101	0x3e20b34a	0.15693393
102	0xbd641003	-0.055679332
103	0xb8f9d1bf	-0.000119123135
104	0x3e2e295e	0.17007968
105	0x3c8818db	0.016613415
106	0xbc51dd96	-0.012809178
107	0x3d80151b	0.062540255
108	0xbd473544	-0.048634782
109	0xbdec76e9	-0.11546118
110	0x3e09d74c	0.13461035
111	0x3e2022cf	0.15638278
112	0xbd09a497	-0.03360423
113	0x3a603a52	0.0008553612
114	0xbe0ea6c4	-0.13930804
115	0xbd42acc6	-0.04752805
116	0x3df3fdff	0.1191368
117	0x3d099f63	0.03359927
118	0xbe0470cb	-0.12933652
119	0xbdf632f7	-0.120214395
120	0xbdb04ca5	-0.08608369
121	0x3e8c3ebf	0.2739162
122	0x3da2f54b	0.07956942
123	0xbe22f5f2	-0.15914133
124	0xbe0edc62	-0.13951257
125	0xbcbb7c8f	-0.022886543
126	0xbd860672	-0.06544198
127	0xbe282353	-0.16419725
128	0xbe4f7f30	-0.20263362
129	0x3d8d992c	0.06913981
130	0xbcf0fef0	-0.029418439
131	0x3e04f591	0.12984301
132	0xbdb8a4a6	-0.09015779
133	0x3e1b3b9a	0.15159455
134	0x3ddb95d1	0.107219346
135	0xbe8a58b7	-0.2702081
136	0xbe2dab17	-0.16959797
137	0x3cd0b54b	0.025477072
138	0x3d91be1b	0.07116338
139	0x3e058c86	0.13041887
140	0xbb5f0a06	-0.0034033074
141	0xbe925088	-0.28577065
142	0xbea227fa	-0.31671125
143	0x3e004cf0	0.1252935
144	0xbe255ded	-0.16149111
145	0xbddbac12	-0.10726179
146	0x3ca4b89d	0.020107562
147	0xbd1d2c24	-0.038372174
148	0xbe10821d	-0.14112134
149	0x3e18df28	0.14928877
150	0xbd2dfc62	-0.04247702
151	0x3da30d52	0.07961525
152	0xbd267ccf	-0.04064637
153	0xbdd10a07	-0.10206991
154	0xbe053d42	-0.13011649
155	0x3bba72e5	0.005689966
156	0xbe5218dc	-0.20517296
157	0xbd4bfff5	-0.049804647
158	0x3e8db7b0	0.27679205
159	0x3c7175ff	0.014737605
160	0x3c9becb2	0.019033764
161	0xbcbb8c61	-0.022894086
162	0xbce5589e	-0.027996358
163	0xbb9b03d8	-0.004730683
164	0xbd1d8bba	-0.03846333
165	0x3de93195	0.1138641
166	0xbe7454db	-0.23860495
167	0xbee4253f	-0.44559667
168	0xbcaf4d18	-0.021399066
169	0x3d0eafbd	0.034835566
170	0x3c83e0ae	0.016098347
171	0xbdf6dcc1	-0.12053824
172	0xbd9e36b7	-0.0772528
173	0x3ceb533f	0.028726218
174	0x3de36bdf	0.11104559
175	0xbd3d7ed5	-0.046263535
176	0xbbf0331e	-0.0073303124
177	0x3e765fc1	0.24059965
178	0x3daffad6	0.08592765
179	0xbd043bf5	-0.032283742
180	0x3e86c6c1	0.26323512
181	0xbe0741f1	-0.13208748
182	0x3e09b31f	0.13447236
183	0x3e167cdc	0.14696068
184	0x3e60d172	0.21954897
185	0x3dd854f4	0.105630785
186	0x3c25cee5	0.010120128
187	0xbcd53686	-0.026026975
188	0x3dd8adf2	0.105800524
189	0x3e6cea56	0.23136267
190	0x3e040c31	0.12895276
191	0xbddab7a8	-0.10679561
192	0x3e6f52b9	0.233714
193	0x3dc02d88	0.093836844
194	0x3e41bb7f	0.1891918
195	0xbe2a4277	-0.16626917
196	0xbc1eab69	-0.009684422
197	0x3e364ad7	0.17801987
198	0x3da3ff32	0.08007659
199	0xbd26797b	-0.040643197
200	0xbc3debac	-0.011591833
201	0xbd8d8342	-0.06909801
202	0x3dd83938	0.105577886
203	0xbd9b460d	-0.075817205
204	0x3d7d1168	0.061784178
205	0x3e55620e	0.20838186
206	0xbc1e1599	-0.009648704
207	0xba2eb56b	-0.00066646066
208	0xbcc70df1	-0.02429864
209	0x3cbdeb1d	0.0231834
210	0x3d6fe08e	0.05856376
211	0x3e58b6e5	0.21163519
212	0xbd7be7a0	-0.06150019
213	0x3de23227	0.11044722
214	0x3db59b2d	0.08867488
215	0xbd7c0ebc	-0.06153749
216	0x3e41b36e	0.18916103
217	0x3db21980	0.0869627
218	0xbdab4f88	-0.08364779
219	0x3dd8de72	0.10589303
220	0x3cac3e94	0.021025933
221	0xbd94a1d5	-0.072574295
222	0xbd245ca0	-0.040127397
223	0x3ea68f4f	0.3253121
224	0x3dd33aa6	0.10313921
225	0x3de6216b	0.11236843
226	0x3e61cbd9	0.22050418
227	0xbd0e76ed	-0.034781385
228	0xbc4670ee	-0.0121118855
229	0x3da6b422	0.08139826
230	0xbce0f0f5	-0.027458647
231	0x3eba4a82	0.3638497
232	0xbdcd4092	-0.100220814
233	0x3c1e8ad0	0.00967665
234	0xbe022a7f	-0.12711523
235	0xbeb372a0	-0.3504839
236	0xbe21fc0e	-0.15818807
237	0xbd3c232c	-0.04593198
238	0xbd3d4b12	-0.04621417
239	0xbe292c1b	-0.16520731
240	0x3cf09219	0.02936654
241	0x3e2cc274	0.16871053
242	0x3c31407b	0.010818596
243	0x3e0f65a3	0.14003615
244	0xbd62453f	-0.05524182
245	0x3c43b56a	0.011945108
246	0xbc906f31	-0.017631145
247	0xbdb5501b	-0.088531695
248	0x3e993536	0.2992341
249	0x3e482780	0.19546318
250	0x3c6aedbc	0.014338907
251	0xbdd0cc47	-0.10195213
252	0x3d9e7a2b	0.077381454
253	0xbceccc78	-0.028906092
254	0x3d725a3d	0.05916809
255	0x3e3e0be3	0.18559222

network_body._body_endoder.seq_layers.2.bias f4 [128]
0	0xbcb67a3d	-0.022275085
1	0xbd078ec4	-0.033095136
2	0x3d12c8ff	0.035836216
3	0x3d2f622a	0.042818226
4	0x3c1a2e99	0.009410524
5	0x3d118e55	0.03553613
6	0x3d3ca320	0.046054006
7	0x3d01b791	0.031669203
8	0x3dc35886	0.09538369
9	0xbcb8c869	-0.0225565
10	0x3de932f7	0.11386674
11	0xbc73e530	-0.0148861855
12	0x3d8f5cdc	0.070001334
13	0x3d8a201d	0.06744406
14	0x3c75fb9d	0.015013603
15	0xbd2025df	-0.039098617
16	0x3d202053	0.039093327
17	0x3dd77835	0.105209745
18	0x3dd529b6	0.10408346
19	0x3e040e95	0.12896188
20	0x3e1a7796	0.15084681
21	0xbd08c5fa	-0.03339193
22	0x3d752aa4	0.05985512
23	0x3d05fc80	0.032711506
24	0xbd4a4902	-0.049386032
25	0x3cb4d69b	0.022074988
26	0x3d8d63bc	0.069037884
27	0xbd9d285d	-0.07673714
28	0x3d301be6	0.042995356
29	0x3d5f789a	0.054558374
30	0x3d0471ba	0.03233502
31	0x3d9c10cb	0.076203905
32	0x3cac6c8c	0.021047853
33	0x3d542bd6	0.051799618
34	0x3d323adc	0.043513164
35	0x3d50f517	0.051014986
36	0x3ceeefde	0.029167112
37	0xbd4d7011	-0.050155703
38	0x3d919b10	0.07109654
39	0x3df06302	0.11737634
40	0x3d8705ec	0.065929264
41	0x3dbaeb5b	0.09126922
42	0x3de0f85b	0.1098487
43	0x3d5f7c88	0.05456212
44	0x3cff4587	0.031161083
45	0x3dae87f3	0.08522024
46	0x3dbdb4d1	0.092630036
47	0x3d817639	0.06321377
48	0x3da58888	0.08082682
49	0x3db01209	0.0859719
50	0x3de0e6af	0.109814994
51	0x3cddf27b	0.027093163
52	0x3d928805	0.0715485
53	0x3de60d54	0.11233011
54	0x3d2db4ab	0.042408627
55	0xbd0d2b61	-0.034465197
56	0x3dbfcf09	0.09365661
57	0x3de07b12	0.10960974
58	0x3e1a68cc	0.1507904
59	0x3d732291	0.059359137
60	0x3d224dc7	0.039624956
61	0xbda0a411	-0.07843793
62	0x3d79fbb5	0.061031062
63	0xbda8cc23	-0.08242061
64	0xbd47db4c	-0.048793122
65	0x3d7569d1	0.059915368
66	0x3d7120fc	0.058869347
67	0x3df0ed72	0.11764039
68	0x3dd45b90	0.10369027
69	0x3cd7e120	0.026352465
70	0xbc40d868	-0.011770345
71	0x3d05cd53	0.032666516
72	0x3d7507c2	0.05982185
73	0x3da5a1ea	0.08087523
74	0x3d38a16d	0.045075823
75	0x3d8dcd9a	0.06923981
76	0xbd3fbcd4	-0.04681094
77	0xbb9e3155	-0.004827658
78	0xbcf57010	-0.029960662
79	0xbdaf0b6b	-0.085471
80	0x3dc8107a	0.09768768
81	0x3d637644	0.05553271
82	0xbcb5ed5e	-0.022207912
83	0xbdb8d9d0	-0.090259194
84	0x3cb37632	0.021906946
85	0x3e155815	0.14584382
86	0x3db49864	0.08818129
87	0x3d6d5cdf	0.057949897
88	0x3dabe078	0.083924234
89	0x3e1697e9	0.14706387
90	0xbdf0a322	-0.11749865
91	0x3d05d9d8	0.032678455
92	0x3d46df74	0.048552945
93	0xbdf04de9	-0.1173361
94	0x3d74ef17	0.059798326
95	0x3e0fee46	0.14055738
96	0x3c89137a	0.01673292
97	0xbc15d2bf	-0.009144484
98	0xbcb2fb9d	-0.021848494
99	0x3d31f9c6	0.043451093
100	0xbd7bc2e4	-0.06146516
101	0x3cb69fa9	0.022292929
102	0x3d33b4c3	0.04387356
103	0x3ce3800d	0.02777102
104	0x3dcb63c0	0.09931135
105	0x3dc40fbe	0.09573315
106	0x3df6213d	0.120180584
107	0x3ba13d10	0.0049206093
108	0x3d158497	0.0365034
109	0xbb3cffed	-0.0028839067
110	0xbd2afd79	-0.041745637
111	0xbd80786b	-0.06272968
112	0x3d7cf957	0.061761227
113	0x3d91eb39	0.07124943
114	0x3da69802	0.08134462
115	0x3d7e759d	0.062123884
116	0x3d5909db	0.052987915
117	0x3c045a98	0.00807824
118	0x3d31aca6	0.04337754
119	0x3d617e91	0.055052344
120	0xbc05b575	-0.0081609385
121	0xbd478b25	-0.048716683
122	0x3d25209f	0.040314313
123	0x3dca8985	0.09889511
124	0xbabd23e7	-0.0014430255
125	0xbc4ff055	-0.012691577
126	0x3c85ecca	0.016348261
127	0xbd3e17f9	-0.04640958

action_model._discrete_distribution.branches.0.weight f4 [2, 128]
0	0xbc67ef7d	-0.01415622
1	0x3ba4be7f	0.0050275917
2	0x3a950bb0	0.0011371281
3	0xbe0f0bd4	-0.13969356
4	0xbd1be783	-0.038062584
5	0xbdb3cb4c	-0.0877901
6	0x3daf929e	0.08572887
7	0xbe15bea1	-0.146235
8	0xbd81aac9	-0.06331403
9	0xbe1bd1ba	-0.15216723
10	0xbdafa60c	-0.08576593
11	0xba989572	-0.0011641218
12	0xbe8bb785	-0.27288452
13	0xbe2e9b26	-0.17051372
14	0xbca63bdb	-0.020292213
15	0xbc027967	-0.007963515
16	0xbd1b9331	-0.03798217
17	0xbe41480d	-0.18875141
18	0xb9185290	-0.00014526607
19	0xbe15ca57	-0.14627968
20	0xbea09054	-0.31360114
21	0x3c862c25	0.016378472
22	0x3e3ee8c7	0.18643485
23	0xbc9eaba3	-0.019368952
24	0x3cf5160c	0.02991774
25	0xbbf7d335	-0.0075630196
26	0xbd15c452	-0.03656418
27	0xbe58118a	-0.2110044
28	0xbd902dee	-0.070400104
29	0x3d8c771a	0.06858654
30	0xbd86cc86	-0.065819785
31	0xbde17729	-0.11009056
32	0xbe8936bf	-0.2679958
33	0xbe16849e	-0.14699027
34	0x3c36d23f	0.011158525
35	0xbdc7ad5c	-0.097498626
36	0xbe12fecb	-0.14355008
37	0x3c1063fe	0.0088129025
38	0xba80bad5	-0.0009821305
39	0x3ddef531	0.1088661
40	0xbe368f70	-0.17828155
41	0xbe636a6a	-0.22208562
42	0x3bfcc548	0.0077139474
43	0xbe6636d2	-0.2248185
44	0xbc213aca	-0.009840677
45	0xbdefef67	-0.11715584
46	0xbdfa66eb	-0.12226661
47	0xbd841558	-0.064493835
48	0xbc4a4517	-0.012345574
49	0xbd37c585	-0.044866104
50	0xbee3b20f	-0.44471785
51	0xbbb17545	-0.005415591
52	0xbea52420	-0.32254124
53	0xbe8ad806	-0.27117938
54	0xbccb0fb6	-0.024787765
55	0x3a9faba8	0.0012181895
56	0xbe03731b	-0.12836878
57	0xbe4f417b	-0.20239823
58	0x3dbbcf33	0.091703795
59	0xbe1c71c1	-0.15277769
60	0xbd143591	-0.036183897
61	0x3cdb1279	0.026742207
62	0x3e67b2ed	0.22626849
63	0xba233a62	-0.0006226656
64	0xbc8578ed	-0.016293013
65	0x3dd70c44	0.10500386
66	0xbda4e8c1	-0.08052207
67	0xbde40af0	-0.11134899
68	0x3e6eabd8	0.2330774
69	0x3c1d05ae	0.009583874
70	0xbc9cb191	-0.019127639
71	0xbe282c41	-0.16423132
72	0x3de4b3b9	0.11167092
73	0xbc64baf7	-0.0139605915
74	0xbd8caef9	-0.06869311
75	0x3c8b80cf	0.017029194
76	0x3be5504b	0.006998097
77	0x3be40a8a	0.006959264
78	0xba1a894d	-0.0005895093
79	0x3db46ff0	0.08810413
80	0x3b2f3438	0.0026734006
81	0xbbe74f2e	-0.0070589995
82	0x3cbe81e7	0.023255302
83	0xbd46fa03	-0.048578274
84	0x3a124166	0.0005579203
85	0x3d8a48c4	0.0675216
86	0xbbb6732e	-0.0055679297
87	0x396a4fa1	0.00022345643
88	0xbe1d7b4a	-0.15379062
89	0x3dd6cd36	0.1048836
90	0xbca81ae2	-0.020520631
91	0xbd806afe	-0.06270407
92	0xbe1e097e	-0.15433308
93	0xbd93d1f2	-0.07217778
94	0x3d51fbc7	0.051265504
95	0x3dcde492	0.10053362
96	0xbca2ac39	-0.019857513
97	0x3c4d2936	0.0125220325
98	0xbc34047a	-0.010987395
99	0x3dc632c8	0.096776545
100	0xba5be569	-0.0008388372
101	0xbd9e3f3e	-0.07726906
102	0xbc85e71d	-0.016345555
103	0xbe557063	-0.20843653
104	0xbe2a7690	-0.1664679
105	0x3b450de8	0.0030068103
106	0xbe8f502e	-0.2799086
107	0x3d0d6006	0.034515403
108	0xbe173200	-0.14765167
109	0xbb45445d	-0.0030100562
110	0x3c520cd9	0.012820446
111	0xbd470e07	-0.048597362
112	0x3d738ae2	0.05945862
113	0xbdf9e407	-0.12201696
114	0x3e7a1053	0.2442029
115	0x3cac3ec7	0.021026028
116	0x3c3d8eb8	0.011569671
117	0xbda2cad4	-0.07948843
118	0xbe45ebf2	-0.19328287
119	0xbe5cc121	-0.21558048
120	0x3adc6710	0.0016815383
121	0x3cae7fc1	0.021301152
122	0xbd61167e	-0.05495309
123	0xbe2089db	-0.15677588
124	0xbbe0647b	-0.0068479157
125	0x3cd227a8	0.025653675
126	0xbd8978a7	-0.06712466
127	0xbc944cee	-0.01810309
128	0x3cb999a3	0.022656268
129	0xbc048e7b	-0.008090611
130	0xbbc7d4b8	-0.006098356
131	0x3e0d80cd	0.13818665
132	0x3d68fd77	0.056882348
133	0x3daaf4c5	0.08347467
134	0xbdb78862	-0.0896156
135	0x3e0838e5	0.13302954
136	0x3d867a13	0.065662526
137	0x3e2b4fb3	0.16729622
138	0x3d9c57dd	0.07633946
139	0x3b88346d	0.0041566403
140	0x3e823217	0.2542884
141	0x3e28710e	0.16449377
142	0x3c60dde8	0.013724782
143	0x3b0d715c	0.002158246
144	0x3d284830	0.04108447
145	0x3e58b72b	0.21163623
146	0x3c56efec	0.013118725
147	0x3e0c434a	0.13697544
148	0x3ea8b695	0.329518
149	0x38a8586e	8.0273356e-05
150	0xbe439010	-0.19097924
151	0x3c9377a8	0.018001392
152	0xbd2aee43	-0.04173113
153	0xbc587582	-0.01321161
154	0x3c246883	0.010034683
155	0x3e4e8412	0.20167568
156	0x3d9e3e53	0.07726731
157	0xbcd1f385	-0.025628814
158	0x3d77fc3a	0.060543276
159	0x3dce5e49	0.10076577
160	0x3e992ea3	0.29918393
161	0x3e180071	0.14843918
162	0xbc0ce590	-0.008599654
163	0x3dc58579	0.096445985
164	0x3e146ade	0.14493892
165	0x3c45185f	0.012029736
166	0x3b1c0778	0.0023808163
167	0xbdf10240	-0.11768007
168	0x3e366b36	0.17814335
169	0x3e7230b6	0.23651394
170	0xbcd937b9	-0.026515828
171	0x3e5ce55a	0.21571866
172	0x3ca10549	0.01965584
173	0x3de77630	0.11301839
174	0x3df2dca0	0.11858487
175	0x3d6102ae	0.054934196
176	0x3b5dedd2	0.0033863676
177	0x3c8acf70	0.016944617
178	0x3eddd101	0.4332352
179	0x3d06c33d	0.032901037
180	0x3ea1683a	0.3152483
181	0x3e831830	0.2560439
182	0x3c98e405	0.018663416
183	0xbaea98e2	-0.0017898346
184	0x3e03986e	0.12851116
185	0x3e4f3ebb	0.20238774
186	0xbd9e607a	-0.07733245
187	0x3e32a152	0.17444351
188	0x3d09d606	0.033651374
189	0xbcdeeec9	-0.027213471
190	0xbe5d707d	-0.21624942
191	0x3b0fff70	0.002197232
192	0x3be78ad2	0.007066109
193	0xbde761a4	-0.1129792
194	0x3d889039	0.06668133
195	0x3e0c4bec	0.13700837
196	0xbe7f35d4	-0.24922878
197	0x3ad573f5	0.0016285168
198	0x3c9a7508	0.018854633
199	0x3e3b9d84	0.18321806
200	0xbdfa8bce	-0.12233697
201	0x3c3de626	0.011590516
202	0x3d7055da	0.058675624
203	0xbaf5df0e	-0.0018758492
204	0xbbf0c650	-0.0073478594
205	0xbb1bd9b8	-0.0023780894
206	0x396d2ff9	0.00022619953
207	0xbdae824c	-0.08520946
208	0xbc31115b	-0.0108073605
209	0x3b3f2c83	0.0029170818
210	0xbc6b9ba5	-0.01438037
211	0x3d34276d	0.04398291
212	0x3c131c55	0.008978923
213	0xbd8352bf	-0.06412267
214	0xbb58c41e	-0.003307588
215	0xbb542fd0	-0.0032377131
216	0x3e20dce7	0.15709268
217	0xbdfe9df3	-0.1243247
218	0x3c574ee2	0.013141366
219	0x3d8ab27c	0.067723244
220	0x3e2e0001	0.16992189
221	0x3d6b13bc	0.057391867
222	0xbcf3cff5	-0.029762248
223	0xbdbef57c	-0.09324166
224	0x3cbf57fa	0.02335738
225	0xbc1087a9	-0.008821406
226	0x3c0116a1	0.00787893
227	0xbdc79243	-0.09744694
228	0x3b3c7007	0.0028753297
229	0x3db41d02	0.08794595
230	0x3bd66f94	0.006544063
231	0x3e45fe07	0.19335185
232	0x3e35bb2c	0.17747182
233	0xbc5222f3	-0.012825715
234	0x3e878ce3	0.26474676
235	0xbc9f7ecc	-0.019469641
236	0x3e09f12c	0.13470906
237	0x3be9f2a1	0.0071395193
238	0xbc188623	-0.009309324
239	0x3d4b171c	0.049582586
240	0xbd83ecc7	-0.06441646
241	0x3e0972ea	0.13422742
242	0xbe63fd90	-0.22264695
243	0xbd2f3593	-0.0427757
244	0x3b68f8f7	0.0035548785
245	0x3d7792bb	0.060442667
246	0x3e3b5f01	0.1829796
247	0x3e62d5ed	0.22151919
248	0x39ad7a19	0.000330881
249	0xbbb74ff8	-0.00559425
250	0x3d694183	0.056947242
251	0x3e28ce5d	0.16484971
252	0x3c935c23	0.01798827
253	0xbcda45fb	-0.026644697
254	0x3d96a6e5	0.07356051
255	0xbbe02b83	-0.0068411245

action_model._discrete_distribution.branches.0.bias f4 [2]
0	0x3c1512d2	0.009098725
1	0xbc1512ca	-0.009098718

action_model._discrete_distribution.branches.1.weight f4 [3, 128]
0	0x3c8285b0	0.015932888
1	0x3c95bf0e	0.018279579
2	0x3c09d6f8	0.008413069
3	0xbd86048b	-0.06543835
4	0xbe2b4e97	-0.16729198
5	0xbdb249e1	-0.087054975
6	0xbb33381d	-0.0027346679
7	0xbe0f7e7b	-0.14013092
8	0x3e9250ad	0.28577176
9	0x3d6adb60	0.05733812
10	0x3e4c1a62	0.19931939
11	0x3c1a21f4	0.009407509
12	0xbdc45117	-0.09585779
13	0xbdf3d96d	-0.11906705
14	0x3c675eb6	0.014121702
15	0x3be54e3d	0.006997852
16	0xbdf41c18	-0.11919421
17	0xbdf1428c	-0.11780271
18	0x3c246abb	0.010035212
19	0x3ded11c2	0.11575653
20	0xbe010448	-0.1259929
21	0x3c1b29ba	0.009470398
22	0x3ea4066f	0.32036158
23	0x3cf96fea	0.030448873
24	0x3c9810cb	0.018562695
25	0xb8d3f59e	-0.00010107014
26	0x3b094da5	0.002095082
27	0xbc7e8e38	-0.015536837
28	0xbe1b5fa9	-0.1517321
29	0x3c56bd81	0.013106705
30	0x3e55229c	0.20813984
31	0x3e1bbdbd	0.15209098
32	0xbd718704	-0.05896665
33	0x3da7c59c	0.08191988
34	0x3ca503b6	0.020143371
35	0x3e01c378	0.12672222
36	0xbdf19ae1	-0.11797119
37	0x3af7271f	0.0018856263
38	0x3c284e42	0.010272564
39	0x3bf68eec	0.007524362
40	0x3e0ee147	0.13953124
41	0x3e49fe31	0.19725873
42	0xbd5fecab	-0.054669064
43	0xbdde470a	-0.108533934
44	0x3c1d6762	0.009607168
45	0x3e45ff8a	0.19335762
46	0x3e324861	0.17410423
47	0xbe1de68f	-0.15419982
48	0x38b446f1	8.596283e-05
49	0x3e2d1ce5	0.16905554
50	0x3ddc31ae	0.10751663
51	0x3a6eefbb	0.0009114702
52	0xbd8b51fb	-0.06802746
53	0x3e098b6d	0.13432093
54	0x3e23dc00	0.16001892
55	0xbbe29e77	-0.006915863
56	0x3e3cdb5e	0.18443057
57	0x3e2c9837	0.1685494
58	0x3d7e2d36	0.062054835
59	0xbe0a09d2	-0.13480309
60	0xbd1f0208	-0.038820297
61	0x3c97309d	0.018455798
62	0x3d7282d6	0.059206806
63	0xbbc37714	-0.005965123
64	0xbde67b16	-0.112539455
65	0x3e81ffff	0.25390622
66	0x3e0e2b4e	0.13883707
67	0xbe1e91bb	-0.1548528
68	0xbe922d5f	-0.2855024
69	0xbb2470dd	-0.0025091686
70	0x3c0a61f7	0.008446208
71	0xbdd999a0	-0.10625005
72	0x3e865580	0.26237106
73	0xbd0a3a4e	-0.03374701
74	0xbdd83911	-0.105577596
75	0x3b953425	0.0045533353
76	0x3bd5a0a0	0.006519392
77	0xbde25ead	-0.11053214
78	0xbbcdd6af	-0.006281696
79	0xbda7a292	-0.08185305
80	0x3cfe374a	0.031032223
81	0xbc7057ec	-0.0146694
82	0xbc5e8c62	-0.013583275
83	0x3d255fbc	0.040374503
84	0xbac21b09	-0.0014809082
85	0xbe98a434	-0.29812777
86	0x3c9133d6	0.017724913
87	0x3e6f4a79	0.23368253
88	0xbdc7ad42	-0.09749843
89	0xbed54fc6	-0.41662425
90	0xbd04b7bc	-0.032401785
91	0xbbebfcac	-0.0072017517
92	0xbde25955	-0.11052195
93	0x3c290d30	0.010318086
94	0x3d6a4315	0.05719288
95	0xbeac0bf7	-0.33602878
96	0x3b8f289a	0.0043688538
97	0x3b37f325	0.002806851
98	0x3c2e2607	0.010629184
99	0x3e74f46f	0.23921369
100	0x3d800923	0.06251743
101	0xbdb8bf2e	-0.0902084
102	0x3c15bc3c	0.009139117
103	0xbd9b6a78	-0.07588667
104	0x3eaa0164	0.33204186
105	0xbc9348b2	-0.017979
106	0x3df820fe	0.12115668
107	0x3e8562c4	0.26051915
108	0xbde610c2	-0.11233665
109	0x3ca2165c	0.019786052
110	0xbaaf01c6	-0.0013351969
111	0x3d30b64f	0.043142613
112	0xbc8412f2	-0.016122315
113	0x3e91b014	0.2845465
114	0xbe38b9ea	-0.1803967
115	0x3e93ae92	0.28844124
116	0x3a345c31	0.00068801927
117	0xbdd7a8af	-0.10530221
118	0xbdeccbd0	-0.11562312
119	0x3df8f30e	0.12155734
120	0x3bf93b7b	0.0076059676
121	0x3d8608ce	0.06544648
122	0x3e0c4ec3	0.1370192
123	0x3e12f69a	0.14351884
124	0x3c39fda9	0.011351981
125	0x3cf740d8	0.030182287
126	0xbe0de648	-0.13857377
127	0xbc149839	-0.009069496
128	0xbd1dc1db	-0.038514953
129	0x3ca35cb5	0.019941667
130	0xbcc8cf7d	-0.024513
131	0x3e2ed5ea	0.17073789
132	0x3e5d8f60	0.21636724
133	0x3e58ce10	0.21172357
134	0xbd78e3f5	-0.06076427
135	0x3e7f4cd4	0.24931651
136	0x3d5155e9	0.05110732
137	0xbcd16619	-0.02556138
138	0x3e0764bb	0.1322202
139	0xbce4eb50	-0.027944237
140	0x3e2b4271	0.16724564
141	0x3e138cb5	0.14409144
142	0xbd606950	-0.054787934
143	0xbbfb4b77	-0.007668908
144	0x3e976684	0.295704
145	0x3e5a90e2	0.21344331
146	0xbd8a5659	-0.06754751
147	0x3e279e91	0.16369082
148	0xbdcf4ea4	-0.101224214
149	0x3a8d3971	0.0010774565
150	0x3e7cd816	0.24691805
151	0xbba3786f	-0.004988722
152	0x3df2513c	0.118319005
153	0xbd467774	-0.048453763
154	0xbda04a02	-0.07826616
155	0x3c0e7d3c	0.00869685
156	0x3e27b158	0.16376245
157	0xbd2ebd4d	-0.042661
158	0x3dd81bb3	0.10552158
159	0x3e313aeb	0.17307632
160	0x3e073f6b	0.13207786
161	0x3eb14095	0.34619585
162	0xbaa875e6	-0.0012852519
163	0x3e36b25c	0.17841476
164	0x3e6930b5	0.22772487
165	0xbb251a94	-0.0025192844
166	0xbda087bf	-0.078383915
167	0xbea44cce	-0.32089847
168	0x3e0cf96b	0.1376702
169	0x3d2909c7	0.04126909
170	0xbe91fb2d	-0.28511944
171	0x3e41688d	0.18887539
172	0xbdaf6f24	-0.0856612
173	0x3e866238	0.2624681
174	0x3dcf1008	0.101104796
175	0x3e44cce0	0.19218779
176	0xbd86175d	-0.06547425
177	0x3ee4a1c3	0.44654664
178	0x3db42335	0.08795778
179	0xbd93ad1c	-0.07210752
180	0x3e14b3f1	0.14521767
181	0x3da73972	0.08165254
182	0x3eab2422	0.33426005
183	0xbd20c207	-0.03924754
184	0x3df59a64	0.11992338
185	0x3daf8beb	0.08571609
186	0xbf0ec476	-0.55768526
187	0x3e1473a7	0.14497243
188	0xbd8f05bf	-0.06983518
189	0x3d82a159	0.06378431
190	0xbe029258	-0.12751138
191	0xbc17f491	-0.009274618
192	0x3e0abb61	0.13548042
193	0x3b9368b4	0.0044985656
194	0x3e0554d1	0.13020636
195	0x3e763716	0.24044451
196	0x3d6967f2	0.056983896
197	0xbcec5f10	-0.028853923
198	0xbcff7d6d	-0.031187737
199	0x3e629d9a	0.22130433
200	0x3e58323e	0.21112916
201	0xbe5707e9	-0.20999111
202	0x3e694953	0.22781877
203	0xbd0434fc	-0.032277092
204	0x3b4efbc1	0.0031583162
205	0x3e308602	0.1723862
206	0xbbc64d62	-0.006051705
207	0x3e1b7834	0.15182573
208	0xbdd53c7e	-0.104119286
209	0xbd94ea9b	-0.0727131
210	0x3d1c945f	0.038227435
211	0x3d9c5dbc	0.07635066
212	0xbcfc10d1	-0.030769737
213	0xbe52fed6	-0.20605025
214	0xbdd292b6	-0.10281889
215	0xbd59fe24	-0.053220883
216	0x3e5807d5	0.21096738
217	0x3d812dd4	0.06307569
218	0xbb35df9a	-0.0027751685
219	0xbcc36699	-0.023852633
220	0x3e658b20	0.22416353
221	0x3da2cd07	0.07949262
222	0xbdd84970	-0.10560882
223	0xbdc6ce7b	-0.09707352
224	0x3ce71354	0.028207459
225	0x3d0cb981	0.034356598
226	0x3cdf6099	0.027267741
227	0x3e7c8edd	0.24663873
228	0x3dc959e0	0.098315954
229	0x3e5ba8bb	0.21451084
230	0xbd0758b1	-0.033043567
231	0x3e1d166b	0.15340583
232	0xbdf4109e	-0.11917232
233	0xbe63c4fe	-0.22243115
234	0x3d3c5991	0.045983855
235	0x3deef6fa	0.11668201
236	0x3e6529ea	0.2237927
237	0xbce7ad22	-0.028280798
238	0x3c8275ff	0.015925406
239	0x3dd8bdae	0.105830535
240	0xbe0cace9	-0.13737835
241	0x3e97527b	0.29555115
242	0x3e601e38	0.21886528
243	0x3e894df0	0.26817274
244	0xbd6cf2c4	-0.057848707
245	0x3e4b2e7c	0.19841951
246	0x3e82bcca	0.2553466
247	0x3dacb275	0.084324755
248	0x3c08bc9a	0.008345747
249	0x3cffb7f8	0.031215653
250	0x3dfdc896	0.12391774
251	0x3e4dfe8f	0.20116638
252	0xbd016429	-0.03158966
253	0x3dbee5a9	0.09321148
254	0x3e39082f	0.18069528
255	0xbca34674	-0.019931056

action_model._discrete_distribution.branches.1.bias f4 [3]
0	0xbbf691aa	-0.0075246887
1	0xbe1555e0	-0.1458354
2	0x3d5b8814	0.05359657
