results/3/Test4/Drive/checkpoint.pt (torch, 326542 bytes, 20 tensors)

discrete_act_size_vector f4 [1, 2]
0	0x40000000	2.0
1	0x40400000	3.0

network_body._body_endoder.seq_layers.0.weight f4 [128, 70]
0	0x3de9f5b5	0.11423818
1	0x3d58fd45	0.05297591
2	0xbd42b86b	-0.047539156
3	0x3d9aae12	0.075527325
4	0x3da38ec8	0.07986218
5	0x3e97639b	0.2956818
6	0xbd2ad9da	-0.041711666
7	0xbc9ef741	-0.01940501
8	0x3dd2044f	0.10254728
9	0x3d4576c8	0.04820898
10	0xbdb18b0d	-0.086691
11	0xbdd34ce9	-0.10317404
12	0x3e01f657	0.12691627
13	0xbe1f5608	-0.15560162
14	0x3c570a06	0.013124948
15	0xbd50c452	-0.050968476
16	0xbd99d1f8	-0.075107515
17	0xbd79a58c	-0.060948893
18	0xbda3ef0c	-0.08004579
19	0xbe1d9821	-0.15390064
20	0x3d3c8cb6	0.04603263
21	0x3daaf8e3	0.083482526
22	0xbe24b0ab	-0.16083018
23	0xbd5ba762	-0.053626426
24	0xbd35e9ee	-0.044412546
25	0xbdad3518	-0.084573925
26	0xbd6ad8c4	-0.05733563
27	0xbe187bac	-0.14890927
28	0x3d62edf0	0.055402696
29	0x3ceb10a4	0.028694458
30	0x3df234d6	0.11826484
31	0xbd889327	-0.06668692
32	0x3b84c976	0.0040523363
33	0xbe43b299	-0.19111098
34	0x3bde98cb	0.0067931167
35	0x3dda2edb	0.10653468
36	0xbe266aa8	-0.16251624
37	0xbdfe2f12	-0.12411322
38	0xbd6a373f	-0.057181593
39	0xbdd92eee	-0.10604654
40	0xbe0cd6f2	-0.1375387
41	0x3de997a0	0.11405873
42	0x3e12f830	0.14352489
43	0x3e110bbb	0.14164631
44	0xbdc88d0e	-0.09792529
45	0xbd7c79ab	-0.06163947
46	0xbd9da739	-0.07697911
47	0x3de3d4dd	0.11124585
48	0xbdf830a5	-0.12118653
49	0xba1e3e1e	-0.0006036478
50	0xbe7e5147	-0.24835692
51	0x3de6e46d	0.112740375
52	0x3cab4627	0.020907475
53	0xbd157cf8	-0.036496133
54	0x3db6dd6c	0.089289516
55	0xbe23ae4c	-0.15984458
56	0xbdbc15e3	-0.09183862
57	0xbda667ea	-0.08125289
58	0x3da77fdf	0.08178686
59	0x3c06190c	0.008184683
60	0x3cc90146	0.02453674
61	0x3d77a473	0.060459565
62	0xbd93820e	-0.0720254
63	0x3d794dd9	0.060865257
64	0x3e19ca39	0.15018548
65	0xbdba8429	-0.09107239
66	0xbd59c772	-0.05316872
67	0x3d84ae1b	0.064785205
68	0x3d976b52	0.073935166
69	0x3df8395e	0.12120317
70	0xbc8831b6	-0.016625267
71	0x3dfd692a	0.12373574
72	0x3e24ca29	0.16092743
73	0x3d86515b	0.06558486
74	0xbe807749	-0.25091007
75	0x3e1c888d	0.15286465
76	0xbdc9166f	-0.09818732
77	0x3db19514	0.086710125
78	0x3dd7b733	0.10532989
79	0xbca9c60b	-0.020724317
80	0xbe687f2c	-0.22704762
81	0xbe16f77c	-0.14742845
82	0xbe449abb	-0.1919965
83	0xbdbfd68a	-0.09367092
84	0xbd7e19f4	-0.06203647
85	0xbdb7968a	-0.0896426
86	0x3dd19b11	0.10234655
87	0xbe33c793	-0.175566
88	0xbddcab20	-0.10774827
89	0xbc12a201	-0.008949758
90	0x3d274df9	0.040845845
91	0x3e421e4c	0.1895687
92	0xbdc20294	-0.09473148
93	0xbe18fae7	-0.14939462
94	0xbdcf01a0	-0.10107732
95	0xbda3ba35	-0.079945005
96	0xbcdd01cf	-0.026978401
97	0xbdd92833	-0.106033705
98	0x3e242fba	0.16033831
99	0xbce7a1b5	-0.02827535
100	0x3d60c405	0.05487444
101	0xbe029250	-0.12751126
102	0x3e08ff8a	0.1337873
103	0xbe49e30e	-0.1971552
104	0xbd831898	-0.06401175
105	0xbd6e6737	-0.058203902
106	0xbccad8cb	-0.024761578
107	0x3e2109f0	0.15726447
108	0x3db9bba9	0.090689965
109	0x3d3e231c	0.0464202
110	0xbcb7694d	-0.022389079
111	0x3dad601b	0.08465596
112	0x3d57fe2f	0.052732643
113	0x3d0495c7	0.0323694
114	0x3dbfc1f5	0.09363166
115	0x3cbaaf6b	0.022788724
116	0x3cb00295	0.021485606
117	0x3d78a3cc	0.060703084
118	0x3d97ed9d	0.07418368
119	0x3d0e6fd8	0.03477463
120	0xbdfc8901	-0.12330819
121	0xbdfa7c19	-0.12230701
122	0x3d85072c	0.064955086
123	0xbe20a216	-0.15686831
124	0x3eb95730	0.3619933
125	0xbd481de6	-0.04885664
126	0x3d8668bb	0.065629445
127	0xbe2dc76c	-0.16970605
128	0xbc837289	-0.016045826
129	0xbdc7d6f2	-0.097577944
130	0x3db99718	0.09062022
131	0xbdf04ea5	-0.1173375
132	0xbd227a58	-0.039667457
133	0x3e811479	0.25210932
134	0x3e59e7f0	0.21279883
135	0x3e9975f2	0.29972798
136	0x3c3d3d47	0.011550254
137	0x3ca2fb59	0.019895243
138	0xbc1f63ab	-0.009728353
139	0xbe2dffc8	-0.16992104
140	0x385de2a6	5.290159e-05
141	0xbcd8d2b4	-0.026467659
142	0x3e177130	0.14789271
143	0x3e4a2a0f	0.19742607
144	0xbd0126e3	-0.031531226
145	0x3e2a8cf3	0.1665533
146	0x3cdb4024	0.026763983
147	0xbd7d2ef3	-0.061812352
148	0xbe91e710	-0.284966
149	0xbe6a984f	-0.22909664
150	0x3ddfa91a	0.109209254
151	0x3e9adece	0.3024811
152	0xbbc22e74	-0.005925948
153	0xbec9db44	-0.394251
154	0xbe6e71d8	-0.23285615
155	0xbdaf1137	-0.08548205
156	0x3d1d67a5	0.03842892
157	0x3e01aa39	0.12662591
158	0xbda9ca8d	-0.082905866
159	0xbe076dd8	-0.13225496
160	0xbe50edea	-0.20403257
161	0x3e52efec	0.20599335
162	0x3e76db29	0.2410704
163	0xbde67efa	-0.112546876
164	0xbd1807a7	-0.037116673
165	0x3d3b4ace	0.045725636
166	0x3da9e06f	0.082947604
167	0xbe5bd5e8	-0.21468318
168	0xbe16f59d	-0.14742132
169	0xbd20d79e	-0.03926813
170	0xbc03643c	-0.008019503
171	0x3d2b75c1	0.041860346
172	0x3e605b26	0.2190977
173	0xbb28f27a	-0.0025779293
174	0xbd2354a9	-0.03987566
175	0x3d9d123e	0.07669495
176	0xbd914d96	-0.070948765
177	0xbe379e88	-0.17931569
178	0xbd6ff193	-0.058579993
179	0x3dcf8baa	0.10134061
180	0x3e09c372	0.13453463
181	0x3d94230f	0.072332494
182	0xbd265a63	-0.040613543
183	0xbe0f8777	-0.1401652
184	0xbc679227	-0.0141339665
185	0x3e0e372d	0.13888235
186	0x3e1812be	0.148509
187	0xbe2cfc3c	-0.16893095
188	0x3d6e9978	0.058251828
189	0x3bf447d6	0.0074548526
190	0x3d697660	0.056997657
191	0xbc8fd774	-0.01755879
192	0x3e8abec1	0.2709866
193	0x3c5e28c1	0.013559521
194	0x3e53bf10	0.20678353
195	0xbccba40a	-0.024858493
196	0x3c99d645	0.01877893
197	0xbe303fa0	-0.17211771
198	0xbdabce06	-0.08388905
199	0xbd850b7a	-0.064963296
200	0x3dee8cb6	0.11647932
201	0xbe21efe8	-0.15814173
202	0x3ea481f5	0.321304
203	0xbe08c31e	-0.13355681
204	0xbe1239d8	-0.14279878
205	0xbd66f28a	-0.056383647
206	0xbda8e21a	-0.082462505
207	0xbd1c9d73	-0.038236093
208	0x3db147ba	0.08656259
209	0x3c49c8f6	0.012315979
210	0xbca4fa16	-0.020138782
211	0x3dc933b2	0.09824313
212	0x3d227d63	0.03967036
213	0xbe784bb7	-0.24247633
214	0x3e12fd8a	0.1435453
215	0xbd817bf4	-0.0632247
216	0x3e31b012	0.17352322
217	0xbe5ae020	-0.2137456
218	0x3d8d74c6	0.069070384
219	0xbe0dce34	-0.13848191
220	0xbe5888cd	-0.21145935
221	0xbd269ee5	-0.040678877
222	0x3dd40295	0.10352055
223	0xbcbcd2b8	-0.023049697
224	0x3db29fcb	0.08721884
225	0xbd6c534b	-0.057696622
226	0xbe8018e5	-0.25018993
227	0x3d8f2ade	0.06990598
228	0xbe060e62	-0.13091424
229	0x3d35f37e	0.044421665
230	0xbc3b28c5	-0.011423294
231	0xbdc951dd	-0.09830067
232	0xbd80aacb	-0.06282576
233	0x3d0e4c63	0.034740817
234	0x3c389dee	0.011268122
235	0x3e19d94f	0.15024303
236	0x3d817da9	0.06322796
237	0x3eb8dac1	0.36104396
238	0xbb9e0056	-0.0048218174
239	0xbe85af88	-0.26110482
240	0xbd0960e2	-0.03353966
241	0xb8483fac	-4.7743015e-05
242	0xbe050af2	-0.12992457
243	0xbcd40e8b	-0.02588584
244	0xbddf0070	-0.10888755
245	0xbe8d0aa5	-0.27547184
246	0xbd7daeef	-0.061934408
247	0x3e8a9ef1	0.27074388
248	0xbc400591	-0.011720077
249	0xbdf88f03	-0.12136652
250	0xbe1fbf9f	-0.15600441
251	0xbe064d3f	-0.13115405
252	0xbdd91d00	-0.106012344
253	0xbe82092c	-0.25397623
254	0x3d1f196b	0.0388426
255	0xbcaf7e9a	-0.021422673

network_body._body_endoder.seq_layers.0.bias f4 [128]
0	0x00000000	0.0
1	0x00000000	0.0
2	0x00000000	0.0
3	0x00000000	0.0
4	0x00000000	0.0
5	0x00000000	0.0
6	0x00000000	0.0
7	0x00000000	0.0
8	0x00000000	0.0
9	0x00000000	0.0
10	0x00000000	0.0
11	0x00000000	0.0
12	0x00000000	0.0
13	0x00000000	0.0
14	0x00000000	0.0
15	0x00000000	0.0
16	0x00000000	0.0
17	0x00000000	0.0
18	0x00000000	0.0
19	0x00000000	0.0
20	0x00000000	0.0
21	0x00000000	0.0
22	0x00000000	0.0
23	0x00000000	0.0
24	0x00000000	0.0
25	0x00000000	0.0
26	0x00000000	0.0
27	0x00000000	0.0
28	0x00000000	0.0
29	0x00000000	0.0
30	0x00000000	0.0
31	0x00000000	0.0
32	0x00000000	0.0
33	0x00000000	0.0
34	0x00000000	0.0
35	0x00000000	0.0
36	0x00000000	0.0
37	0x00000000	0.0
38	0x00000000	0.0
39	0x00000000	0.0
40	0x00000000	0.0
41	0x00000000	0.0
42	0x00000000	0.0
43	0x00000000	0.0
44	0x00000000	0.0
45	0x00000000	0.0
46	0x00000000	0.0
47	0x00000000	0.0
48	0x00000000	0.0
49	0x00000000	0.0
50	0x00000000	0.0
51	0x00000000	0.0
52	0x00000000	0.0
53	0x00000000	0.0
54	0x00000000	0.0
55	0x00000000	0.0
56	0x00000000	0.0
57	0x00000000	0.0
58	0x00000000	0.0
59	0x00000000	0.0
60	0x00000000	0.0
61	0x00000000	0.0
62	0x00000000	0.0
63	0x00000000	0.0
64	0x00000000	0.0
65	0x00000000	0.0
66	0x00000000	0.0
67	0x00000000	0.0
68	0x00000000	0.0
69	0x00000000	0.0
70	0x00000000	0.0
71	0x00000000	0.0
72	0x00000000	0.0
73	0x00000000	0.0
74	0x00000000	0.0
75	0x00000000	0.0
76	0x00000000	0.0
77	0x00000000	0.0
78	0x00000000	0.0
79	0x00000000	0.0
80	0x00000000	0.0
81	0x00000000	0.0
82	0x00000000	0.0
83	0x00000000	0.0
84	0x00000000	0.0
85	0x00000000	0.0
86	0x00000000	0.0
87	0x00000000	0.0
88	0x00000000	0.0
89	0x00000000	0.0
90	0x00000000	0.0
91	0x00000000	0.0
92	0x00000000	0.0
93	0x00000000	0.0
94	0x00000000	0.0
95	0x00000000	0.0
96	0x00000000	0.0
97	0x00000000	0.0
98	0x00000000	0.0
99	0x00000000	0.0
100	0x00000000	0.0
101	0x00000000	0.0
102	0x00000000	0.0
103	0x00000000	0.0
104	0x00000000	0.0
105	0x00000000	0.0
106	0x00000000	0.0
107	0x00000000	0.0
108	0x00000000	0.0
109	0x00000000	0.0
110	0x00000000	0.0
111	0x00000000	0.0
112	0x00000000	0.0
113	0x00000000	0.0
114	0x00000000	0.0
115	0x00000000	0.0
116	0x00000000	0.0
117	0x00000000	0.0
118	0x00000000	0.0
119	0x00000000	0.0
120	0x00000000	0.0
121	0x00000000	0.0
122	0x00000000	0.0
123	0x00000000	0.0
124	0x00000000	0.0
125	0x00000000	0.0
126	0x00000000	0.0
127	0x00000000	0.0

network_body._body_endoder.seq_layers.2.weight f4 [128, 128]
0	0x3dad12a0	0.08450818
1	0x3c06940a	0.008214006
2	0xbc13164b	-0.008977483
3	0xbc7ce25c	-0.015434828
4	0xbd82439c	-0.06360552
5	0x3cc902fe	0.02453756
6	0x3ce0c3f1	0.027437182
7	0x3d5149bf	0.05109572
8	0x3e0f19b6	0.13974652
9	0xbb24b013	-0.0025129362
10	0x3e245b55	0.16050465
11	0xbaec422f	-0.0018025095
12	0xbe2e9b9c	-0.17051548
13	0xbe15e6b8	-0.14638793
14	0xbdbe2651	-0.09284652
15	0xbc0b83d9	-0.008515322
16	0xbb68564f	-0.0035451835
17	0xbd20c150	-0.039246857
18	0x3c65f378	0.014035098
19	0x3e025459	0.12727489
20	0x3d6cc52d	0.05780523
21	0x3ddc7bfe	0.10765837
22	0x3cc6d1b2	0.024269912
23	0xbe3deda6	-0.18547687
24	0xbe850ff0	-0.25988722
25	0xbd075dd2	-0.03304846
26	0xbe0088ef	-0.12552236
27	0xbc66759e	-0.014066128
28	0x3d8b7230	0.06808889
29	0x3be4961e	0.006975903
30	0xbda882cd	-0.08228073
31	0x3db56752	0.088575974
32	0x3bb05831	0.005381607
33	0x3da8a215	0.0823404
34	0xbdcb556b	-0.099284016
35	0x3b713ade	0.003680877
36	0xbd85d6b6	-0.065350935
37	0xbd5fb89c	-0.054619417
38	0xbcf4fc03	-0.029905325
39	0xbe0a3be3	-0.13499407
40	0x3d3ec9c9	0.046579156
41	0x3e11af64	0.14227062
42	0x3d999435	0.074989714
43	0x3e3253c5	0.17414768
44	0x3c978629	0.01849659
45	0xbabfb4b9	-0.0014626003
46	0x3dd5e178	0.104433954
47	0xbd8be61c	-0.06830999
48	0xbd53508a	-0.05159048
49	0x3dc94765	0.098280706
50	0xbcc75f42	-0.024337415
51	0xbd456bf1	-0.048198644
52	0x3ca76552	0.020434055
53	0x3dcd5b7b	0.10027214
54	0xbd8d707e	-0.06906222
55	0x3d3ec4d9	0.046574447
56	0xbdc47dab	-0.09594282
57	0x3da1f189	0.07907397
58	0x3d77f7aa	0.060538925
59	0x3d86cd1e	0.06582092
60	0x3e419b64	0.18906933
61	0x3c940c33	0.018072223
62	0x3ce49746	0.027904164
63	0x3e1a886a	0.150911
64	0x3db1f2af	0.08688866
65	0x3d185b3d	0.037196387
66	0x3b97ac80	0.004628718
67	0x3e15e661	0.14638664
68	0x3e27def2	0.1639364
69	0x3d60e0f8	0.054902047
70	0xbe2a9b1e	-0.16660735
71	0x3e376082	0.17907909
72	0xbdcab6a0	-0.09898114
73	0x3dd1a5b8	0.102366865
74	0xbe4bccc3	-0.19902329
75	0xbdad0321	-0.084478624
76	0xbdb08f41	-0.086210735
77	0x3e0d63c2	0.13807586
78	0xbdf09a14	-0.11748138
79	0x3cba9c45	0.022779593
80	0xbd442e35	-0.04789563
81	0x3df3b508	0.11899763
82	0x3e27e7bc	0.16396993
83	0x3d8b55c3	0.06803467
84	0xbd4c8c91	-0.049938742
85	0xbd7764aa	-0.060398735
86	0x3bd33fea	0.006446828
87	0x3d644426	0.055729054
88	0x3d7385ac	0.05945365
89	0x3e05b247	0.13056289
90	0x3c5cf304	0.013485674
91	0xbcda088d	-0.026615405
92	0xbd38a73f	-0.045081373
93	0xbd5666b7	-0.05234405
94	0x3c32839f	0.010895639
95	0xbc97ad29	-0.018515186
96	0x3cf90f36	0.030402761
97	0x3dc85faf	0.09783875
98	0xbbaf3e52	-0.0053480053
99	0x3b574b09	0.003285112
100	0x3c297cfc	0.01034474
101	0x3d1140ca	0.03546218
102	0xbd4e83fa	-0.05041883
103	0x3ddc59bf	0.10759305
104	0xbd933ee7	-0.07189732
105	0x3e234b8b	0.15946786
106	0x3d8fe7dd	0.07026646
107	0xbc425738	-0.011861615
108	0x3d93ed46	0.07222991
109	0xbda48869	-0.08033831
110	0x3d83c6a9	0.06434376
111	0x3d868a0d	0.065693
112	0x3ca7da88	0.020489946
113	0xbc3ed6d3	-0.011647898
114	0xbdbec772	-0.09315385
115	0x3d65f9fe	0.056146614
116	0x3e1a567b	0.15072052
117	0xbe0c0036	-0.13671955
118	0xbd434393	-0.047671866
119	0x3c8d07f9	0.017215716
120	0x3d857342	0.06516124
121	0xbdcfa177	-0.10138219
122	0x3d137938	0.036004275
123	0xbda1a964	-0.07893637
124	0xbd246708	-0.04013732
125	0x3d995f69	0.07488901
126	0xbd4a43bd	-0.049381007
127	0x3d49e8f9	0.049294446
128	0xbce1ce26	-0.02756412
129	0x3e2f1908	0.17099392
130	0xbdf3f9ae	-0.11912857
131	0xbdcacd29	-0.099024124
132	0xbdca03d5	-0.09864012
133	0xbc9b72d0	-0.018975645
134	0x3db1d31a	0.086828426
135	0xbe299ebf	-0.16564463
136	0xbe301b5d	-0.17197938
137	0x3e0a8190	0.13525987
138	0xbe52da06	-0.20590982
139	0xbdfc6f80	-0.123259544
140	0x3dcef51a	0.10105343
141	0xbe31971d	-0.17342801
142	0xbc3307a8	-0.010927118
143	0xbe58e859	-0.21182384
144	0xbd8a2fe8	-0.06747419
145	0xbe315012	-0.173157
146	0x3de90291	0.11377443
147	0xbc512765	-0.01276574
148	0x3d4fb6bc	0.05071138
149	0xbcd032ae	-0.025414791
150	0x3da21562	0.07914235
151	0xbca08c3c	-0.019598119
152	0xbe065b88	-0.13120854
153	0x3c9fdd1e	0.019514617
154	0x3d3c38a9	0.045952473
155	0x3d9de328	0.07709342
156	0xbdd09be1	-0.101859815
157	0x3d1b18d7	0.037865486
158	0x3d9e16f7	0.07719224
159	0x3ca159ea	0.019696195
160	0x3ca7e6d5	0.020495811
161	0x3be26976	0.0069095446
162	0x3dbbcecf	0.09170305
163	0xbd84975d	-0.06474183
164	0x3da209d3	0.0791203
165	0xbbb6cb0d	-0.0055784048
166	0xba15c8a5	-0.0005713797
167	0x3e108a36	0.14115223
168	0x3e8b1a5e	0.27168554
169	0x3be58d43	0.007005365
170	0xbd5438ba	-0.05181191
171	0xbcdb206f	-0.026748864
172	0xbd05490a	-0.03254036
173	0xbd87a1ea	-0.066226795
174	0xbd1a3fc2	-0.03765846
175	0xbd7a7dfe	-0.06115531
176	0x3d881e4d	0.066464044
177	0xbe388827	-0.18020688
178	0x3c0cc55f	0.008591979
179	0xbd46fb7f	-0.04857969
180	0xbdc9921e	-0.09842323
181	0x3af02fc3	0.0018324781
182	0x3dc292b6	0.09500639
183	0x3d350897	0.044197645
184	0x3e4f9b5e	0.20274112
185	0x3d941b41	0.07231761
186	0x3dcc15f3	0.09965124
187	0x3de9a536	0.114084646
188	0x3e393818	0.18087804
189	0x3d87db9c	0.06633684
190	0xbcb7b238	-0.022423849
191	0x3dce2654	0.10065904
192	0xbdbf6bb5	-0.09346715
193	0xbdbbd0de	-0.09170698
194	0x38cd1f4c	9.780991e-05
195	0xbc1f6522	-0.009728702
196	0xbe04c7e7	-0.12966882
197	0xbd0cb5cb	-0.03435306
198	0x3d2e9150	0.04261905
199	0xbd847ef3	-0.06469526
200	0x3ce6c145	0.02816833
201	0x3dee9715	0.1164991
202	0x3dec6216	0.11542146
203	0xbd697658	-0.056997627
204	0x3cec4e0b	0.028845808
205	0x3df87afc	0.121328324
206	0x3d90a7aa	0.070632294
207	0x3ce4bdd9	0.027922558
208	0x3ce4fa9b	0.02795153
209	0xbcfaba08	-0.030606285
210	0xbd6f98fe	-0.058495514
211	0x3e0707a3	0.13186507
212	0xbdbac5dd	-0.09119771
213	0x3d067bfb	0.03283308
214	0x3df81f32	0.12115325
215	0xbc235694	-0.009969372
216	0x3cd75497	0.026285453
217	0x3dc6055e	0.096689925
218	0xbbefebc8	-0.0073218085
219	0x3db9feae	0.090817794
220	0x3d4db95e	0.050225608
221	0x3d6f6760	0.058448195
222	0x3db9e2c3	0.090764545
223	0xbd31615f	-0.04330575
224	0x3df13494	0.117776066
225	0x3ceeea5e	0.02916449
226	0x3dff0894	0.12452808
227	0xbe03dc73	-0.12877063
228	0xbd3ff426	-0.046863697
229	0xbd8da096	-0.06915395
230	0x3de89bf0	0.11357868
231	0xbd644783	-0.05573226
232	0xbd2af2a1	-0.041735295
233	0xbc99dc48	-0.018781796
234	0x3c7f5cd9	0.015586101
235	0x3da713e8	0.08158094
236	0xbd74aae5	-0.05973329
237	0xbc458310	-0.0120551735
238	0x3d052bb1	0.03251237
239	0x3cc74776	0.024326067
240	0x3c08662e	0.008325143
241	0xbde5303c	-0.111908406
242	0xbc43a6b7	-0.011941603
243	0xbcbd7574	-0.023127295
244	0xbd6aa1b1	-0.057283107
245	0xbcceb32e	-0.025231924
246	0x3d2ee3b6	0.04269763
247	0xbb9f2f66	-0.0048579453
248	0x3c81e20d	0.01585486
249	0x3cd387ef	0.025821654
250	0x3d3fc6b7	0.04682037
251	0x3e234526	0.15944347
252	0x3cfeaf04	0.031089313
253	0xbe009339	-0.12556161
254	0xbd0df81a	-0.034660436
255	0xbd0ba57d	-0.03409337

network_body._body_endoder.seq_layers.2.bias f4 [128]
0	0x00000000	0.0
1	0x00000000	0.0
2	0x00000000	0.0
3	0x00000000	0.0
4	0x00000000	0.0
5	0x00000000	0.0
6	0x00000000	0.0
7	0x00000000	0.0
8	0x00000000	0.0
9	0x00000000	0.0
10	0x00000000	0.0
11	0x00000000	0.0
12	0x00000000	0.0
13	0x00000000	0.0
14	0x00000000	0.0
15	0x00000000	0.0
16	0x00000000	0.0
17	0x00000000	0.0
18	0x00000000	0.0
19	0x00000000	0.0
20	0x00000000	0.0
21	0x00000000	0.0
22	0x00000000	0.0
23	0x00000000	0.0
24	0x00000000	0.0
25	0x00000000	0.0
26	0x00000000	0.0
27	0x00000000	0.0
28	0x00000000	0.0
29	0x00000000	0.0
30	0x00000000	0.0
31	0x00000000	0.0
32	0x00000000	0.0
33	0x00000000	0.0
34	0x00000000	0.0
35	0x00000000	0.0
36	0x00000000	0.0
37	0x00000000	0.0
38	0x00000000	0.0
39	0x00000000	0.0
40	0x00000000	0.0
41	0x00000000	0.0
42	0x00000000	0.0
43	0x00000000	0.0
44	0x00000000	0.0
45	0x00000000	0.0
46	0x00000000	0.0
47	0x00000000	0.0
48	0x00000000	0.0
49	0x00000000	0.0
50	0x00000000	0.0
51	0x00000000	0.0
52	0x00000000	0.0
53	0x00000000	0.0
54	0x00000000	0.0
55	0x00000000	0.0
56	0x00000000	0.0
57	0x00000000	0.0
58	0x00000000	0.0
59	0x00000000	0.0
60	0x00000000	0.0
61	0x00000000	0.0
62	0x00000000	0.0
63	0x00000000	0.0
64	0x00000000	0.0
65	0x00000000	0.0
66	0x00000000	0.0
67	0x00000000	0.0
68	0x00000000	0.0
69	0x00000000	0.0
70	0x00000000	0.0
71	0x00000000	0.0
72	0x00000000	0.0
73	0x00000000	0.0
74	0x00000000	0.0
75	0x00000000	0.0
76	0x00000000	0.0
77	0x00000000	0.0
78	0x00000000	0.0
79	0x00000000	0.0
80	0x00000000	0.0
81	0x00000000	0.0
82	0x00000000	0.0
83	0x00000000	0.0
84	0x00000000	0.0
85	0x00000000	0.0
86	0x00000000	0.0
87	0x00000000	0.0
88	0x00000000	0.0
89	0x00000000	0.0
90	0x00000000	0.0
91	0x00000000	0.0
92	0x00000000	0.0
93	0x00000000	0.0
94	0x00000000	0.0
95	0x00000000	0.0
96	0x00000000	0.0
97	0x00000000	0.0
98	0x00000000	0.0
99	0x00000000	0.0
100	0x00000000	0.0
101	0x00000000	0.0
102	0x00000000	0.0
103	0x00000000	0.0
104	0x00000000	0.0
105	0x00000000	0.0
106	0x00000000	0.0
107	0x00000000	0.0
108	0x00000000	0.0
109	0x00000000	0.0
110	0x00000000	0.0
111	0x00000000	0.0
112	0x00000000	0.0
113	0x00000000	0.0
114	0x00000000	0.0
115	0x00000000	0.0
116	0x00000000	0.0
117	0x00000000	0.0
118	0x00000000	0.0
119	0x00000000	0.0
120	0x00000000	0.0
121	0x00000000	0.0
122	0x00000000	0.0
123	0x00000000	0.0
124	0x00000000	0.0
125	0x00000000	0.0
126	0x00000000	0.0
127	0x00000000	0.0

action_model._discrete_distribution.branches.0.weight f4 [2, 128]
0	0x3b810073	0.003936821
1	0xbb716623	-0.003683456
2	0x3beb9d3f	0.007190376
3	0xbba55652	-0.0050456906
4	0xba77c033	-0.0009450942
5	0xbba598eb	-0.0050536296
6	0xbba86833	-0.0051393746
7	0xbb9f86c2	-0.0048683593
8	0x3ad5b9db	0.0016306
9	0x3c6b3a8a	0.0143572185
10	0xbb9cd084	-0.004785599
11	0x3c0f8f7a	0.008762235
12	0xbbe5e265	-0.0070155137
13	0xbb3db4f3	-0.0028946965
14	0x3c5196dd	0.012792316
15	0x3c7e7e00	0.01553297
16	0x3bf8678b	0.0075807027
17	0x3b2425ca	0.0025046938
18	0x3b60c465	0.0034296748
19	0xbc9f325c	-0.019433193
20	0x3b5cf19a	0.0033713342
21	0xbbe0b635	-0.0068576583
22	0xbbbe9fd2	-0.005817392
23	0x3b71f295	0.0036918272
24	0x3a8c51c4	0.001070552
25	0x3b49eed5	0.003081252
26	0x3a63c4b8	0.0008688676
27	0x3c10b09b	0.0088311685
28	0x3b1319c4	0.0022445777
29	0xbc16ab59	-0.009196126
30	0x3c924097	0.017853064
31	0xbc131d38	-0.008979134
32	0xbbb06311	-0.0053829034
33	0x39f5336d	0.00046768357
34	0xbb97d84a	-0.004633938
35	0x3be0c1fa	0.0068590613
36	0x3c9db8dd	0.019253189
37	0x3a9fbf7f	0.0012187808
38	0x3bfc61f8	0.0077021085
39	0x3c294f8f	0.01033391
40	0xbb1edc14	-0.0024240064
41	0xb98c06cf	-0.00026707954
42	0x3b15f478	0.002288131
43	0x3c75e970	0.015009269
44	0x3c738fa5	0.0148657905
45	0xb9ea1f3f	-0.00044655238
46	0xbb224e57	-0.0024765932
47	0x3c066aa2	0.008204134
48	0xbb99c83f	-0.0046930606
49	0xbc9ac65d	-0.018893415
50	0xbb4c9935	-0.0031219248
51	0xbbbc5eaa	-0.0057485895
52	0x3bf15ca7	0.0073657813
53	0xbc94452e	-0.018099394
54	0xbc06247a	-0.008187408
55	0xbba260b1	-0.004955374
56	0xbbe3ea82	-0.0069554457
57	0x3baab7cd	0.005209899
58	0x3c313151	0.010814981
59	0x3b9d7a76	0.0048058582
60	0xb9914a2b	-0.00027711815
61	0xbb7d20e5	-0.0038624343
62	0xbbfe6ccd	-0.007764435
63	0x3bd65743	0.006541164
64	0x3ba31303	0.0049766316
65	0x3be861fa	0.007091758
66	0xbc66cf6f	-0.014087542
67	0xba6408e0	-0.0008698832
68	0xb90c0dcc	-0.0001335658
69	0x3b8126bc	0.003941385
70	0x3b8460a2	0.00403984
71	0x3c1bfad1	0.0095202485
72	0xbb2bee82	-0.002623469
73	0x3b122bb3	0.0022303879
74	0xbbd46b92	-0.00648255
75	0x3cb844d6	0.022493761
76	0x3b4095ca	0.0029386156
77	0x3b62c1f3	0.0034600466
78	0x3c18f797	0.009336374
79	0x3c738a03	0.0148644475
80	0xbb22a233	-0.0024815917
81	0xbbddc5ad	-0.0067679496
82	0x3c00724a	0.007839749
83	0xbac132ec	-0.0014739907
84	0x3c13c0a2	0.009018095
85	0xbb35d6c4	-0.0027746418
86	0xbb4b0bbb	-0.0030982334
87	0xba90407e	-0.0011005548
88	0xba91dd1e	-0.001112852
89	0xbc1021a9	-0.008797088
90	0x3ba87c25	0.0051417523
91	0x3b62e072	0.0034618643
92	0x3bc1c9ed	0.005913964
93	0xb887f3c0	-6.4827036e-05
94	0xbbc47a3e	-0.0059960177
95	0x3c96885f	0.018375574
96	0xbadcb183	-0.0016837571
97	0xbb89d450	-0.004206218
98	0x3a99b442	0.0011726695
99	0x3c5d91b3	0.013523507
100	0x3b49119b	0.003068066
101	0x3c205c3a	0.0097876135
102	0xbbfae13b	-0.007656244
103	0x3bd4fd2d	0.0064999075
104	0x3bdb1da3	0.0066868826
105	0x3aa0e263	0.00122745
106	0xba37a63f	-0.00070056686
107	0x3c0f6e8a	0.008754382
108	0x3c601a50	0.013678148
109	0x3ab7333b	0.001397706
110	0xb9a81781	-0.0003206097
111	0x3b9bf203	0.0047590747
112	0xbbc9ed73	-0.0061623394
113	0xbc2df317	-0.010617039
114	0xbb01dab4	-0.0019814195
115	0x3b535117	0.0032244378
116	0xbc0637fb	-0.008192058
117	0x3b80578b	0.003916686
118	0x3b5e6492	0.0033934456
119	0x3a716295	0.000920811
120	0x3ba9ead7	0.005185466
121	0x3c2ccdcc	0.010547113
122	0x3c7eea70	0.015558824
123	0xbaa51854	-0.0012595751
124	0x3c642405	0.013924603
125	0x3b95ddbf	0.0045735533
126	0xbba12dd9	-0.0049187955
127	0xbc0fb4e9	-0.00877116
128	0x3c182245	0.009285514
129	0x3cae9ce1	0.02131504
130	0xbb1cf4ff	-0.002394974
131	0xbb391e5f	-0.0028246862
132	0xbb6bd5a3	-0.0035985492
133	0x3b90c1e1	0.0044176434
134	0xbba0b8d9	-0.004904848
135	0x3c1e630f	0.009667172
136	0x3c9efb50	0.019406945
137	0xbc01e3fb	-0.00792789
138	0x3bac6fb1	0.005262338
139	0x3b11f486	0.0022270991
140	0x3c1db2a3	0.00962511
141	0xbb956f4e	-0.0045603877
142	0xbc12e542	-0.008965792
143	0xbba73267	-0.005102444
144	0x3b1e0bf3	0.002411601
145	0x3b9c39ca	0.004767631
146	0xbc7b37f3	-0.015333164
147	0xbba6800b	-0.005081182
148	0x3ae0839f	0.001712907
149	0x3ba32a8c	0.004979437
150	0x3ba3ba64	0.0049965847
151	0xbc4d1d1a	-0.012519145
152	0xb8740833	-5.818177e-05
153	0xbb32d47e	-0.00272873
154	0x3ba9f33b	0.005186466
155	0x3aa2fb35	0.0012434485
156	0x3c8647ac	0.016391598
157	0x3c020ff6	0.007938376
158	0xbce5fb80	-0.028074026
159	0xbc033467	-0.008008099
160	0x3c6d8f2f	0.01449947
161	0xbb959bbc	-0.004565684
162	0xbbdffb57	-0.006835382
163	0xbc0b18f2	-0.008489834
164	0x3b3e2f2b	0.0029019814
165	0xbbdd758a	-0.0067583965
166	0x3ac9bdb2	0.0015391617
167	0x3ac19e5f	0.001477193
168	0xbb0b1dfe	-0.0021227594
169	0x3b4a5065	0.0030870673
170	0x3c0781bf	0.00827068
171	0xbb068e98	-0.002053177
172	0xbc486482	-0.012230994
173	0x3c6bf83a	0.014402444
174	0xbc059273	-0.008152592
175	0xba07bda8	-0.00051781023
176	0x3bb48b20	0.005509749
177	0x3b689837	0.0035491118
178	0x3baf06c1	0.0053413813
179	0x3ad815f8	0.0016486039
180	0xbb52c73b	-0.0032162208
181	0xba8fe831	-0.0010979233
182	0x3c71552d	0.01472978
183	0xbc58675f	-0.013208239
184	0x3a162dd3	0.0005728874
185	0x3add8ae8	0.0016902359
186	0x3c226ae2	0.009913178
187	0x3b75ce2f	0.0037506928
188	0xbb3d6393	-0.0028898462
189	0x3b04496c	0.0020185364
190	0xbbc14447	-0.005898032
191	0xbbbfc61f	-0.0058524753
192	0x3bcff6af	0.0063465456
193	0xbc271677	-0.010198227
194	0x3c6b6393	0.014367002
195	0x3c6a01f8	0.014282696
196	0x3c20e433	0.009820032
197	0x3bc64afd	0.00605142
198	0x3bf9dfe2	0.007625566
199	0x3b0f3c85	0.002185614
200	0xbca8f4bb	-0.02062451
201	0x3ac0d87d	0.0014712956
202	0x3b175263	0.0023089878
203	0xbaeccdb8	-0.001806668
204	0x3bd0a20b	0.0063669733
205	0xbc1691f9	-0.009190076
206	0xbca4492a	-0.020054419
207	0x3b47cea7	0.0030488165
208	0x3be787d7	0.007065754
209	0xbba427fe	-0.0050096503
210	0xbc150edd	-0.009097782
211	0x3ce24dfa	0.027625073
212	0x3a62d09b	0.00086523005
213	0xbab03346	-0.0013443015
214	0x3b89c3ea	0.004204263
215	0xbb982c43	-0.0046439483
216	0x3a04003e	0.00050354365
217	0x3b2bb9b4	0.0026203217
218	0xb87d0d82	-6.033248e-05
219	0x3c15d0cb	0.009144018
220	0xbb4be3dd	-0.003111116
221	0x3ba41797	0.005007695
222	0x3b933a31	0.004493021
223	0xbbe14f5f	-0.006875917
224	0xb978cd4f	-0.00023727606
225	0xbc8583e7	-0.016298248
226	0xbb695165	-0.0035601493
227	0xbaaf5bee	-0.0013378838
228	0xbc204f5a	-0.009784544
229	0x3c56768a	0.013089785
230	0xbc3fe33a	-0.01171189
231	0xbc017300	-0.007900953
232	0x3b4d106f	0.0031290313
233	0x3c2f8b6d	0.010714394
234	0xbc977380	-0.018487692
235	0xb9ade9c3	-0.00033171297
236	0x3bae8806	0.005326274
237	0xbbbb100b	-0.0057086996
238	0xbc3216bf	-0.010869681
239	0x3b23be36	0.00249852
240	0x3bf6eb0b	0.0075353435
241	0xbc88abb5	-0.016683439
242	0x3c82c4f8	0.015963063
243	0xbc55ebcd	-0.013056708
244	0x3abda03e	0.0014467312
245	0x3c72f4e0	0.014828891
246	0x3ca6f476	0.02038024
247	0xbb9ccf2f	-0.0047854404
248	0x3c714468	0.014725782
249	0x3bfcaf9f	0.0077113654
250	0xbaa8348b	-0.0012833042
251	0x3a842533	0.0010081887
252	0x3b99327c	0.0046752077
253	0xbc004132	-0.007828044
254	0x3bd01693	0.0063503473
255	0x3b60adab	0.0034283202

action_model._discrete_distribution.branches.0.bias f4 [2]
0	0x00000000	0.0
1	0x00000000	0.0

action_model._discrete_distribution.branches.1.weight f4 [3, 128]
0	0xbbef71c3	-0.0073072626
1	0xbc99959e	-0.0187481
2	0xbba08383	-0.00489849
3	0xbc47a777	-0.012185923
4	0xbc27fe43	-0.010253492
5	0xbc273733	-0.010206032
6	0xbba4e389	-0.005032007
7	0x3bbcb2fc	0.0057586413
8	0xb9d90e53	-0.00041400138
9	0x3b5d4ebf	0.003376886
10	0x3bd685a8	0.006546695
11	0x3b075df3	0.0020655363
12	0x3bcfa18d	0.006336397
13	0xbac6453e	-0.0015126837
14	0x3c7e108b	0.015506874
15	0xb98e25a3	-0.00027112392
16	0xbb9219e1	-0.0044586514
17	0xbc13e272	-0.009026157
18	0xbb8dda2b	-0.004328986
19	0x3bf51d02	0.0074802646
20	0xbc8c5127	-0.01712854
21	0xbb8b21b7	-0.0042459625
22	0x3b4f8460	0.0031664595
23	0x3b8abd95	0.0042340257
24	0xbc3a7947	-0.011381454
25	0xbc2cbcd2	-0.010543065
26	0x3c439d59	0.01193937
27	0xbc336ad4	-0.010950763
28	0x3acc0dd3	0.0015568085
29	0x3c416cb9	0.011805707
30	0xbb928efd	-0.004472612
31	0x3c03bcbf	0.008040606
32	0xbc267e4f	-0.01016195
33	0x3b35a7f7	0.0027718523
34	0x3ca5f161	0.0202567
35	0x3bdea3ab	0.006794413
36	0xbc2439ab	-0.010023515
37	0x3bb42636	0.005497719
38	0x3a120de9	0.0005571531
39	0xbb70f0bb	-0.003676458
40	0xbc21ac62	-0.009867759
41	0xbb32594b	-0.0027213867
42	0x3bdb56c8	0.0066936947
43	0xbba2e8b5	-0.0049715885
44	0xbb67063d	-0.003525152
45	0x3c3e0f4c	0.011600327
46	0xbba5360d	-0.0050418437
47	0xba54c990	-0.00081171934
48	0xbbe4b66b	-0.0069797537
49	0xbabf02bb	-0.0014572957
50	0xbc0cb849	-0.008588859
51	0x3a0c6f49	0.0005357159
52	0x3a142a94	0.00056520966
53	0xbb8598eb	-0.004077067
54	0x3bf3711a	0.0074292542
55	0xbc9eba6c	-0.019376002
56	0x3b2fff94	0.0026855217
57	0x3c2ab5f5	0.0104193585
58	0x3ba9044f	0.0051579843
59	0x3c233106	0.009960419
60	0x3bb2d0e2	0.0054570297
61	0xbaf21bb2	-0.0018471389
62	0xb9b02752	-0.00033598632
63	0x3b85d79a	0.0040845396
64	0xbc4a2e46	-0.012340134
65	0xbbfaed8a	-0.0076577114
66	0x3c897fca	0.016784567
67	0xbc42d3fd	-0.011891362
68	0xbb89ffa0	-0.004211381
69	0x3b30240f	0.0026876961
70	0x3b12e36d	0.0022413388
71	0x3b2f860d	0.0026782781
72	0xbac62e76	-0.0015120048
73	0xbaf840da	-0.0018940226
74	0xbc907e27	-0.01763828
75	0x3cc67f03	0.024230486
76	0x3c8514ca	0.016245265
77	0x3c337a5b	0.010954465
78	0xbba6ade2	-0.0050866464
79	0xbc189f7f	-0.009315371
80	0xbbbe91d4	-0.005815724
81	0x3c15bf72	0.009139882
82	0x3c153e73	0.009109127
83	0x3c301815	0.010747929
84	0xbb30cbb6	-0.002697689
85	0xbb166ae0	-0.0022951886
86	0x3c138efe	0.00900626
87	0xbc185b92	-0.009299176
88	0xbbcd510d	-0.0062657655
89	0x3acc7e4f	0.0015601608
90	0x3b2e7322	0.0026618917
91	0xba183479	-0.0005806159
92	0x3b33e393	0.0027448877
93	0xbc1d8e8f	-0.009616508
94	0xbb6b6b4a	-0.0035922104
95	0xbb74170d	-0.0037245185
96	0xbca9ea8c	-0.020741723
97	0xbc6e1103	-0.014530423
98	0x3c98e6db	0.018664768
99	0xbabe2617	-0.0014507201
100	0x3ab9ed19	0.001418504
101	0xbad41f23	-0.0016183596
102	0x3c577052	0.013149338
103	0xbac22656	-0.001481245
104	0x3c5ba3ef	0.013405784
105	0xbacef327	-0.0015789018
106	0x3c027466	0.007962322
107	0xbc6de6da	-0.014520371
108	0x3c25ccdb	0.010119642
109	0xbc16269b	-0.009164478
110	0x3c0a63cc	0.008446645
111	0xba92278c	-0.0011150702
112	0xbae9553a	-0.0017801889
113	0x3b2eedc5	0.0026692015
114	0x3c46ee25	0.012141739
115	0x3b6b19d0	0.003587354
116	0x3c487af1	0.012236343
117	0x3c050e64	0.008121107
118	0x3bfc6d5d	0.007703467
119	0xbaa4685b	-0.0012543307
120	0xbb4e1042	-0.0031442796
121	0xbcd7a4d5	-0.026323715
122	0xbc8a76f3	-0.016902423
123	0x3ab77813	0.0013997577
124	0x3c2b0fd0	0.010440782
125	0x3b037a88	0.0020062048
126	0x3982ec34	0.00024971517
127	0x3b8d2a05	0.0043079876
128	0x3c98e193	0.01866225
129	0xbc11023a	-0.0088506285
130	0x3b82ffec	0.0039977934
131	0xbbd162aa	-0.0063899355
132	0xbbe8b983	-0.007102193
133	0x3c671d9f	0.014106183
134	0xbc39f02b	-0.011348764
135	0x3bf1e1cb	0.007381653
136	0x3aac3a7f	0.0013139992
137	0x3a9dcd2e	0.0012039298
138	0x3a9339b7	0.001123241
139	0xbc858bb7	-0.016301973
140	0xbc179b73	-0.009253371
141	0xbc19ecdf	-0.009394853
142	0xbba9417a	-0.005165276
143	0xbb58a023	-0.0033054433
144	0xbc309687	-0.010778076
145	0x3b298063	0.0025863878
146	0xbb3801cc	-0.0028077243
147	0xbb772888	-0.0037713367
148	0xbc20261c	-0.009774711
149	0xbc1dda36	-0.009634545
150	0xbc6c4640	-0.014421046
151	0x3b96798b	0.004592126
152	0xbba3d403	-0.004999639
153	0x3a3a4a14	0.00071063754
154	0x3b236c67	0.002493644
155	0x3b9ce5db	0.004788143
156	0xbc6bdc1b	-0.014395739
157	0x3bbe44a2	0.0058065215
158	0x3c3f4ea7	0.011676467
159	0xbc90d309	-0.017678754
160	0x3c2ffbae	0.010741157
161	0xb973225b	-0.00023187084
162	0xbc8f24b4	-0.017473556
163	0x3c1e72db	0.009670938
164	0x3cc71e67	0.02430649
165	0x3ac37262	0.0014911408
166	0x3ba46df3	0.00501799
167	0x3bc4f5c6	0.006010744
168	0x3c1722f7	0.009224645
169	0xbc82e2a8	-0.015977219
170	0x3be8071b	0.007080925
171	0x3bacc97a	0.0052730413
172	0xbb828ddf	-0.0039841975
173	0xb908d19b	-0.00013048055
174	0x3bb57fef	0.0055389325
175	0x3baa6095	0.0051995018
176	0xbb82e6d2	-0.003994801
177	0x3b0adb54	0.0021187859
178	0x3c7d9663	0.0154777495
179	0x3abffb31	0.0014647004
180	0xbbd47fa2	-0.0064849416
181	0x3bc94a77	0.00614291
182	0xbc2632b7	-0.010143927
183	0x3b2b221d	0.0026112862
184	0xbc02b6d7	-0.007978163
185	0x3bb54273	0.005531603
186	0x3c062544	0.008187596
187	0xbad6aa48	-0.0016377652
188	0x3c3799f8	0.011206143
189	0x3c4c1cb8	0.012458019
190	0xbb6e4d9b	-0.0036362174
191	0x399c84d2	0.00029853598
192	0xbb7123ad	-0.0036794946
193	0xbc8cf76f	-0.01720783
194	0xbc2974b3	-0.010342765
195	0xbafb6115	-0.0019178713
196	0xbc83d771	-0.016093941
197	0xbc07a055	-0.008277972
198	0x3b0181d7	0.0019761228
199	0xbc4c3ebe	-0.012466131
200	0x3a11099b	0.00055327424
201	0x3becbc6a	0.007224609
202	0xbc05b7be	-0.008161483
203	0x3beccec7	0.007226798
204	0xbbb6bb08	-0.005576495
205	0x3c1bb9d4	0.009504754
206	0x3bc6b5e5	0.006064164
207	0xbc180d4b	-0.009280513
208	0x3c369a53	0.011145192
209	0xbbcace0c	-0.0061891135
210	0x3c2ec94b	0.010668109
211	0xb9d7ee3f	-0.00041185503
212	0x3b84f615	0.0040576556
213	0xba359d7b	-0.00069280685
214	0x3c32bdab	0.010909478
215	0xb99cf8c7	-0.00029939992
216	0xb9824a89	-0.00024851065
217	0xbb86032a	-0.0040897327
218	0x3b50c960	0.003185831
219	0x3b61ed4d	0.0034473718
220	0xbbb6fa9b	-0.0055840737
221	0x3c5627a8	0.013070978
222	0x383219ec	4.246265e-05
223	0x3b1373c7	0.0022499429
224	0xbc40e143	-0.011772457
225	0xbc853fe7	-0.016265823
226	0xbc336cb3	-0.010951209
227	0x3a63e250	0.0008693086
228	0x3c3d525e	0.011555282
229	0xbc641403	-0.013920787
230	0xbc0a4c46	-0.008441037
231	0xbb5c156d	-0.0033582107
232	0x3c3233f3	0.0108766435
233	0x3c4efcb8	0.012633495
234	0xbb3706a9	-0.0027927554
235	0xbc101941	-0.0087950835
236	0x399d8945	0.00030047647
237	0x3ca559ef	0.020184485
238	0x3bbf7abd	0.005843489
239	0xbc49f720	-0.012326986
240	0x3964944f	0.00021799024
241	0xbbd789c5	-0.0065777027
242	0x3c019a5c	0.007910337
243	0x3c3ab9e4	0.011396859
244	0x3be60388	0.007019464
245	0x3c25a6f7	0.010110608
246	0xbbbcc95e	-0.0057613095
247	0xbbab744b	-0.005232369
248	0xbcb4281b	-0.02199178
249	0xbbb4e5e8	-0.005520571
250	0xbba6841f	-0.005081668
251	0xbc0b1d1e	-0.008490829
252	0xba6b2ec7	-0.0008971509
253	0x3bad75ff	0.0052936072
254	0xbc430bdc	-0.011904683
255	0x3c4427a6	0.011972344

action_model._discrete_distribution.branches.1.bias f4 [3]
0	0x00000000	0.0
1	0x00000000	0.0
2	0x00000000	0.0

network_body._body_endoder.seq_layers.0.weight f4 [128, 70]
0	0xbdea5dff	-0.114437096
1	0xbc917bbc	-0.017759196
2	0x3da25284	0.07925895
3	0xbe14489b	-0.14480822
4	0xbe07839f	-0.13233803
5	0x3de71364	0.11282995
6	0xbea2e2bf	-0.3181362
7	0xbdb98f15	-0.09060494
8	0xbe1c3aa3	-0.15256743
9	0xbce398be	-0.027782794
10	0x3baea74e	0.005330003
11	0x3dc5ef95	0.09664837
12	0xbdff15b8	-0.124553144
13	0xbde5ab55	-0.112143196
14	0xbe0237f5	-0.12716658
15	0x3cdf1beb	0.027234992
16	0xbd03358c	-0.03203349
17	0x3d01bbaa	0.03167311
18	0xbc14b5a2	-0.009076508
19	0x3e13cee7	0.14434396
20	0x3d299e2d	0.041410614
21	0xbe069ccd	-0.13145752
22	0x3e09d264	0.13459164
23	0xbe1075ce	-0.14107439
24	0xbda1a73a	-0.07893224
25	0x3beb550f	0.0071817706
26	0xbd14e6f5	-0.03635307
27	0xbdce6bc6	-0.1007915
28	0x3df3410d	0.11877642
29	0xbd3ab13b	-0.045579176
30	0xbdf1a624	-0.11799267
31	0xbdee58a9	-0.11638004
32	0xba73acd0	-0.00092954654
33	0xbdf4a395	-0.11945263
34	0xbc36e61c	-0.011163261
35	0x3dfa7185	0.122286834
36	0x3e319c43	0.17344765
37	0xbe20d680	-0.15706825
38	0xbdde8a39	-0.10866208
39	0xbe18d59e	-0.14925238
40	0xbd677eb5	-0.05651732
41	0xbea8a347	-0.3293707
42	0x3ddcb614	0.10776916
43	0xbe9aabf9	-0.3020933
44	0x3e04dbde	0.12974498
45	0x3cb32871	0.02186987
46	0xbe2da08d	-0.16955777
47	0x3e5882bd	0.21143623
48	0x3d42787c	0.047478184
49	0xbd067c85	-0.032833595
50	0x3e0ca01c	0.13732952
51	0xbce2d54a	-0.027689595
52	0xbd318eec	-0.04334919
53	0xbddcce5a	-0.10781546
54	0xbe3eed51	-0.18645217
55	0xbd79a014	-0.060943678
56	0xbddc0038	-0.10742229
57	0x3e5ed9af	0.21762727
58	0xbd6455a0	-0.05574572
59	0xbce320a5	-0.027725527
60	0x3e055dae	0.13024017
61	0x3ddcdc2e	0.107841834
62	0xbd9e6143	-0.07733395
63	0x3e1bc83d	0.15213104
64	0x3d9a38d0	0.075303674
65	0xbdfe13b1	-0.124060996
66	0xbe133ee2	-0.14379457
67	0x3e6fd645	0.23421581
68	0x3d46cbd2	0.048534222
69	0xbde8b337	-0.113623075
70	0x3e10ddb4	0.14147073
71	0x3c6e221e	0.014534501
72	0x3d9bf7eb	0.07615646
73	0x3e4a8e5f	0.19780873
74	0x3e3eadab	0.18620937
75	0x3e3fae6a	0.18718877
76	0xbe169793	-0.14706258
77	0x3cf11bec	0.02943226
78	0xbe125232	-0.14289168
79	0x3c14ef35	0.0090902345
80	0x3c9ceb92	0.019155297
81	0x3c90e70e	0.0176883
82	0xbcf74e13	-0.030188596
83	0xbe2be123	-0.16785102
84	0x3cc326ae	0.023822155
85	0xbe09965b	-0.13436262
86	0xbe2a51e6	-0.16632804
87	0x3d605f8d	0.054778624
88	0x3d2e214a	0.042512216
89	0x3b86dbe0	0.0041155666
90	0xbc6e6aee	-0.014551861
91	0x3e1e959b	0.15486757
92	0x3db0dee3	0.08636262
93	0x3be5e14e	0.007015384
94	0xbe375607	-0.1790391
95	0x3da20d87	0.079127364
96	0xbe2461ff	-0.16053008
97	0x3e712d79	0.23552503
98	0x3c95ba1b	0.018277219
99	0x3d98c126	0.07458715
100	0x3e8fc64b	0.28080973
101	0xbce1a236	-0.027543169
102	0x3c3fdea3	0.011710796
103	0xbde91042	-0.11380054
104	0xbdb6caf7	-0.08925431
105	0xbe31ce64	-0.17363888
106	0x3e2395ec	0.1597516
107	0xbe08e4ee	-0.1336858
108	0x3db922e1	0.09039856
109	0xbc916e5c	-0.017752819
110	0xbe260939	-0.16214456
111	0xbe3cd08e	-0.18438932
112	0x3d28d854	0.04122193
113	0xbd460aaa	-0.048350014
114	0x3e5f372b	0.21798389
115	0xbe0bf713	-0.1366847
116	0x3b9c1d51	0.004764237
117	0xbd945a27	-0.07243758
118	0x3e255c8d	0.16148587
119	0xbde828c9	-0.11335904
120	0x3e4a416e	0.19751522
121	0x3d6e2733	0.058142852
122	0x3d117c78	0.035519093
123	0x3dd95430	0.106117606
124	0xbdad92d9	-0.084752746
125	0xbd774b60	-0.060374618
126	0xbd13ec41	-0.03611398
127	0x3d1e00a8	0.038574845
128	0x3d79802c	0.06091325
129	0x3e31f49f	0.17378472
130	0xbbe4f0ef	-0.0069867293
131	0x3dd786a8	0.105237305
132	0x3dcd8c34	0.10036507
133	0x3d43eefc	0.047835335
134	0xbddab4bb	-0.10679003
135	0x3e5ec18b	0.21753518
136	0x3b93978b	0.0045041493
137	0x3e130ac5	0.14359577
138	0x3d23f8ca	0.040032186
139	0xbd2afbd8	-0.041744083
140	0x3d36776b	0.04454748
141	0x3df8097a	0.121111825
142	0xbe140cb7	-0.14457975
143	0x3dae66c1	0.085156925
144	0x3e61ec04	0.22062689
145	0x3db26087	0.087098174
146	0xbc1e8d06	-0.009677177
147	0x3dd0ad30	0.10189283
148	0xbd84a96e	-0.06477629
149	0xbe08d2c4	-0.1336165
150	0xbe0e0c4b	-0.13871877
151	0x3e1ca5c3	0.15297608
152	0x3d86922b	0.06570848
153	0xbd812c55	-0.06307284
154	0xbe14e7bd	-0.14541526
155	0x3d2728c9	0.04081038
156	0xbe1a300e	-0.15057394
157	0x3ad4959d	0.0016218905
158	0x3e4afc2c	0.19822758
159	0x3e1cc806	0.15310678
160	0x3e1900f5	0.14941771
161	0x3bac761e	0.005263104
162	0x3e0e35c1	0.13887693
163	0x3e2989fc	0.16556543
164	0xbc9ea548	-0.019365922
165	0x3dca86a4	0.09888962
166	0x3e340e79	0.17583646
167	0xbd0c74f6	-0.03429123
168	0xbe30ba84	-0.1725865
169	0x3cb36c4c	0.021902226
170	0x3c34d6d4	0.011037547
171	0x3cf5af28	0.029990748
172	0x3e1ef17f	0.15521811
173	0xbcf965ab	-0.030443987
174	0x3d825afd	0.06365011
175	0xbe268336	-0.1626099
176	0x3e4d7462	0.20063928
177	0xbe5b23d9	-0.21400394
178	0x3c1f066c	0.009706121
179	0xbd3473a4	-0.044055596
180	0xbd55081d	-0.05200969
181	0x3d9f67e6	0.07783489
182	0xbe4f42a6	-0.20240268
183	0xbdaddb85	-0.08489136
184	0x3e0e45f7	0.13893877
185	0x3c884fdb	0.01663964
186	0xbcd0857b	-0.025454273
187	0xbc61732a	-0.013760367
188	0xbdc1aa60	-0.094563246
189	0xbd87b011	-0.06625379
190	0x3e658241	0.22412969
191	0xbe27bfc2	-0.16381744
192	0xbc17529c	-0.009236004
193	0xbe241cdb	-0.16026632
194	0x3dd58429	0.10425598
195	0xbd912c2a	-0.07088502
196	0xbd99baf5	-0.07506362
197	0x3ddd4393	0.108039044
198	0x3d0769e8	0.033059984
199	0xbdcb5a34	-0.09929314
200	0xbe5d07ff	-0.21585082
201	0xbdf7c11d	-0.1209738
202	0x3d1d6c3d	0.038433302
203	0xbd57164b	-0.052511495
204	0xbd19a966	-0.037515067
205	0xbd8a2549	-0.06745393
206	0xbc8fcd8b	-0.017554065
207	0xbe1890b8	-0.14898956
208	0x3defefe3	0.11715677
209	0x3e1e51c7	0.15460883
210	0xbe43c6ca	-0.19118801
211	0x3e8de2f9	0.2771223
212	0x3d0c625b	0.034273487
213	0x3d1f4567	0.038884547
214	0x3dc660de	0.09686445
215	0x3cbfd740	0.023418069
216	0xbd801346	-0.06253676
217	0x3e39400c	0.18090838
218	0xbd3cb2fc	-0.04606913
219	0x3e1ac702	0.15114978
220	0xbdfc14e5	-0.12308673
221	0x3c9bda40	0.019024968
222	0x3e4673b5	0.19380076
223	0x3deb1623	0.114788316
224	0xbc36e0ad	-0.011161965
225	0xbe080ad3	-0.13285379
226	0x3c1e956a	0.009679178
227	0xbe2e3fcd	-0.17016526
228	0xbd4bf608	-0.04979518
229	0x3ce809a7	0.028324915
230	0xbe67341e	-0.22578475
231	0xbdd75f35	-0.10516206
232	0xbe257028	-0.16156065
233	0xbd9e23f6	-0.07721703
234	0xbc81c26f	-0.015839783
235	0xbd80ddd5	-0.06292311
236	0xbda91484	-0.08255866
237	0x3d59f63d	0.053213347
238	0x3c5410ed	0.012943489
239	0xbe01231f	-0.12611054
240	0x3e455eae	0.19274399
241	0x3e1c96f1	0.15291955
242	0x3e12f9fe	0.14353177
243	0x3d275b80	0.040858746
244	0x3e3986e0	0.18117857
245	0x3d8a0b2b	0.06740411
246	0xbd06a92a	-0.03287617
247	0x3e30d447	0.17268477
248	0xbe6aaa90	-0.22916627
249	0x3d4c02ee	0.04980748
250	0xbe169517	-0.14705311
251	0x3e336f28	0.17522871
252	0x3d8a44a8	0.067513764
253	0xbe0b0525	-0.13576181
254	0x3bfe8e49	0.0077684266
255	0xbc110bf2	-0.008852946

network_body._body_endoder.seq_layers.0.bias f4 [128]
0	0x00000000	0.0
1	0x00000000	0.0
2	0x00000000	0.0
3	0x00000000	0.0
4	0x00000000	0.0
5	0x00000000	0.0
6	0x00000000	0.0
7	0x00000000	0.0
8	0x00000000	0.0
9	0x00000000	0.0
10	0x00000000	0.0
11	0x00000000	0.0
12	0x00000000	0.0
13	0x00000000	0.0
14	0x00000000	0.0
15	0x00000000	0.0
16	0x00000000	0.0
17	0x00000000	0.0
18	0x00000000	0.0
19	0x00000000	0.0
20	0x00000000	0.0
21	0x00000000	0.0
22	0x00000000	0.0
23	0x00000000	0.0
24	0x00000000	0.0
25	0x00000000	0.0
26	0x00000000	0.0
27	0x00000000	0.0
28	0x00000000	0.0
29	0x00000000	0.0
30	0x00000000	0.0
31	0x00000000	0.0
32	0x00000000	0.0
33	0x00000000	0.0
34	0x00000000	0.0
35	0x00000000	0.0
36	0x00000000	0.0
37	0x00000000	0.0
38	0x00000000	0.0
39	0x00000000	0.0
40	0x00000000	0.0
41	0x00000000	0.0
42	0x00000000	0.0
43	0x00000000	0.0
44	0x00000000	0.0
45	0x00000000	0.0
46	0x00000000	0.0
47	0x00000000	0.0
48	0x00000000	0.0
49	0x00000000	0.0
50	0x00000000	0.0
51	0x00000000	0.0
52	0x00000000	0.0
53	0x00000000	0.0
54	0x00000000	0.0
55	0x00000000	0.0
56	0x00000000	0.0
57	0x00000000	0.0
58	0x00000000	0.0
59	0x00000000	0.0
60	0x00000000	0.0
61	0x00000000	0.0
62	0x00000000	0.0
63	0x00000000	0.0
64	0x00000000	0.0
65	0x00000000	0.0
66	0x00000000	0.0
67	0x00000000	0.0
68	0x00000000	0.0
69	0x00000000	0.0
70	0x00000000	0.0
71	0x00000000	0.0
72	0x00000000	0.0
73	0x00000000	0.0
74	0x00000000	0.0
75	0x00000000	0.0
76	0x00000000	0.0
77	0x00000000	0.0
78	0x00000000	0.0
79	0x00000000	0.0
80	0x00000000	0.0
81	0x00000000	0.0
82	0x00000000	0.0
83	0x00000000	0.0
84	0x00000000	0.0
85	0x00000000	0.0
86	0x00000000	0.0
87	0x00000000	0.0
88	0x00000000	0.0
89	0x00000000	0.0
90	0x00000000	0.0
91	0x00000000	0.0
92	0x00000000	0.0
93	0x00000000	0.0
94	0x00000000	0.0
95	0x00000000	0.0
96	0x00000000	0.0
97	0x00000000	0.0
98	0x00000000	0.0
99	0x00000000	0.0
100	0x00000000	0.0
101	0x00000000	0.0
102	0x00000000	0.0
103	0x00000000	0.0
104	0x00000000	0.0
105	0x00000000	0.0
106	0x00000000	0.0
107	0x00000000	0.0
108	0x00000000	0.0
109	0x00000000	0.0
110	0x00000000	0.0
111	0x00000000	0.0
112	0x00000000	0.0
113	0x00000000	0.0
114	0x00000000	0.0
115	0x00000000	0.0
116	0x00000000	0.0
117	0x00000000	0.0
118	0x00000000	0.0
119	0x00000000	0.0
120	0x00000000	0.0
121	0x00000000	0.0
122	0x00000000	0.0
123	0x00000000	0.0
124	0x00000000	0.0
125	0x00000000	0.0
126	0x00000000	0.0
127	0x00000000	0.0

network_body._body_endoder.seq_layers.2.weight f4 [128, 128]
0	0x3e0f00dc	0.13965172
1	0x3d974100	0.07385445
2	0x390192ea	0.00012357128
3	0xbdb610f0	-0.08889949
4	0x3dc44cbc	0.095849484
5	0xbd635ffe	-0.055511467
6	0xbcd16595	-0.025561133
7	0xbdaae58d	-0.083445646
8	0x3e08dc83	0.13365369
9	0x3da40dcd	0.08010445
10	0xbcc6e7bb	-0.02428042
11	0xbda09b9e	-0.078421816
12	0x3d891c70	0.06694877
13	0xbd9f05da	-0.07764788
14	0x3d578f42	0.052626856
15	0xbc9fda51	-0.019513281
16	0x3de9b53e	0.11411522
17	0xbdc7a53c	-0.09748313
18	0x3c27d61d	0.01024392
19	0x3db5c160	0.08874774
20	0xbd42b6e7	-0.04753771
21	0xbbdbae19	-0.0067041037
22	0x3b09239e	0.002092577
23	0x3c9bbe31	0.019011589
24	0xbc125f10	-0.0089337975
25	0xbd8e156c	-0.0693768
26	0x3dde67a3	0.10859611
27	0xbba5cd89	-0.005059902
28	0xbe20e688	-0.1571294
29	0x3c1ba63d	0.0095000835
30	0x3debd5f8	0.11515421
31	0x3d96cd49	0.07363374
32	0x3d99f89a	0.0751812
33	0xbc712f72	-0.0147207845
34	0xbd22326f	-0.03959888
35	0xbde85a27	-0.1134532
36	0xbe270557	-0.1631063
37	0xbca1e0fd	-0.019760603
38	0x3e0ab49c	0.1354546
39	0xbde27bd4	-0.110587746
40	0xbd98881c	-0.07447836
41	0xbe2cfb4c	-0.16892737
42	0xbc6448c6	-0.013933366
43	0x3bbfeca8	0.005857069
44	0x3dc59dbe	0.096492276
45	0xbd74d831	-0.05977649
46	0xbcd2c63f	-0.025729297
47	0xbcb1e91d	-0.021717602
48	0xbbca7309	-0.006178264
49	0x3d817e88	0.06322962
50	0xbdd65a33	-0.10466423
51	0xbc94112f	-0.0180746
52	0xbca90b0f	-0.020635156
53	0x3e35b7fe	0.17745969
54	0xbd26d8cf	-0.04073411
55	0x3d8a98cc	0.06767425
56	0xbde53113	-0.11191001
57	0xbdacc032	-0.08435096
58	0xbd0fe7d6	-0.035133205
59	0xbd0efead	-0.034910847
60	0xbc4a51cb	-0.0123486025
61	0xbd5811aa	-0.05275122
62	0xbb29179f	-0.0025801433
63	0xbd9f2061	-0.07769848
64	0xbda68ea3	-0.081326745
65	0xbd046d16	-0.032330595
66	0x3cd1d2dc	0.02561324
67	0xbc74e64d	-0.014947486
68	0x3e812122	0.2522059
69	0xbe98acf1	-0.29819444
70	0xbc634fd9	-0.013874018
71	0xbde3a039	-0.111145444
72	0x3e126f17	0.1430019
73	0x3defa53e	0.11701439
74	0xbc53aa03	-0.012918952
75	0xbdada13b	-0.08478018
76	0x3c168f9c	0.009189513
77	0xbcaa23ae	-0.020768967
78	0xbdb268a1	-0.08711363
79	0xbdce397c	-0.10069558
80	0xbc9196dd	-0.017772133
81	0x3d3a58df	0.04549491
82	0x3e3890ee	0.18024036
83	0x3c7f135f	0.015568583
84	0xbdccb369	-0.09995157
85	0x3e7ce0c9	0.24695124
86	0xbc453b16	-0.012038013
87	0xbc18b67a	-0.00932085
88	0xbd6b9aa6	-0.05752053
89	0x3e1b2076	0.15149102
90	0xbd9b5cd8	-0.07586068
91	0x3dc7752e	0.09739147
92	0xbd63d430	-0.05562228
93	0xbdf5f4e0	-0.12009597
94	0xbcc40426	-0.02392776
95	0xbe0d1fac	-0.13781613
96	0xbd89b150	-0.06723273
97	0xbbbec216	-0.0058214767
98	0xbcf6e083	-0.030136352
99	0xbc21bb4d	-0.009871316
100	0xbe2ea6b1	-0.17055775
101	0xbe351a32	-0.17685774
102	0x3d9343f6	0.07190697
103	0xbc2d2d2b	-0.010569851
104	0xbdfa4eed	-0.12222085
105	0x3db76c8f	0.08956253
106	0xbe587d95	-0.21141656
107	0x3cb849dc	0.022496156
108	0x3d4b3fd4	0.049621418
109	0x3db6c7cf	0.08924829
110	0x3da7abfa	0.08187099
111	0xbdabf391	-0.08396066
112	0x3c7ca529	0.015420237
113	0xbe02c5db	-0.12770788
114	0xbc228c1f	-0.009921103
115	0x3d213a3a	0.03936217
116	0xbc21fa1b	-0.00988629
117	0x3d24a6f8	0.040198296
118	0x3c1e1ee6	0.009650921
119	0xbdc4ce89	-0.09609706
120	0x3c3b65d3	0.011437851
121	0x3d188439	0.037235472
122	0xbd79ac17	-0.060955133
123	0x3de92dd9	0.11385698
124	0xbde46e9d	-0.1115391
125	0x3c40496e	0.011736257
126	0xbdcffe6a	-0.101559475
127	0x3dc1361e	0.0943415
128	0x3c9099bd	0.017651433
129	0xbd2aca5d	-0.041696895
130	0x3e3e9651	0.18612029
131	0xbcbecaed	-0.023290122
132	0x3dabb8f3	0.08384886
133	0xbd9b77dc	-0.07591221
134	0x3d1c85f6	0.038213693
135	0xbdde7387	-0.10861879
136	0xbc587f93	-0.01321401
137	0x3c8aa4b7	0.016924245
138	0x3c84438a	0.016145486
139	0xbd225855	-0.03963502
140	0xbe2824d2	-0.16420296
141	0x3b9351dd	0.004495843
142	0xbe1db2f1	-0.15400292
143	0xbd8c3f73	-0.068480395
144	0xbdf4ce48	-0.119534075
145	0xbd2af1be	-0.04173445
146	0x3c30cd38	0.010791115
147	0x3e13a9aa	0.1442019
148	0x3cdec58c	0.027193807
149	0xbd69d824	-0.057090893
150	0x3da8958b	0.08231648
151	0xbdd150d5	-0.102204956
152	0x3d9ad1ad	0.07559524
153	0x3cd7708e	0.026298787
154	0x3da962c4	0.08270791
155	0x3cd80e4e	0.026374009
156	0xbdf6945f	-0.12040018
157	0xbda5d9d4	-0.08098188
158	0x3d107b41	0.035273794
159	0x3d5e85fb	0.054326992
160	0x3d31ab9b	0.043376546
161	0x3d48eb80	0.049052715
162	0x3c2eb376	0.010662904
163	0xbdb5382c	-0.088486046
164	0xbe01dbfc	-0.12681574
165	0x3d73358a	0.05937723
166	0x3da0ebd5	0.078574814
167	0x3db26c10	0.087120175
168	0x3da46348	0.08026749
169	0xbb028def	-0.0019921025
170	0xbe093a9d	-0.13401265
171	0xbd842bb2	-0.06453647
172	0xbd33d087	-0.04390004
173	0xbdb02712	-0.08601202
174	0x3d0fda87	0.035120513
175	0x3dfdb5e6	0.1238821
176	0xbd4717f1	-0.048606817
177	0xbcf71e7c	-0.030165903
178	0x3e071de5	0.13194998
179	0x3c7e5955	0.015524228
180	0xbd10fc74	-0.035397008
181	0x3c808779	0.015689598
182	0xbb4da370	-0.0031377934
183	0xbead318e	-0.3382687
184	0xbd9b1b3d	-0.07573555
185	0xbda64cc6	-0.08120112
186	0x3b891685	0.0041835927
187	0xbccef8ff	-0.025265215
188	0x3e5901f6	0.21192154
189	0x3cc4f2fd	0.024041647
190	0xbb9fb0b1	-0.004873358
191	0x3de453ce	0.11148797
192	0xbe1f2e40	-0.15544987
193	0xbd00ba98	-0.03142795
194	0x3ce2fa1a	0.027707148
195	0x3c663c8f	0.014052524
196	0xbda8eaf2	-0.08247937
197	0x3e01b553	0.12666826
198	0xbd02247f	-0.031773087
199	0x3d7fbe59	0.06243739
200	0x3cfef079	0.031120526
201	0x3d9eeb50	0.07759726
202	0x3d2a0ae3	0.04151429
203	0xbe0f0cc7	-0.13969718
204	0x3d9128ed	0.07087884
205	0x3b3c4931	0.002873015
206	0x3d68be54	0.056822136
207	0x3d5347f3	0.051582288
208	0xbd7a6088	-0.061127216
209	0xbd430ebe	-0.04762148
210	0xbe16157b	-0.14656632
211	0xbe317a27	-0.17331754
212	0xbcea9964	-0.028637595
213	0xbca8e505	-0.020617018
214	0x3da0559a	0.07828827
215	0x3d17be03	0.037046444
216	0x3d0c1f83	0.03420974
217	0xbb954338	-0.0045551322
218	0x3d8c6155	0.06854502
219	0x3d7b32d9	0.06132779
220	0xbc3726d5	-0.011178692
221	0xbccccfa8	-0.025001362
222	0xbccca9cd	-0.024983311
223	0xbd3e66a6	-0.046484612
224	0x3e1ce6a4	0.15322357
225	0xbe3767f9	-0.17910756
226	0x3d3381c4	0.043824926
227	0xbd3ea810	-0.046546996
228	0xbd5cb309	-0.05388168
229	0xbcfa0176	-0.030518275
230	0xbd805b7f	-0.062674515
231	0x3d6116cd	0.054953385
232	0xbd0439c9	-0.03228167
233	0xbd8ed9d3	-0.069751404
234	0x3a101c7d	0.0005497409
235	0xbc595b1e	-0.013266353
236	0xbd0fcabe	-0.03510546
237	0x3c25d32c	0.010121148
238	0xbd3f2c75	-0.046673257
239	0x3c2ebd55	0.010665257
240	0xbcc5e9e1	-0.024159374
241	0xbd86e797	-0.06587141
242	0xbdae6578	-0.085154474
243	0x3d155d27	0.03646579
244	0xbda2a91f	-0.079424135
245	0x3d06e9d8	0.032937855
246	0xbcab83fc	-0.020936958
247	0x3c7602c0	0.015015304
248	0xbd837049	-0.06417901
249	0x3d0576cf	0.032584008
250	0x3e3595fc	0.17732996
251	0x3d95cc02	0.07314302
252	0x3dfed76b	0.124434315
253	0x3e1ce797	0.1532272
254	0x3d8792e7	0.06619816
255	0xbd6f2d9a	-0.0583931
